lightning_logs/insurance/version_0/checkpoints/epoch=49-step=1300.ckpt (torch, 170090 bytes, 27 tensors)

input.weight f4 [64, 6]
0	0x3d788a5f	0.060678836
1	0x3ead830d	0.33889046
2	0x3d423d30	0.047421634
3	0xbe734431	-0.23756482
4	0x3e886521	0.26639655
5	0x3e1dfbdc	0.15428108
6	0x3f307c92	0.6894008
7	0x3d844528	0.06458503
8	0x3edb15a4	0.42789948
9	0x3e0666f7	0.13125215
10	0x3e60f083	0.21966748
11	0x3ed12150	0.40845728
12	0x3e530950	0.20609021
13	0x3daf957e	0.08573435
14	0x3ec4ab11	0.38411763
15	0xbe498da6	-0.19682941
16	0x3f6a48b2	0.91517174
17	0x3e06ce85	0.13164718
18	0x3ea72c19	0.3265083
19	0xbc79f990	-0.015257254
20	0x3eb7198b	0.35761675
21	0x3e23088f	0.15921234
22	0x3f8c9dd4	1.0985665
23	0xbd5bd17e	-0.053666584
24	0xbc862273	-0.016373849
25	0x3f006a9b	0.5016267
26	0x3de8e434	0.11371651
27	0x3e71abb3	0.23600654
28	0xbdc51907	-0.09623914
29	0xbecbcdf5	-0.3980557
30	0x3f16bccd	0.5888184
31	0xbe5fc640	-0.2185297
32	0x3f07951c	0.529619
33	0xbe617259	-0.22016276
34	0x3e929053	0.28625736
35	0x3e93e58e	0.28886074
36	0x3dea1f1b	0.11431714
37	0xbea14990	-0.31501436
38	0x3ef26932	0.47345883
39	0x3e9319da	0.2873066
40	0x3f3155c1	0.69271475
41	0x3df45a91	0.11931337
42	0xbde78758	-0.11305112
43	0x3e44fd60	0.1923728
44	0x3f0fec31	0.56219774
45	0xbe8c6273	-0.2741886
46	0x3f82f5fd	1.023132
47	0xbe36fbe3	-0.17869525
48	0x3f1ccb7f	0.6124801
49	0x3ec5ebbd	0.38656417
50	0x3ea97d89	0.33103588
51	0x3e55b09c	0.20868152
52	0x3f1f9543	0.6233713
53	0x3da8ccaf	0.08242165
54	0x3f024e03	0.50900286
55	0xbeab0948	-0.3340552
56	0x3f06f567	0.52718204
57	0xbe925eac	-0.28587854
58	0x3f137d97	0.5761351
59	0xbd8aa9b4	-0.067706496
60	0x3eff8760	0.4990797
61	0x3d0474ab	0.032337826
62	0x3f0c3e81	0.54782873
63	0x3da8d27f	0.08243274
64	0x3d95c6b7	0.073132925
65	0xbd0edbc7	-0.034877565
66	0xbeb2bd7f	-0.349102
67	0xbe097b4a	-0.13425937
68	0x3ecff23e	0.40614504
69	0x3dda3278	0.106541574
70	0xbe8cff50	-0.27538538
71	0xbd238de8	-0.039930254
72	0x3eaf8929	0.34284332
73	0x3deaab00	0.11458397
74	0xbd365a59	-0.044519756
75	0x3e8b25fc	0.27177417
76	0x3e3d8faf	0.18511842
77	0x3edc7e47	0.43065092
78	0x3ec00ee5	0.37511364
79	0xbe132cfe	-0.14372632
80	0x3ec9faa4	0.39449036
81	0xbe42304e	-0.1896374
82	0x3f41b1cc	0.7566192
83	0xbe44b277	-0.19208704
84	0x3e0eaea3	0.13933806
85	0x3ebba544	0.36649525
86	0x3e92bae6	0.28658217
87	0x3dff4fc2	0.124663845
88	0x3eb31755	0.34978738
89	0x3e50e184	0.20398527
90	0x3ec943b7	0.39309475
91	0xbd1fcb52	-0.03901226
92	0x3ec4dd63	0.38450155
93	0x3d7415d4	0.05959113
94	0x3f838188	1.0273905
95	0x3e838fc7	0.2569563
96	0x3f220c9f	0.6330051
97	0x3eaf8183	0.34278497
98	0x3d2bed87	0.04197457
99	0x3e19c2a3	0.15015654
100	0x3edb9219	0.428849
101	0xbe279c49	-0.16368212
102	0x3f111aa8	0.566813
103	0xbd1c8e53	-0.03822167
104	0x3e28f0db	0.16498129
105	0xbe945f98	-0.28979182
106	0x3f8aee60	1.0853996
107	0xbdb9e5d8	-0.09077042
108	0x3e7ee2fb	0.24891274
109	0xbe4c134d	-0.19929238
110	0x3e72e821	0.23721363
111	0x3e2c50f4	0.16827756
112	0x3ebd31bd	0.3695201
113	0x3ea5ff50	0.3242135
114	0x3f23de61	0.640112
115	0xbe630d66	-0.2217308
116	0x3eb4857c	0.3525809
117	0xbe456cbb	-0.19279759
118	0x3f0bc0fe	0.5459136
119	0x3dec6ebe	0.1154456
120	0x3ee9d74c	0.4567207
121	0x3e61020c	0.21973437
122	0xbe2bc6b7	-0.16775022
123	0x3e8847d9	0.26617315
124	0x3e37e9c1	0.17960264
125	0x3e0c9e46	0.13732252
126	0x3ce37bdd	0.027769024
127	0xbe42271d	-0.18960233
128	0x3e6b03d6	0.22950682
129	0x3ece035c	0.40236938
130	0x3f181fe3	0.59423655
131	0xbdd55202	-0.104160324
132	0x3edf7934	0.43647158
133	0x3d8df926	0.06932287
134	0x3e8b23c2	0.2717572
135	0x3ea8a118	0.32935405
136	0x3ed46d3c	0.4148959
137	0x3d131d11	0.03591639
138	0x3d8d305a	0.06893988
139	0x3d951421	0.0727923
140	0x3f13fa33	0.5780365
141	0x3ee8af1c	0.45446098
142	0x3f6d7615	0.92758304
143	0xbe299c37	-0.16563497
144	0xbd24c7cd	-0.040229607
145	0x3e06d733	0.1316803
146	0x3e93fd7b	0.28904328
147	0xbea01fe0	-0.3127432
148	0x3f7f70b3	0.9978134
149	0xbc9bb6be	-0.019008037
150	0x3f11b284	0.5691302
151	0x3e74a535	0.23891146
152	0x3ed813da	0.42202646
153	0x3df2ad16	0.1184942
154	0x3f7728ae	0.9654645
155	0xbdb65b6b	-0.08904155
156	0x3f23d4d0	0.639966
157	0xbe6bcfae	-0.23028442
158	0x3ef9a86a	0.48761302
159	0xbe30513f	-0.17218493
160	0x3ec9de0c	0.3942722
161	0xbd90bd6f	-0.070673816
162	0x3f1320d3	0.5747196
163	0x3d2539f3	0.040338468
164	0xbd837b19	-0.064199634
165	0xbea051b2	-0.3131233
166	0x3ed8ee27	0.42369196
167	0x3e298e11	0.165581
168	0x3f31dd2d	0.6947811
169	0x3dd790af	0.10525643
170	0x3e8ecf89	0.27892712
171	0x3eda3c6c	0.42624223
172	0x3eb440bb	0.35205635
173	0xbe29e81a	-0.16592446
174	0x3f2eb2ab	0.68241376
175	0x3e8f5145	0.2799169
176	0x3f2302ad	0.6367596
177	0x3ea846ce	0.3286652
178	0x3f352a06	0.7076725
179	0xbdcd1de5	-0.100154676
180	0xbdf06800	-0.117385864
181	0xbe845ae0	-0.25850582
182	0x3e9d2538	0.30692458
183	0xbebabdaf	-0.36472842
184	0xbe7791e2	-0.24176744
185	0xbe919a8d	-0.28438225
186	0x3ef1a47e	0.4719581
187	0x3e19394e	0.14963266
188	0xbe2654ce	-0.16243288
189	0x3ee4bd65	0.44675747
190	0x3e599f3b	0.21252148
191	0x3e8e435f	0.27785775
192	0xbe3e9b53	-0.18613939
193	0x3ebbee26	0.3670513
194	0x3eb9f820	0.36322117
195	0xbe576309	-0.21033873
196	0x3eb1a0d5	0.34693018
197	0x3d99b985	0.07506088
198	0x3cec6084	0.028854616
199	0xbe99363f	-0.299242
200	0x3b8b47f3	0.0042505204
201	0x3ea5e9a7	0.32404825
202	0xbe110a64	-0.1416412
203	0xbeb60361	-0.35549453
204	0x3f222187	0.6333241
205	0x3e5db67d	0.21651645
206	0xbdc8f879	-0.098130174
207	0x3c85c89b	0.016331008
208	0x3f5e5dda	0.86861956
209	0x3c86bfd1	0.016448887
210	0x3dd4a5a4	0.10383156
211	0x3e9ec8ae	0.3101248
212	0xbd679765	-0.056540865
213	0xbea1821d	-0.3154458
214	0x3efe1a5e	0.49629492
215	0x3debca93	0.11513247
216	0x3ee5eaf9	0.44905832
217	0x3d3b85b3	0.045781802
218	0x3ee22119	0.44165877
219	0xbd801862	-0.06254651
220	0x3f15497b	0.5831525
221	0xbe7adbe2	-0.24497941
222	0x3eb4adc1	0.35288814
223	0x3ebdc45e	0.3706388
224	0x3eefaee8	0.4681313
225	0x3d96df46	0.07366805
226	0x3e5d6041	0.21618749
227	0x3d0640b2	0.032776542
228	0xbc8a493e	-0.016880628
229	0xbe0f102f	-0.13971017
230	0x3ef66e2b	0.48130926
231	0x3eb15f8a	0.34643203
232	0x3f3c08bc	0.7345083
233	0x3e2188be	0.15774819
234	0x3ef29f4b	0.47387156
235	0xbe9f019b	-0.31055912
236	0x3f05ee82	0.5231706
237	0x3e10d74d	0.1414463
238	0x3f0a2594	0.5396359
239	0xbe3294dd	-0.174396
240	0x3cae3ebc	0.021270148
241	0xbd2088c9	-0.03919295
242	0x3e8ff1c4	0.2811414
243	0xbdbb9256	-0.09158771
244	0x3f188067	0.59570926
245	0x3e73c112	0.23804119
246	0x3eb994d0	0.36246347
247	0x3d58f516	0.052968107
248	0x3ee55943	0.44794664
249	0xbe0bfb3d	-0.13670059
250	0x3eed9a2f	0.46406695
251	0x3e4a71a6	0.19769916
252	0x3f26766b	0.6502444
253	0xbc327d69	-0.010894158
254	0xbc86da41	-0.016461493
255	0xbe1882c3	-0.14893632

input.bias f4 [64]
0	0x3edb2a0c	0.42805517
1	0x3e5a8b8f	0.213423
2	0xbed0adba	-0.40757543
3	0xbd9c175e	-0.076216444
4	0xbe5f7628	-0.21822417
5	0x3e06ab22	0.1315122
6	0x3e2f6dca	0.17131725
7	0x3dbc4eff	0.09194755
8	0xbe42bedb	-0.19018118
9	0x3e2bac00	0.16764832
10	0xbe399e24	-0.18126732
11	0xbeb00953	-0.34382114
12	0x3e077990	0.13229966
13	0x3ea0cba3	0.31405362
14	0xbe7dbf2e	-0.2477996
15	0xbe5f9c99	-0.21837081
16	0x3e659398	0.22419584
17	0x3e150b94	0.14555198
18	0xbe1b9afd	-0.15195842
19	0xbe7a40cc	-0.2443878
20	0x3e1390e4	0.1441074
21	0x3ea06c80	0.3133278
22	0xbe7cd3bf	-0.2469015
23	0xbd4fb83f	-0.05071282
24	0xbe6854ed	-0.22688647
25	0xbe692790	-0.22768998
26	0x3dbad385	0.091223754
27	0x3cd8c2b6	0.026460033
28	0x3db771ae	0.089572296
29	0xbe9495e4	-0.29020607
30	0xbec6caea	-0.38826686
31	0x3dd0da1e	0.101978526
32	0xbeacced1	-0.33751538
33	0x3cfd58ab	0.03092607
34	0x3e7e09bc	0.24808401
35	0xbe7bf71d	-0.24605985
36	0x3ec812ef	0.39076945
37	0xbeb6108d	-0.35559502
38	0x3e82f62a	0.25578433
39	0x3e985e66	0.2975952
40	0xbe936a1d	-0.28791896
41	0xbe8a2fbc	-0.26989543
42	0x3e708442	0.23487952
43	0xbda1f5bf	-0.079082005
44	0xbe3f9bbb	-0.1871175
45	0xbdf72741	-0.12068034
46	0x3ead6cd8	0.33872104
47	0x3e41f1e8	0.18939936
48	0x3c92ccbd	0.017919892
49	0x3e760754	0.24026233
50	0x3d70f31d	0.0588256
51	0xbe70748b	-0.23481958
52	0x3e4eef70	0.20208526
53	0x3ddcabbe	0.10774945
54	0xbd50cebf	-0.05097842
55	0x3e9b04a0	0.30276966
56	0x3eaea3fb	0.34109482
57	0xbce3d085	-0.02780939
58	0xbea86f08	-0.3289721
59	0xbec8f092	-0.3924604
60	0x3e2aca6c	0.1667878
61	0xbda2d4d0	-0.07950747
62	0xbe930ef7	-0.28722355
63	0x3c0ea9d8	0.008707486

hidden.0.0.weight f4 [64, 64]
0	0xbdc34c41	-0.09536029
1	0x3d6d8b02	0.057993896
2	0x3edfe839	0.4373186
3	0x3f054638	0.5206027
4	0xbe444f7d	-0.19170947
5	0xbc08b8bb	-0.008344824
6	0x3e6c3a48	0.23069108
7	0x3ecd1764	0.40056908
8	0x3e14e81c	0.14541668
9	0x3e9931fb	0.29920945
10	0x3e8113b6	0.2521035
11	0x3ca5c240	0.020234227
12	0xbdbff64e	-0.09373151
13	0x3ee6e02c	0.45092905
14	0x3e60cde0	0.21953535
15	0x3e7738f6	0.24142823
16	0x3e4e55fa	0.20149985
17	0x3f03f92d	0.5155209
18	0x3df23cdf	0.118280165
19	0x3ea017dc	0.31268203
20	0x3e0e0e0b	0.13872544
21	0x3e27e055	0.1639417
22	0x3ecf5c31	0.40500024
23	0x3f2c726d	0.673621
24	0x3ed85598	0.42252803
25	0x3f2afcb7	0.6679186
26	0x3ebb85bf	0.36625478
27	0x3e865d55	0.26243082
28	0x3e79e488	0.24403584
29	0x3edf0390	0.43557405
30	0xbdbf0252	-0.093266144
31	0xbd03031e	-0.031985395
32	0x3e02de72	0.12780169
33	0xbd8aa623	-0.06769969
34	0x3e6563f3	0.22401409
35	0x3e736f8e	0.23773023
36	0x3e9faac9	0.31184986
37	0x3e4297f4	0.19003278
38	0x3e42f0af	0.19037126
39	0x3e8d257d	0.27567664
40	0x3e815eda	0.25267678
41	0x3e86e128	0.26343656
42	0x3d3f8089	0.04675344
43	0x3f00f1a8	0.5036874
44	0x3f3031c2	0.68825924
45	0x3f00729b	0.50174874
46	0x3e6080cd	0.21924134
47	0x3ea0b61c	0.31388938
48	0x3ee2ecef	0.4432139
49	0x3eec9009	0.4620364
50	0x3e9bce14	0.30430663
51	0x3eed2dbc	0.46323955
52	0x3ebb1cda	0.3654545
53	0x3e9c9d4b	0.30588755
54	0x3ed928fb	0.42414078
55	0x3ee9d332	0.45668942
56	0x3b71f886	0.0036921813
57	0x3ef51cef	0.47873637
58	0xbdd381d8	-0.103275
59	0x3e9ac46b	0.3022798
60	0x3e71012d	0.23535605
61	0x3ed414f6	0.41422242
62	0xbdd5032e	-0.10400997
63	0x3f16ee37	0.58957237
64	0x3dcff354	0.10153833
65	0xbd6574f0	-0.056019723
66	0xbdf2ca0a	-0.11854942
67	0xbd90bbf0	-0.07067096
68	0x3d38e538	0.045140475
69	0xbcc300d0	-0.023804098
70	0xbdea2efa	-0.11434741
71	0xbc520a80	-0.012819886
72	0xbd3fd68c	-0.046835467
73	0x3dc45d10	0.09588063
74	0xbd5b0b44	-0.05347754
75	0xbd70f2e4	-0.05882539
76	0x3d495e10	0.04916197
77	0xbda6b23a	-0.08139463
78	0xbca6e770	-0.02037403
79	0xbc093430	-0.008374259
80	0x3dea4412	0.11438765
81	0x3c5c9f10	0.013465658
82	0xbc12ba40	-0.008955538
83	0xbd0e1acc	-0.034693524
84	0x3d787cc8	0.060665876
85	0x3cc1a260	0.023636997
86	0x3bb97600	0.0056598186
87	0xbdcddda6	-0.10052042
88	0xbdf4c89a	-0.11952324
89	0x3c319b80	0.010840297
90	0xbddc241c	-0.10749075
91	0x3db32542	0.08747341
92	0x3c279ad0	0.010229781
93	0x3c57f000	0.013179779
94	0x3db13062	0.086518064
95	0x3d373124	0.0447246
96	0x3d8260a8	0.06366092
97	0x3ce08ff8	0.0274124
98	0xbde3ada6	-0.11117105
99	0x3d847dc4	0.064693004
100	0xbdfc04a0	-0.1230557
101	0x3df09fe0	0.11749244
102	0xbd8ef8ca	-0.069810465
103	0x3db70bf8	0.0893783
104	0x3b8a18e0	0.004214391
105	0x3b7e0f40	0.0038766414
106	0xbd2c6bb0	-0.042094886
107	0xbdb17b14	-0.086660534
108	0xbd94cc56	-0.072655365
109	0xbd51b768	-0.0512003
110	0x3d3911b0	0.045182884
111	0x3d80b566	0.06284599
112	0x3d975080	0.07388401
113	0xbdec33e0	-0.11533332
114	0xbcf6b060	-0.030113399
115	0x3db9f9a4	0.09080818
116	0xbd96baf6	-0.07359879
117	0xbdb61a2e	-0.08891712
118	0x3da377b2	0.079818144
119	0x3d590ec0	0.052992582
120	0xbd61ae38	-0.05509779
121	0xbd824f46	-0.063627765
122	0xbde59b1c	-0.112112254
123	0x3c59ad70	0.01328598
124	0x3d9442a6	0.07239275
125	0xbdce8af4	-0.10085097
126	0x3c44a8a0	0.012003094
127	0x3d9f01da	0.07764025
128	0x3de23c58	0.11046666
129	0x3e121df3	0.14269237
130	0x3ef08abe	0.46980852
131	0x3ef69905	0.4816362
132	0xbda585ff	-0.08082198
133	0x3e474d8b	0.19463174
134	0x3e18a18f	0.1490538
135	0x3edeb2ae	0.43495697
136	0x3e6a6368	0.22889483
137	0x3e74b5be	0.23897454
138	0x3dd6d133	0.1048912
139	0xbd20784c	-0.039177224
140	0xbdbdb2e8	-0.09262639
141	0x3efc4e1c	0.49278343
142	0x3d8fb806	0.070175216
143	0x3e91f98e	0.28510708
144	0x3e95fcca	0.29294425
145	0x3edce5d0	0.43144083
146	0x3e5f878b	0.2182905
147	0x3e746186	0.23865327
148	0x3cffe8d0	0.031238943
149	0x3e0ab302	0.13544849
150	0x3ebe30aa	0.37146503
151	0x3f13e9f3	0.57778853
152	0x3f25899d	0.64663106
153	0x3efaa976	0.48957413
154	0x3e8b5892	0.2721601
155	0x3e3b183d	0.18270965
156	0x3ea0319e	0.31287855
157	0x3ecab0bf	0.39587972
158	0xbd429c28	-0.047512203
159	0x3e18bbab	0.1491534
160	0x3e0b8fb4	0.13629037
161	0x3d7cbd56	0.061704002
162	0x3dde9717	0.10868662
163	0x3e9b3908	0.3031695
164	0x3edc201d	0.4299325
165	0x3daed7bf	0.08537244
166	0x3e899e4b	0.2687858
167	0x3ebebb59	0.3725231
168	0x3e70dada	0.23520985
169	0x3e1b3cb2	0.15159872
170	0x3e50e59c	0.20400089
171	0x3f0ec625	0.55771095
172	0x3f22a648	0.63534975
173	0x3f397ccc	0.7245605
174	0x3e7e8316	0.24854693
175	0x3ea73042	0.32654005
176	0x3ea1662e	0.3152327
177	0x3ee4d81d	0.4469613
178	0x3e335c96	0.17515787
179	0x3f164ed1	0.58714014
180	0x3e8dc9bc	0.27692974
181	0x3e997ce2	0.2997809
182	0x3ec0bb91	0.37643102
183	0x3ee9405d	0.45556918
184	0x3d613714	0.054984167
185	0x3ecf65a8	0.40507245
186	0xbd925fc2	-0.071471706
187	0x3eb060c3	0.34448823
188	0x3eb3d17f	0.3512077
189	0x3ede9311	0.43471578
190	0xbc8effec	-0.017456017
191	0x3ef78a01	0.48347476
192	0xbdf6a9d2	-0.120441094
193	0x3d866f12	0.06564154
194	0x3dc941ea	0.09827025
195	0x3d2c31e8	0.04203978
196	0x3d776770	0.06040138
197	0xbbada000	-0.0052986145
198	0xbdcb2db6	-0.09920828
199	0xbdb0cd5e	-0.08632921
200	0xbdf8385c	-0.12120125
201	0x3d5edaf4	0.05440803
202	0xbdd2a74a	-0.10285814
203	0xbde2dff6	-0.110778734
204	0x3dba4244	0.090946704
205	0x3d234a44	0.039865747
206	0x3beecf40	0.0072878897
207	0xbdef3824	-0.1168063
208	0xbdaf409a	-0.08557244
209	0xbbd0d2a0	-0.0063727647
210	0xbdd5b55e	-0.10434984
211	0xbd3a3d08	-0.04546836
212	0xbd3e06fc	-0.04639338
213	0xbd8da15a	-0.06915541
214	0x3cd21038	0.0256425
215	0xbd5357f0	-0.051597536
216	0xbdab8d12	-0.083765164
217	0xbd0ebfe4	-0.03485097
218	0x3ceb0dd8	0.028693125
219	0x3d26a9b0	0.04068917
220	0x3dc4092c	0.09572062
221	0xbdd36ba8	-0.10323268
222	0x3dddaa0c	0.108234495
223	0x3dd76af4	0.105184466
224	0xbcd2f8b8	-0.025753364
225	0x3d4423b0	0.047885597
226	0xbda78344	-0.08179334
227	0x3daa20c8	0.08307034
228	0xbcf54050	-0.029937893
229	0xbd593470	-0.053028524
230	0xbdcdb00c	-0.10043344
231	0xbda90efc	-0.08254811
232	0xbd1b7544	-0.03795363
233	0x3d6873c8	0.056751043
234	0xbd81ca74	-0.06337443
235	0x3d658404	0.056034103
236	0x3d7aefe0	0.06126392
237	0xbdf9bde6	-0.121944234
238	0x3d8011bc	0.062533826
239	0x3cf3a680	0.02974248
240	0x3d43c8e8	0.04779902
241	0xbdf71950	-0.12065375
242	0x3bfcb200	0.007711649
243	0x3d888a90	0.06667054
244	0x3b452740	0.003008321
245	0x3db04826	0.08607511
246	0xbdbd72cc	-0.092504114
247	0x3cf71368	0.03016062
248	0x3deebab6	0.11656706
249	0xbd5d0a68	-0.053965002
250	0x3d0bbcc8	0.034115583
251	0x3d05d504	0.03267385
252	0xbd9db606	-0.07700734
253	0x3d68174c	0.056662843
254	0x3d7c0e0c	0.061536834
255	0xbd10cf6c	-0.035354063

hidden.0.0.bias f4 [64]
0	0xbe2f0b61	-0.17094184
1	0xbd6afb58	-0.057368606
2	0xbdc1fa32	-0.09471549
3	0xbdfec3f2	-0.12439717
4	0xbe30267a	-0.17202178
5	0x3bd92f32	0.0066279406
6	0xbe17d3fb	-0.14826958
7	0xbd7df174	-0.061997846
8	0xbc0d7ccf	-0.008635714
9	0xbce5f076	-0.028068762
10	0xbd855c3d	-0.06511734
11	0xbd12cc10	-0.03583914
12	0xbdcb52cc	-0.099279016
13	0xbd8b6bd4	-0.06807676
14	0xbdec0d65	-0.11525992
15	0xbced8921	-0.028996052
16	0xbdda79d4	-0.10667768
17	0xbd1a7912	-0.037713118
18	0xbe47117c	-0.19440264
19	0xbda4d8f3	-0.08049192
20	0x3d100f2e	0.035170726
21	0xbdf9df28	-0.12200767
22	0xbdfaf1da	-0.12253161
23	0x3cdcfe85	0.026976833
24	0xbd66cf44	-0.056350008
25	0xbddd67a1	-0.10810781
26	0xbde3e91d	-0.11128447
27	0x3d4aae70	0.049482763
28	0xbe450a32	-0.1924217
29	0x3d850573	0.0649518
30	0xbe0b6ab9	-0.1361493
31	0xbda39a42	-0.07988407
32	0xbe02e716	-0.12783465
33	0xbe2e5fe8	-0.17028773
34	0x3d45993d	0.048241843
35	0xbde60272	-0.11230935
36	0x3d7450ec	0.059647486
37	0x3d0380ab	0.03210513
38	0xbe0279c5	-0.12741764
39	0xbdf712de	-0.120641455
40	0xbdc7e1e9	-0.09759886
41	0xbc8e1d7a	-0.01734804
42	0xbdf52f0f	-0.11971866
43	0xbdbda9d4	-0.09260908
44	0xbd04ca7f	-0.032419678
45	0xbe47d9f9	-0.19516744
46	0xbe4f6e01	-0.20256807
47	0xbe50a16f	-0.20374082
48	0xbe409032	-0.18805006
49	0xbd470e2c	-0.0485975
50	0xbdca5629	-0.09879715
51	0xbe0192c8	-0.12653649
52	0x3d126d98	0.035749048
53	0x3b9dc252	0.0048144246
54	0xbe241c1b	-0.16026346
55	0x3b142b25	0.0022608724
56	0xbe321f65	-0.17394789
57	0xbdd6ed76	-0.10494511
58	0xbec4350f	-0.3832173
59	0xba772ced	-0.0009428997
60	0xbdab9c0b	-0.08379372
61	0xbd04fadc	-0.0324658
62	0xbdc544f0	-0.096322894
63	0xbdee7900	-0.11644173

hidden.1.0.weight f4 [64, 64]
0	0x3ed0aa26	0.40754813
1	0xbde79ad6	-0.113088295
2	0x3ed201f2	0.4101711
3	0x3d8c5bc0	0.068534374
4	0x3e740e3a	0.23833552
5	0x3eaf8acd	0.34285584
6	0x3ea2b51e	0.31778806
7	0x3d5fcbcc	0.054637715
8	0x3ea2f5b0	0.3182807
9	0x3e9d6f67	0.30749056
10	0xbc89473b	-0.016757598
11	0x3e9475df	0.28996179
12	0xbd1c6228	-0.038179547
13	0x3ebd2154	0.3693949
14	0x3ecbfe25	0.39842334
15	0x3e751df7	0.23937212
16	0x3ed3320c	0.4124912
17	0x3e97b58d	0.296307
18	0x3ecb8ac9	0.39754322
19	0xbdd49555	-0.10380045
20	0x3df678e2	0.12034775
21	0x3e969314	0.29409087
22	0xbce09930	-0.027416795
23	0xbd622dad	-0.05521934
24	0x3e7a9c54	0.24473697
25	0xbc0dfcc4	-0.008666221
26	0x3eb910b8	0.36145568
27	0x3d70674b	0.058692258
28	0x3e8d04c1	0.2754269
29	0x3dc1785e	0.09446786
30	0x3e95c4eb	0.292518
31	0x3eb97c13	0.36227474
32	0x3e8b3fff	0.27197263
33	0x3e98c15f	0.2983503
34	0xbd3057ad	-0.043052364
35	0x3d509f08	0.050932914
36	0xbd207c21	-0.03918088
37	0x3e91e83a	0.28497487
38	0x3ebdd01a	0.3707283
39	0x3eb3aea0	0.35094166
40	0x3e8dc9c5	0.27693
41	0x3ebac8ab	0.36481223
42	0x3e842a06	0.2581331
43	0x3e66572e	0.22494194
44	0x3ec9a71d	0.3938531
45	0x3ed0f790	0.40813875
46	0x3ea82d8e	0.32847255
47	0x3ebd67cf	0.36993262
48	0x3e315de9	0.1732098
49	0x3e5ee6ec	0.21767777
50	0x3ed13ac8	0.4086516
51	0x3e862e78	0.26207328
52	0x3e968121	0.29395393
53	0x3e8defae	0.27721924
54	0x3ed2de7f	0.41185376
55	0x3eb071cd	0.34461823
56	0x3e8ec4e7	0.278846
57	0x3da1a224	0.07892254
58	0x3e550e14	0.20806152
59	0x3eaae72c	0.33379495
60	0x3ea31f56	0.31859845
61	0xbcc221a0	-0.023697674
62	0x3e6b4707	0.22976314
63	0x3e8acfc5	0.2711164
64	0x3e6ee597	0.23329769
65	0x3daf4ab2	0.08559169
66	0x3e6ddeaf	0.23229478
67	0x3b361780	0.0027785003
68	0x3e9b2fc1	0.3030987
69	0x3ed437f6	0.41448945
70	0x3e835255	0.25648752
71	0xbc82b440	-0.01595509
72	0x3eb8c445	0.36087242
73	0x3ed19223	0.40931806
74	0xbd99661d	-0.0749018
75	0x3edf5d74	0.43625987
76	0x3d316e10	0.043317854
77	0x3ed9ae7c	0.42515934
78	0x3eb81c50	0.359591
79	0x3e84bd44	0.25925648
80	0x3e5a305d	0.21307512
81	0x3e98d86b	0.29852614
82	0x3e54f9d4	0.20798427
83	0xbd46c2af	-0.04852551
84	0x3dc9adbe	0.09847592
85	0x3e92f260	0.28700542
86	0x3c0d28b0	0.008615658
87	0xbb884516	-0.0041586263
88	0x3eb8f61a	0.3612526
89	0x3dced484	0.10099128
90	0x3ebf89b6	0.37409753
91	0xbddd63ea	-0.10810073
92	0x3e815c23	0.25265607
93	0xbd940664	-0.072277814
94	0x3eac4d91	0.33652928
95	0x3e970680	0.29497147
96	0x3ea77ed1	0.3271394
97	0x3e56578f	0.20931838
98	0xbd4b47e9	-0.049629126
99	0xbc745342	-0.014912428
100	0xbc814e8c	-0.015784524
101	0x3e5e3670	0.21700454
102	0x3ea367b8	0.3191507
103	0x3eb65298	0.3560989
104	0x3ec04b45	0.37557426
105	0x3ec50528	0.38480496
106	0x3e82c21c	0.2553872
107	0x3e8f8ff5	0.28039518
108	0x3e56e42f	0.20985483
109	0x3eca3127	0.39490625
110	0x3e701383	0.23444943
111	0x3ec3cf40	0.38244057
112	0x3eba5341	0.36391643
113	0x3e9934b5	0.29923025
114	0x3e584d46	0.21123227
115	0x3eafbe3e	0.3432483
116	0x3e8ac6de	0.2710485
117	0x3e5315a6	0.20613727
118	0x3ea795fa	0.3273161
119	0x3ecb2d9b	0.39683232
120	0x3ea87278	0.32899833
121	0x3d7d80a6	0.061890267
122	0x3e271c8b	0.16319482
123	0x3ec432a3	0.38319883
124	0x3ec224d2	0.37918717
125	0x3ba00fa0	0.004884675
126	0x3ec8f1bf	0.39246938
127	0x3e800dc3	0.250105
128	0x3ece29d7	0.40266296
129	0x3df02a24	0.11726788
130	0x3ea282a3	0.31740293
131	0x3d8a5036	0.0675358
132	0x3e8b8ff7	0.27258274
133	0x3ed157ea	0.40887386
134	0x3ec3cd82	0.38242728
135	0xbd3a6b70	-0.045512617
136	0x3e78c0cd	0.24292298
137	0x3e835fda	0.25659066
138	0xbc8278d3	-0.015926754
139	0x3e91bd47	0.2846472
140	0xbd0625d3	-0.032750916
141	0x3e5f432b	0.21802966
142	0x3ec74ad3	0.38924274
143	0x3e88efec	0.26745546
144	0x3e789f73	0.24279575
145	0x3ea9818d	0.33106652
146	0x3e77d969	0.24204029
147	0xbd6cf31d	-0.05784904
148	0x3c994cd9	0.018713402
149	0x3e937b56	0.28805035
150	0x3d407864	0.046989813
151	0xbb8403c4	-0.004028769
152	0x3eaa569f	0.33269212
153	0xbd8a715e	-0.06759904
154	0x3ebb72cd	0.36611024
155	0x3dbe36d5	0.09287802
156	0x3e90678a	0.28203994
157	0xbcf818a0	-0.03028518
158	0x3e920327	0.2851803
159	0x3e7a2bb7	0.24430738
160	0x3ecf5c2f	0.40500018
161	0x3e978dc4	0.29600346
162	0x3d14d14a	0.036332406
163	0x3d442254	0.0478843
164	0x3d09b2b8	0.033617705
165	0x3ea380f4	0.3193432
166	0x3e8bb19f	0.27283952
167	0x3ec6a392	0.3879667
168	0x3e64b241	0.22333623
169	0x3e7c1a15	0.24619325
170	0x3ea7f140	0.32801247
171	0x3e6f971c	0.23397487
172	0x3ed8fd6e	0.42380852
173	0x3ed9cdf1	0.42539933
174	0x3ee0c795	0.4390227
175	0x3e9857f4	0.29754603
176	0x3eb46d9a	0.3523987
177	0x3e8eca06	0.27888507
178	0x3ea9e2db	0.3318089
179	0x3ec42b8e	0.3831448
180	0x3ebafe91	0.36522344
181	0x3eda61d5	0.42652765
182	0x3e5406c6	0.20705709
183	0x3ead5e60	0.33861065
184	0x3e891def	0.2678065
185	0x3b22a440	0.002481714
186	0x3ec04aa1	0.37556937
187	0x3e63225e	0.22181079
188	0x3edce660	0.43144512
189	0xbd96d3d2	-0.0736462
190	0x3e8ec91b	0.27887806
191	0x3e82b72d	0.25530377
192	0x3e759def	0.23986028
193	0x3d1c92f4	0.038226083
194	0x3e96d611	0.29460195
195	0x3dbaf056	0.09127872
196	0x3ec36d25	0.38169208
197	0x3e962abb	0.29329476
198	0x3ea56d1c	0.32309806
199	0x3da21788	0.079146445
200	0x3e86791e	0.2626428
201	0x3e63058b	0.22170083
202	0xbcdb8817	-0.026798291
203	0x3e8c74ff	0.2743301
204	0xbd9fb480	-0.077980995
205	0x3e888bb3	0.26669082
206	0x3e3e7e4e	0.18602869
207	0x3ed4e8d6	0.4158389
208	0x3eb7937e	0.35854715
209	0x3e2e66ef	0.17031454
210	0x3e75d878	0.24008358
211	0x3dd89866	0.10575943
212	0x3d7f84b0	0.0623824
213	0x3eb639eb	0.35591063
214	0x3d981976	0.07426731
215	0xbd706d7c	-0.058698162
216	0x3eaf08c0	0.34186363
217	0xbd10568f	-0.0352388
218	0x3e3af1e9	0.18256344
219	0xbd8d24dc	-0.06891796
220	0x3e629939	0.22128762
221	0x3dbd43c4	0.09241441
222	0x3ec73e16	0.38914555
223	0x3e8c214c	0.27369153
224	0x3e46a327	0.19398175
225	0x3e5ec810	0.21756005
226	0x3da18312	0.07886328
227	0x3ceaa370	0.028642386
228	0xbce59b18	-0.028028056
229	0x3ebde404	0.37088025
230	0x3ec10cf8	0.37705207
231	0x3ebc758c	0.3680843
232	0x3e689f90	0.22717118
233	0x3ec56661	0.3855467
234	0x3eba12ca	0.3634246
235	0x3eb53284	0.35390103
236	0x3e6d2d92	0.23161915
237	0x3eae133d	0.33999053
238	0x3e7eb6e9	0.24874462
239	0x3ed63bb7	0.41842434
240	0x3e9d914a	0.3077491
241	0x3ea784ae	0.32718414
242	0x3ea2fb3b	0.318323
243	0x3ec02e6e	0.37535423
244	0x3e28f0b6	0.16498074
245	0x3e4bc1f8	0.19898212
246	0x3e9642ac	0.29347742
247	0x3e99e638	0.30058455
248	0x3e4a23bc	0.19740194
249	0xbdb48c44	-0.08815816
250	0x3ecde465	0.40213314
251	0x3ebfe374	0.3747822
252	0x3ecf3157	0.4046733
253	0x3d33acf8	0.043866128
254	0x3e59bc09	0.21263136
255	0x3e76ca6c	0.24100655

hidden.1.0.bias f4 [64]
0	0xbdc113db	-0.09427615
1	0xbd2a7814	-0.04161842
2	0x3d16d3d1	0.036823098
3	0xbde1585c	-0.11003181
4	0xbd6eff94	-0.058349207
5	0xbda80f99	-0.082061
6	0xbcd0a57f	-0.02546954
7	0xbbc0de3b	-0.005885867
8	0x3d4ac066	0.04949989
9	0x3d9cad04	0.076501876
10	0xbd8a5170	-0.06753814
11	0xbd3e358b	-0.04643778
12	0xbe24c344	-0.16090113
13	0xbdae3162	-0.08505513
14	0xb9a51dd1	-0.00031493467
15	0x3dca70b8	0.09884781
16	0x3d078b43	0.033091795
17	0xbda8b1b3	-0.082370184
18	0xbd276f4d	-0.04087763
19	0xbe113dde	-0.14183757
20	0xbdf2e0be	-0.118592724
21	0xbcf9a0a0	-0.0304721
22	0xbe0e2efe	-0.13885114
23	0x3ce1d1e4	0.027565904
24	0xbcb2b8be	-0.021816608
25	0xbe39f797	-0.18160854
26	0xbdc64c1e	-0.09682487
27	0xbdb731d1	-0.089450486
28	0xbe035fbb	-0.12829487
29	0x3c8b1796	0.01697902
30	0xbd8cc3c4	-0.06873277
31	0xbd080e4e	-0.033216767
32	0xbda4a59f	-0.08039402
33	0xbce5153b	-0.027964225
34	0xbdccad4d	-0.09993992
35	0xbe2d1c40	-0.16905308
36	0xbcacba39	-0.021084892
37	0xbeb1e869	-0.34747627
38	0xbe002a5f	-0.12516163
39	0xbd98c8d8	-0.07460183
40	0xbd4280b0	-0.047486007
41	0x3ccaf8c5	0.024776826
42	0x3d55dbb9	0.052211497
43	0xbd41f978	-0.047357053
44	0xbcad0fb0	-0.021125644
45	0xbe27bf90	-0.16381669
46	0x3c902544	0.017595895
47	0x3c86667d	0.016406292
48	0xbe49962d	-0.19686194
49	0xbced5dd3	-0.028975403
50	0x3d492988	0.049111873
51	0xbc7c8a6e	-0.015413864
52	0x3d8b86ec	0.06812844
53	0xbdec7630	-0.1154598
54	0x3cd25ea1	0.025679888
55	0xbdd2c6cf	-0.10291826
56	0xbdd8f088	-0.10592753
57	0xbd55cfa4	-0.052199975
58	0x3d871d80	0.065974236
59	0xbc972c7b	-0.018453827
60	0xbdaab63b	-0.08335539
61	0xbde53f77	-0.111937456
62	0xbded964d	-0.11600933
63	0xbc9e8a9c	-0.019353203

hidden.2.0.weight f4 [64, 64]
0	0x3ecd86e1	0.40141967
1	0x3e52b786	0.20577821
2	0x3e73ebdd	0.23820443
3	0x3edff077	0.43738148
4	0x3df4a998	0.1194641
5	0x3e6cb4b1	0.23115803
6	0x3ebd7886	0.37006015
7	0x3e5dbf23	0.21654944
8	0x3ec1cb68	0.378505
9	0x3e548a4f	0.20755886
10	0x3e170c30	0.14750743
11	0x3edc5d56	0.4303996
12	0x3e76a814	0.24087554
13	0x3db37c71	0.0876397
14	0x3dfd6003	0.123718284
15	0x3e0aa4ff	0.13539504
16	0x3e9610c7	0.29309675
17	0x3ed59f19	0.41722944
18	0xbd7c93f4	-0.061664537
19	0x3e564eb4	0.2092846
20	0xbddcf094	-0.10788074
21	0xbd8a7960	-0.06761432
22	0x3eaa01d5	0.33204523
23	0x3ec14293	0.37746105
24	0x3edca837	0.43097088
25	0x3e61dd3e	0.22057053
26	0xbcf323f8	-0.029680237
27	0x3e73d08f	0.23810028
28	0x3e866539	0.26249102
29	0x3ee4131f	0.44545838
30	0x3eca3c02	0.39498907
31	0x3ebfb5bd	0.37443343
32	0x3eba2808	0.36358666
33	0xbdba001d	-0.09082053
34	0x3e58a96f	0.21158384
35	0x3ebc7685	0.36809173
36	0x3d6674ee	0.056263857
37	0x3e04b9cf	0.12961505
38	0xbccbff17	-0.02490191
39	0x3ec2cfd1	0.38049176
40	0x3e5646bb	0.20925419
41	0xbcd68ea2	-0.02619106
42	0x3eb68833	0.35650787
43	0x3ecaa12c	0.3957609
44	0x3ee5d401	0.4488831
45	0x3e75bf87	0.23998843
46	0x3d9ef129	0.077608414
47	0x3ec240e2	0.37940127
48	0x3ec39c41	0.3820515
49	0x3dba2f44	0.090910465
50	0x3ea67b96	0.32516164
51	0x3ecc1602	0.3986054
52	0x3d974fc7	0.07388263
53	0xbda066e0	-0.07832122
54	0x3e82cabf	0.25545308
55	0x3e6188e7	0.2202488
56	0x3d7f17a4	0.062278405
57	0x3eb2dd5c	0.3493451
58	0x3e8c016f	0.27344844
59	0x3e9e972a	0.30974704
60	0x3d947f86	0.07250886
61	0xbccdd62d	-0.025126541
62	0x3d5ea66c	0.05435793
63	0x3a81961f	0.0009886659
64	0x3eac717a	0.33680326
65	0x3ea79b88	0.32735848
66	0x3ed63dba	0.4184397
67	0x3e5cbd6a	0.2155663
68	0x3d6b1c98	0.057400316
69	0x3eccea1c	0.4002236
70	0x3ea9914d	0.33118668
71	0x3ec1d886	0.37860507
72	0x3edff0eb	0.43738493
73	0x3eb80be6	0.35946578
74	0x3d3098ad	0.043114353
75	0x3ea1956f	0.3155932
76	0x3ea402eb	0.32033476
77	0x3db97d2a	0.09057076
78	0xbc8ceaa1	-0.017201724
79	0xbcd075d0	-0.025446802
80	0x3eb16473	0.3464695
81	0x3e80c94b	0.25153574
82	0xbd9ea952	-0.07747139
83	0x3ed2d007	0.41174337
84	0x3d3acdc8	0.045606405
85	0xbc767410	-0.01504232
86	0x3e863d36	0.26218575
87	0x3eddbffe	0.4331054
88	0x3ea415a4	0.3204776
89	0x3eb2033b	0.3476809
90	0xbd3749bc	-0.044748053
91	0x3e5401b7	0.20703779
92	0x3eb9ad52	0.36265045
93	0x3e4f3651	0.20235564
94	0x3e70b936	0.23508152
95	0x3e70da95	0.23520882
96	0x3e51a475	0.20472892
97	0x3dfa70d3	0.12228551
98	0x3ecf1cc3	0.4045163
99	0x3e6efa0a	0.2333757
100	0xbda237ac	-0.07920775
101	0x3df3c48a	0.11902721
102	0xbc00cf50	-0.007861927
103	0x3ea50d0a	0.3223651
104	0x3e4fa1fd	0.20276637
105	0xbd96fec9	-0.07372815
106	0x3ed6b2c9	0.41933277
107	0x3e93f902	0.28900915
108	0x3eab7d9a	0.33494264
109	0x3e551a8a	0.20810905
110	0x3db4ff3c	0.088377446
111	0x3e915c48	0.28390718
112	0x3eb69430	0.35659933
113	0xbbfa99bd	-0.0076477216
114	0x3eb1afb9	0.34704378
115	0x3ed7890b	0.42096743
116	0x3d8efe9a	0.06982155
117	0x3db232c6	0.087010905
118	0x3ed9346c	0.42422807
119	0x3edaef2a	0.42760593
120	0xbdfc0c44	-0.12307027
121	0x3ee09a28	0.43867612
122	0x3eb3e4f7	0.35135624
123	0x3ea2b704	0.31780255
124	0xbdf978e6	-0.12181263
125	0x3de9e264	0.11420134
126	0xbd083232	-0.033250995
127	0xbddca3be	-0.10773419
128	0x3ea434aa	0.3207143
129	0x3e70b380	0.23505974
130	0x3e827766	0.2548172
131	0x3eb9759c	0.3622254
132	0xbcf1ed5b	-0.029532125
133	0x3eb2fb6d	0.34957448
134	0x3e64b26d	0.22333689
135	0x3e638c71	0.22221543
136	0x3ec63aac	0.38716638
137	0x3e9eca4b	0.31013712
138	0xbcbe9923	-0.02326638
139	0x3e74d9f7	0.23911272
140	0x3ec3fde8	0.38279653
141	0x3c172c7a	0.009226913
142	0x3dcc5b9d	0.09978411
143	0xbd0ae4aa	-0.033909477
144	0x3e47a5bd	0.19496818
145	0x3ec36c4f	0.3816857
146	0xbd54aa6c	-0.05192034
147	0x3ed34185	0.41260925
148	0x3c765b20	0.015036374
149	0x3c3b6ba0	0.011439234
150	0x3ebd0f73	0.3692585
151	0x3ec1576d	0.37762013
152	0x3eada665	0.3391601
153	0x3e8cf068	0.27527165
154	0xbcd76ab0	-0.02629599
155	0x3e819c0b	0.25314364
156	0x3eca5b0a	0.39522582
157	0x3e89823a	0.26857167
158	0x3ec66d5f	0.3875532
159	0x3e89850d	0.26859322
160	0x3ecca3b4	0.39968646
161	0x3d582652	0.05277092
162	0x3ecea2e1	0.40358642
163	0x3ec1b38d	0.378323
164	0xbccd6cfe	-0.025076386
165	0x3ea3bf0f	0.31981704
166	0xbca524e2	-0.020159189
167	0x3ea0b0d5	0.31384912
168	0x3e974a46	0.29548854
169	0xbd5d227d	-0.05398797
170	0x3eb8d8fe	0.36103052
171	0x3e4e495d	0.20145173
172	0x3e6436bd	0.22286506
173	0x3eccfbaf	0.4003577
174	0x3d9c97e5	0.07646159
175	0x3ec0eb9f	0.37679765
176	0x3eb17ef5	0.34667173
177	0x3df8305e	0.121186
178	0x3eb86caa	0.36020404
179	0x3e93c9af	0.2886481
180	0xbda312c0	-0.07962561
181	0xbda803da	-0.082038596
182	0x3ea7d089	0.32776287
183	0x3eaf858e	0.34281582
184	0xbd077574	-0.033070996
185	0x3e819871	0.25311616
186	0x3eb4bd22	0.35300547
187	0x3eaaee9a	0.33385164
188	0xbdbde3e8	-0.09271985
189	0x3d6864b8	0.056736678
190	0xbc3db3f9	-0.011578553
191	0xbda8b728	-0.08238059
192	0x3ecc2f89	0.39880016
193	0x3e6a566e	0.22884533
194	0x3edf655c	0.4363202
195	0x3ece1d66	0.40256804
196	0x3d97be02	0.07409288
197	0x3ec3905a	0.3819607
198	0x3ebdeb42	0.3709355
199	0x3eb59004	0.35461438
200	0x3ec74be2	0.38925081
201	0x3eb84c0d	0.35995522
202	0xbd5778b1	-0.052605335
203	0x3e5e1ecb	0.21691434
204	0x3e67aa08	0.22623456
205	0xbd8ea08b	-0.06964215
206	0xbdb04093	-0.086060666
207	0x3db71b3d	0.08940742
208	0x3ed6edba	0.41978246
209	0x3eca08bd	0.39459792
210	0xbdb582e6	-0.088628575
211	0x3e4d846b	0.20070045
212	0xbdd35f66	-0.1032093
213	0x3da5700e	0.08078013
214	0x3edb1780	0.42791367
215	0x3e7c41f9	0.24634542
216	0x3eae604f	0.34057853
217	0x3ecf99ec	0.4054712
218	0xbdf556b0	-0.11979425
219	0x3ecd24e0	0.40067196
220	0x3e4c22b2	0.1993511
221	0x3e7e4ccb	0.24833982
222	0x3e9fa477	0.31180164
223	0x3e9d633a	0.30739766
224	0x3e751c28	0.23936522
225	0xbd7d2f7a	-0.061812855
226	0x3ec4db2f	0.38448474
227	0x3ebc5085	0.36780182
228	0xbdbd5c3e	-0.092461094
229	0x3ea7c462	0.32767016
230	0xbdd30a79	-0.10304732
231	0x3e7269d1	0.23673178
232	0x3edd040f	0.4316716
233	0x3cf1df0b	0.0295253
234	0x3ed31566	0.41227263
235	0x3e4fbeed	0.20287676
236	0x3eb220bf	0.34790608
237	0x3e48b906	0.19601831
238	0xbd217592	-0.039418764
239	0x3ec1bda4	0.37839997
240	0x3e492a30	0.19645
241	0xbd312f6b	-0.043258112
242	0x3ebccaf7	0.368736
243	0x3e8f71c7	0.28016493
244	0x3dfce803	0.1234894
245	0xbd773b88	-0.060359508
246	0x3ea19d67	0.315654
247	0x3ecf6293	0.40504894
248	0xbdc06648	-0.093945086
249	0x3ec99e2e	0.39378494
250	0x3ed5d6ab	0.4176534
251	0x3eb83852	0.3598047
252	0x3dac2fe2	0.084075704
253	0x3db873be	0.09006451
254	0xbdcb938a	-0.0994025
255	0xbca2c310	-0.019868404

hidden.2.0.bias f4 [64]
0	0x3d462963	0.048379313
1	0xbe0268a7	-0.12735234
2	0x3d908a7b	0.07057663
3	0xbdaa7baa	-0.08324368
4	0xbdd95975	-0.10612766
5	0xbd83fc19	-0.06444568
6	0xbdaaac10	-0.083335996
7	0x3db60f91	0.08889688
8	0xbd4642dd	-0.04840361
9	0x3da9de44	0.08294347
10	0xbe073283	-0.13202862
11	0xbdc04832	-0.0938877
12	0x3db9a3e3	0.09064462
13	0x3d190440	0.03735757
14	0x3d5abdb1	0.05340356
15	0xbd9dc640	-0.07703829
16	0xbd3995d6	-0.04530891
17	0x3c272e6b	0.010203938
18	0x3dc8b122	0.097994104
19	0xbddb87e0	-0.107192755
20	0xbddbb54a	-0.107279375
21	0xbc34b597	-0.0110296225
22	0x3d6eb8d4	0.058281735
23	0xbda8b992	-0.0823852
24	0xbd793bc4	-0.060848013
25	0xbdbda6a9	-0.092603035
26	0x3dcbdac8	0.099538386
27	0xbcdbde77	-0.026839478
28	0xbcbcc708	-0.023044124
29	0xbdc00046	-0.09375052
30	0xbdf8d764	-0.121504575
31	0x3dbc5a46	0.09196906
32	0x3dc7dc67	0.09758835
33	0xbc51f563	-0.012814852
34	0xb9f4f648	-0.000467228
35	0xbc4af512	-0.012387531
36	0xbdd8ad22	-0.105798975
37	0xbd9eab98	-0.07747573
38	0xbdcd5510	-0.1002599
39	0xbdf79b1d	-0.120901324
40	0xb81afa24	-3.6949423e-05
41	0x3d4b9dfd	0.049711216
42	0xbcb0724a	-0.021538872
43	0xbd31ecab	-0.043438595
44	0xbcf02f22	-0.02931935
45	0xbd71bca9	-0.05901781
46	0x3d6262ad	0.055269886
47	0x3d3c8adb	0.04603086
48	0xbdb55918	-0.08854884
49	0x3d9095c2	0.07059814
50	0xbda67ed0	-0.08129656
51	0x3cfc84e2	0.030825082
52	0x3d0418b7	0.032250132
53	0x3d89173e	0.06693886
54	0xbd4a9dfa	-0.049467064
55	0x3c1d5a43	0.00960404
56	0xbd1bfa90	-0.038080752
57	0x3d9c68d6	0.07637183
58	0xbde67792	-0.11253275
59	0xbcdb2de0	-0.026755273
60	0x3d4e560b	0.050375026
61	0x3d28b67a	0.04118965
62	0x3cfd64e8	0.030931905
63	0xbdd059f6	-0.10173409

output.weight f4 [1, 64]
0	0x3eaeaa73	0.34114417
1	0x3eb60a5c	0.3555478
2	0x3edaa776	0.42705888
3	0x3edfbe53	0.43699893
4	0xbd1c53b8	-0.038165778
5	0xbd337790	-0.043815196
6	0xbb7d2700	-0.0038627982
7	0x3ec2f343	0.3807622
8	0x3ed4c5a3	0.41557035
9	0x3ee37cea	0.4443124
10	0x3edbfeee	0.42967933
11	0xbd9892ce	-0.07449876
12	0x3ebb2260	0.36549664
13	0xbd7cea34	-0.06174679
14	0xbd9a0487	-0.07520395
15	0xbc9cb248	-0.01912798
16	0xbab1c0c9	-0.0013561483
17	0xbc9e7d93	-0.019346988
18	0x3edc9447	0.43081877
19	0xbb135022	-0.0022478183
20	0xbd5faa18	-0.054605573
21	0xbb0f1157	-0.0021830404
22	0x3ee092b3	0.43861923
23	0xbb9b0480	-0.004730761
24	0x3c8970b0	0.016777366
25	0x3eaa60ce	0.3327698
26	0xbdd08c06	-0.10182957
27	0xbd50ca1c	-0.050973997
28	0xbd8bdf4e	-0.06829701
29	0xbde6e974	-0.112749964
30	0x3d9d4ae2	0.076802984
31	0xbd99a2de	-0.075017676
32	0xbdb0fa5b	-0.086415015
33	0x3ecd0840	0.40045357
34	0x3ea25b0d	0.3171009
35	0x3edd3e71	0.43211702
36	0xbdf661a8	-0.12030345
37	0x3ec9c75e	0.39409918
38	0x3dc1f1ac	0.094699234
39	0x39d21070	0.00040066568
40	0xbd7b5d5a	-0.061368324
41	0xbcd8633d	-0.026414508
42	0xbcbbec5d	-0.022939855
43	0xbde1f0bf	-0.11032247
44	0x3ea47372	0.32119328
45	0x3ebd7f1d	0.37011042
46	0xbd995a03	-0.074878715
47	0x3ed80b49	0.4219611
48	0xbced8960	-0.02899617
49	0xbcf9be2b	-0.030486187
50	0xbd84fdfe	-0.06493758
51	0xbdc70ce8	-0.097192585
52	0xbd38e2e2	-0.045138247
53	0xbdce4f25	-0.10073689
54	0x3ecb2b28	0.39681363
55	0xbd73b2ce	-0.059496693
56	0x3de1af12	0.1101972
57	0x3ec26f2a	0.37975436
58	0x3dd5bcd4	0.10436407
59	0x3ed1cd64	0.40977013
60	0x3ec99360	0.3937025
61	0x3ea9990c	0.33124578
62	0x3dc4dac6	0.0961204
63	0xbcae9844	-0.02131284

exp_avg f4 [64, 6]
0	0x46384dbc	11795.434
1	0x45d3005c	6752.045
2	0x4544b466	3147.275
3	0x460c2f03	8971.753
4	0x465d842a	14177.041
5	0x471590df	38288.87
6	0x477efb91	65275.566
7	0x470832af	34866.684
8	0x4664bbff	14638.999
9	0x474715d4	50965.83
10	0x479be975	79826.914
11	0x484fed08	212916.12
12	0x48cdcb0e	421464.44
13	0x47f4673a	125134.45
14	0x46db815b	28096.678
15	0x48bec62e	390705.44
16	0x48efbce0	490983.0
17	0x49b274c3	1.4619124e+06
18	0x49043ca2	541642.1
19	0x4845ef1b	202684.42
20	0x47b9d2ba	95141.45
21	0x48d13e03	428528.1
22	0x4922b9c6	666524.4
23	0x49c73977	1.6320469e+06
24	0xc6aefb6d	-22397.713
25	0xc70e3e70	-36414.438
26	0xc6026d8e	-8347.389
27	0x46096b52	8794.83
28	0xc6dbb5f0	-28122.969
29	0x468c14fc	17930.492
30	0x47cf4e1b	106140.21
31	0x47560661	54790.38
32	0x46b37dd1	22974.908
33	0x47a15d5e	82618.734
34	0x47fdf4ce	130025.61
35	0x48a8fc68	346083.25
36	0x482ef870	179169.75
37	0x47a74062	85632.766
38	0x470f55ec	36693.92
39	0x4809508a	140610.16
40	0x4856b55d	219861.45
41	0x490e92fa	583983.6
42	0x48db0381	448540.03
43	0x480c651a	143764.4
44	0x472cff21	44287.13
45	0x48abe343	352026.1
46	0x48d8827a	443411.8
47	0x4987555f	1.1086519e+06
48	0x485b68ea	224675.66
49	0x47e7b89e	118641.234
50	0x4722835b	41603.355
51	0x482c9f4a	176765.16
52	0x4886f9dd	276430.9
53	0x49337e6c	735206.75
54	0x48af18bd	358597.9
55	0x48122080	149634.0
56	0x473e8e18	48782.094
57	0x48856909	273224.28
58	0x48d23233	430481.6
59	0x496b12ff	962863.94
60	0x482c8cec	176691.69
61	0x4789f7f0	70639.875
62	0x47001a0d	32794.05
63	0x4807d53b	139092.92
64	0x484e2420	211088.5
65	0x4903260c	537184.75
66	0x00000000	0.0
67	0x00000000	0.0
68	0x00000000	0.0
69	0x00000000	0.0
70	0x00000000	0.0
71	0x00000000	0.0
72	0x46733d26	15567.287
73	0x4605e7ef	8569.983
74	0x457daab2	4058.6685
75	0x463a2e4d	11915.575
76	0x4691f684	18683.258
77	0x47445f50	50271.312
78	0x48b71250	374930.5
79	0x48010844	132129.06
80	0x46f21141	30984.627
81	0x48830120	268297.0
82	0x48e4950c	468136.38
83	0x496f09eb	979102.7
84	0x47f763c2	126663.516
85	0x477b0098	64256.594
86	0x46778597	15841.397
87	0x47b64051	93312.63
88	0x48127b3a	149996.9
89	0x48c2d4b5	399013.66
90	0x4895edf6	307055.7
91	0x48297f50	173565.25
92	0x476d15dd	60693.863
93	0x487056fc	246107.94
94	0x48b179e3	363471.1
95	0x496bf9b7	966555.44
96	0x48365c9a	186738.4
97	0x47c017d9	98351.695
98	0x46e0ac05	28758.01
99	0x480e71cf	145863.23
100	0x486022bb	229514.92
101	0x490b9901	571792.06
102	0x48de6987	455500.22
103	0x48234947	167205.11
104	0x476a0ee3	59918.887
105	0x48aaa106	349448.2
106	0x49086f69	558838.56
107	0x499e64c6	1.2975608e+06
108	0x47d23df8	107643.94
109	0x4720eb66	41195.4
110	0x464809e1	12802.47
111	0x47c8f1b0	102883.375
112	0x4814265f	151705.48
113	0x48c4d97f	403147.97
114	0x48997716	314296.7
115	0x47ca48d2	103569.64
116	0x47404bc5	49227.77
117	0x4883a7b2	269629.56
118	0x48bfb706	392632.2
119	0x49759784	1.00594425e+06
120	0x46df567a	28587.238
121	0x4672ea9a	15546.65
122	0x45d427e1	6788.985
123	0x46ad010e	22144.527
124	0x4707be68	34750.406
125	0x47b5ad5f	93018.74
126	0x482f1069	179265.64
127	0x477468fa	62568.977
128	0x46b5d021	23272.064
129	0x481204b9	149522.89
130	0x4866046e	235537.72
131	0x48fccc74	517731.62
132	0x488d89d0	289870.5
133	0x47e2d8ed	116145.85
134	0x46dbacb7	28118.357
135	0x4866bef2	236283.78
136	0x48b1fbe8	364511.25
137	0x49677377	948023.44
138	0x490cf486	577352.4
139	0x48250137	168964.86
140	0x46f214ad	30986.338
141	0x48d605e6	438319.2
142	0x491fdf82	654840.1
143	0x49b37fcf	1.4704579e+06
144	0x491231a7	598810.44
145	0x46ead662	30059.191
146	0xc821b456	-165585.34
147	0x48f494a4	500901.12
148	0x491d8bde	645309.9
149	0x4984b62b	1.0871734e+06
150	0x4911ee1f	597729.94
151	0x4880c68c	263732.38
152	0x479fa2b8	81733.44
153	0x48ff8268	523283.25
154	0x4931ad4c	727764.75
155	0x49dc938f	1.8069619e+06
156	0x48872200	276752.0
157	0x47ba332f	95334.37
158	0x4720f75e	41207.367
159	0x48492156	205957.34
160	0x48a84cfe	344679.94
161	0x4942cf6d	797942.8
162	0x4811293d	148644.95
163	0x47a73bf6	85623.92
164	0x46d69a82	27469.254
165	0x47f216b3	123949.4
166	0x4831a4de	181907.47
167	0x48f2bff8	497151.75
168	0x485e0fdd	227391.45
169	0x47b4858c	92427.09
170	0x46d0490c	26660.523
171	0x48313906	181476.1
172	0x488a05a9	282669.28
173	0x491a9874	633223.25
174	0x48a68f86	341116.2
175	0x481bdd34	159604.81
176	0x473e3d00	48701.0
177	0x4886bcb2	275941.56
178	0x48c8448f	410148.47
179	0x49812445	1.0579286e+06
180	0x00000000	0.0
181	0x00000000	0.0
182	0x00000000	0.0
183	0x00000000	0.0
184	0x00000000	0.0
185	0x00000000	0.0
186	0x4732274d	45607.3
187	0x46bf1855	24460.166
188	0x46174e67	9683.601
189	0x470acd9c	35533.61
190	0x4759764a	55670.29
191	0x48112447	148625.11
192	0x480ed44e	146257.22
193	0x47c59e0b	101180.086
194	0x4449185d	804.3807
195	0x47e7d3b9	118695.445
196	0x47a81cb2	86073.39
197	0x48f2e4bd	497445.9
198	0xc47b0106	-1004.016
199	0x42ea1e51	117.05921
200	0xc4e2dbbb	-1814.8666
201	0xc4bf4225	-1530.067
202	0xc510675e	-2310.4604
203	0x433f44a5	191.26814
204	0x4855514c	218437.19
205	0x47e03463	114792.77
206	0x47366bac	46699.67
207	0x4827853a	171540.9
208	0x4882f91b	268232.84
209	0x492e2697	713321.44
210	0x4869536b	238925.67
211	0x47e55f29	117438.32
212	0x46978a7e	19397.246
213	0x483be9b3	192422.8
214	0x48631652	232537.28
215	0x4925e0d8	679437.5
216	0x488bce9c	286324.88
217	0x47e8e6c9	119245.57
218	0x471922dd	39202.863
219	0x48571fce	220287.22
220	0x48af14c1	358566.03
221	0x4942ca4b	797860.7
222	0x4834181e	184416.47
223	0x47b2def3	91581.9
224	0x4700c422	32964.133
225	0x4820c129	164612.64
226	0x48385a5f	188777.48
227	0x491e8c70	649415.0
228	0x48363b84	186606.06
229	0x47c0a57a	98634.95
230	0x471ce31f	40163.12
231	0x480f08ac	146466.69
232	0x485fdbc0	229231.0
233	0x4914e5e6	609886.4
234	0x48a2a024	333057.12
235	0x478d30c7	72289.555
236	0x46b1553d	22698.62
237	0x487aa964	256677.56
238	0x48ce09e2	421967.06
239	0x495316bf	864619.94
240	0x484ba340	208525.0
241	0x478cb61f	72044.24
242	0x46130058	9408.086
243	0x4843a3e8	200335.62
244	0x4883cfc1	269950.03
245	0x493aa002	764416.1
246	0x484eadbe	211638.97
247	0x47c6753e	101610.484
248	0x47142f10	37935.062
249	0x48302519	180372.39
250	0x487836a2	254170.53
251	0x492aefd4	700157.25
252	0x47fc5832	129200.39
253	0x47859f25	68414.29
254	0x46dabbd3	27997.912
255	0x47c5ca7d	101268.98

exp_avg_sq f4 [64, 6]
0	0x513e297f	5.104625e+10
1	0x5181c73c	6.967417e+10
2	0x50e2565b	3.0378482e+10
3	0x506bb9b3	1.5819263e+10
4	0x521dec7d	1.6956937e+11
5	0x53032273	5.632187e+11
6	0x518cd11f	7.560049e+10
7	0x51b0e37d	9.496636e+10
8	0x51189951	4.0962953e+10
9	0x50ceb43c	2.7743347e+10
10	0x52482b0d	2.1492893e+11
11	0x533d1cda	8.122329e+11
12	0x53628564	9.729005e+11
13	0x533a465c	8.0004435e+11
14	0x52b101b6	3.8011896e+11
15	0x52b78b38	3.9415736e+11
16	0x53ca28cf	1.7365361e+12
17	0x550b1dd8	9.560018e+12
18	0x53e7a22a	1.9897162e+12
19	0x53d17b90	1.7994424e+12
20	0x533366b4	7.705222e+11
21	0x5360691d	9.638362e+11
22	0x544ccebc	3.518567e+12
23	0x557c2ea5	1.7329829e+13
24	0x4fac5011	5.781857e+09
25	0x5080b645	1.727543e+10
26	0x4f37ca67	3.0834952e+09
27	0x4f244175	2.7557532e+09
28	0x50062466	9.002129e+09
29	0x506886aa	1.5604558e+10
30	0x51d70031	1.1542765e+11
31	0x51f89e87	1.3347644e+11
32	0x5153b972	5.6834335e+10
33	0x51346eb5	4.8434467e+10
34	0x5280bb88	2.7645103e+11
35	0x538c0983	1.20291e+12
36	0x527b81e2	2.7005397e+11
37	0x5287d9aa	2.917362e+11
38	0x51e22d6c	1.2142808e+11
39	0x51e7867a	1.242992e+11
40	0x52fa2dc1	5.3725472e+11
41	0x541fb44a	2.7436982e+12
42	0x53499512	8.657894e+11
43	0x535cbbf3	9.480461e+11
44	0x52a9c86a	3.6460593e+11
45	0x52c0aac9	4.137495e+11
46	0x53c7a8d4	1.7150619e+12
47	0x54eece91	8.2053426e+12
48	0x52ab7b31	3.682531e+11
49	0x52b59148	3.8991325e+11
50	0x521884f7	1.6376645e+11
51	0x521fb818	1.714971e+11
52	0x53272790	7.179233e+11
53	0x54591fb8	3.7301602e+12
54	0x53475caf	8.5625346e+11
55	0x532122d6	6.920742e+11
56	0x5298b47b	3.279315e+11
57	0x52b08fac	3.7916233e+11
58	0x53b82420	1.5817601e+12
59	0x54e85269	7.98252e+12
60	0x5210480e	1.5492104e+11
61	0x5217e9ac	1.631151e+11
62	0x517fe6be	6.869299e+10
63	0x51870cbb	7.250427e+10
64	0x52939720	3.1694782e+11
65	0x53af9ecc	1.5085669e+12
66	0x00000000	0.0
67	0x00000000	0.0
68	0x00000000	0.0
69	0x00000000	0.0
70	0x00000000	0.0
71	0x00000000	0.0
72	0x510eb86d	3.831122e+10
73	0x513f6827	5.1380384e+10
74	0x50ac14a3	2.3096269e+10
75	0x5025eb70	1.1134681e+10
76	0x51f5e71d	1.3201805e+11
77	0x52c2fb0b	4.1871773e+11
78	0x537c0196	1.08235837e+12
79	0x5369f36a	1.0048112e+12
80	0x52c451a6	4.215917e+11
81	0x52e8d8c0	5.0003444e+11
82	0x53ee4d58	2.0469997e+12
83	0x550da3e8	9.733444e+12
84	0x51e5e424	1.23421884e+11
85	0x51fa2dc7	1.3431373e+11
86	0x515b7908	5.8914275e+10
87	0x51401fa5	5.157279e+10
88	0x527e32e9	2.7294396e+11
89	0x5391768d	1.2495184e+12
90	0x530c1d5d	6.0178806e+11
91	0x530ccc00	6.04718e+11
92	0x52722d6d	2.6003605e+11
93	0x52822685	2.79496e+11
94	0x53827fbc	1.1209776e+12
95	0x54b326ef	6.155619e+12
96	0x5298703e	3.2735907e+11
97	0x52a9c743	3.6459626e+11
98	0x5209d7c7	1.4800767e+11
99	0x520956d7	1.4746686e+11
100	0x531faa5f	6.8575815e+11
101	0x543c4607	3.2345149e+12
102	0x53aacfd7	1.4672628e+12
103	0x539cc691	1.3466926e+12
104	0x5303f9d2	5.66832e+11
105	0x531b2054	6.662623e+11
106	0x5419377f	2.6322443e+12
107	0x55463e20	1.3623133e+13
108	0x51ee5f0b	1.279746e+11
109	0x51e66d32	1.2370931e+11
110	0x516734c1	6.2063907e+10
111	0x51470ee4	5.343427e+10
112	0x5286a1e5	2.8912088e+11
113	0x539e2350	1.3583946e+12
114	0x530ff805	6.183414e+11
115	0x52d61733	4.597561e+11
116	0x52627f8d	2.4320064e+11
117	0x5274031b	2.6200603e+11
118	0x5384058b	1.1340574e+12
119	0x54b08869	6.0656226e+12
120	0x5129f9d1	4.5627544e+10
121	0x5162d7c3	6.0892656e+10
122	0x50c649f3	2.661388e+10
123	0x505afe87	1.4696455e+10
124	0x5209a515	1.4779503e+11
125	0x52e95cac	5.0114108e+11
126	0x52a24e2f	3.485482e+11
127	0x52b251ce	3.8293832e+11
128	0x5216bc46	1.6185095e+11
129	0x52164f14	1.6139295e+11
130	0x53269bd4	7.1557893e+11
131	0x544c548b	3.510367e+12
132	0x52fa12f9	5.3703007e+11
133	0x52f54c64	5.267743e+11
134	0x525b0b3f	2.3519663e+11
135	0x526f1e9e	2.5675271e+11
136	0x535bdc31	9.4429204e+11
137	0x548eac57	4.902214e+12
138	0x53d57c14	1.8338194e+12
139	0x53cad7b3	1.7424045e+12
140	0x5326aeda	7.158981e+11
141	0x535785fa	9.256657e+11
142	0x54452cb8	3.3874353e+12
143	0x5561c234	1.5514013e+13
144	0x53953c75	1.2819289e+12
145	0x53942042	1.2723927e+12
146	0x52f39b01	5.231388e+11
147	0x5312cabf	6.3046674e+11
148	0x542dee72	2.9881192e+12
149	0x55355eef	1.2463709e+13
150	0x5403b0b0	2.2624202e+12
151	0x54017331	2.2239335e+12
152	0x53457464	8.480613e+11
153	0x5372d93c	1.0430267e+12
154	0x54684073	3.9900548e+12
155	0x558b508c	1.9147258e+13
156	0x52fc3dd0	5.416844e+11
157	0x52e226b6	4.8565604e+11
158	0x524a819a	2.1743944e+11
159	0x52695b78	2.505655e+11
160	0x536cd46e	1.01717626e+12
161	0x549740e3	5.1970294e+12
162	0x52377c98	1.9701734e+11
163	0x5245f06a	2.1253551e+11
164	0x51a62cba	8.921437e+10
165	0x519ca7c3	8.4103684e+10
166	0x52c4323f	4.213283e+11
167	0x53ec60fd	2.030479e+12
168	0x52bd5910	4.0662152e+11
169	0x52c0b12f	4.138032e+11
170	0x5221345a	1.7309201e+11
171	0x523172e0	1.9053412e+11
172	0x533ba5e1	8.059419e+11
173	0x54581b10	3.712668e+12
174	0x532330a9	7.0089605e+11
175	0x53289a5b	7.2414416e+11
176	0x5284ab30	2.8490387e+11
177	0x529d0b4b	3.3724967e+11
178	0x53952e32	1.2814503e+12
179	0x54bc73a9	6.4751545e+12
180	0x00000000	0.0
181	0x00000000	0.0
182	0x00000000	0.0
183	0x00000000	0.0
184	0x00000000	0.0
185	0x00000000	0.0
186	0x51633d3a	6.099905e+10
187	0x51927687	7.863172e+10
188	0x50ffc37e	3.4328015e+10
189	0x509b9d84	2.0886331e+10
190	0x522c2868	1.8485307e+11
191	0x53197c17	6.592119e+11
192	0x517d5dae	6.80124e+10
193	0x51a5e207	8.9057714e+10
194	0x50ee3c1f	3.197534e+10
195	0x50f8591e	3.333272e+10
196	0x521e10c0	1.6972146e+11
197	0x53352ee4	7.781758e+11
198	0x4ee0b37f	1.8849299e+09
199	0x4ec1a5c2	1.6244329e+09
200	0x4ea9d529	1.4246596e+09
201	0x4e5cd11b	9.2617286e+08
202	0x4f367212	3.060929e+09
203	0x4e05fb51	5.6196e+08
204	0x52be8d3f	4.0920675e+11
205	0x52cc632a	4.389185e+11
206	0x5229e51b	1.824233e+11
207	0x52308839	1.8954992e+11
208	0x533a4723	8.000574e+11
209	0x54716d60	4.1476885e+12
210	0x524c268e	2.1920504e+11
211	0x52627400	2.4315219e+11
212	0x51ae03e0	9.3423665e+10
213	0x51b415db	9.66826e+10
214	0x52e3d2dc	4.892476e+11
215	0x54082f2f	2.3396286e+12
216	0x5324c1b7	7.076246e+11
217	0x5329caa2	7.292491e+11
218	0x528878c0	2.930707e+11
219	0x5299262d	3.2888524e+11
220	0x539ddce2	1.3560313e+12
221	0x54bfc132	6.5886403e+12
222	0x52227ec2	1.7447784e+11
223	0x522b99ce	1.8425496e+11
224	0x51903381	7.741742e+10
225	0x518c5309	7.5336065e+10
226	0x52a80c93	3.6088273e+11
227	0x53c462c5	1.6869413e+12
228	0x52961484	3.2229464e+11
229	0x52a4d65e	3.5398556e+11
230	0x5209a3ed	1.4779018e+11
231	0x5207514f	1.4529618e+11
232	0x531ab2c7	6.6442435e+11
233	0x543fc45e	3.294533e+12
234	0x535130ee	8.984691e+11
235	0x53432887	8.3819856e+11
236	0x52a8fc13	3.628918e+11
237	0x52c55f22	4.238523e+11
238	0x53c56e20	1.6959123e+12
239	0x54f1b831	8.3054187e+12
240	0x528a19a8	2.9656796e+11
241	0x526ff795	2.5766273e+11
242	0x51f7a140	1.3294528e+11
243	0x51f663c2	1.3227945e+11
244	0x530cc9bc	6.0467996e+11
245	0x543d5d02	3.253237e+12
246	0x52800446	2.7491376e+11
247	0x527f8b92	2.7438957e+11
248	0x51de844d	1.194628e+11
249	0x51e2b774	1.21717555e+11
250	0x52fd4f81	5.439803e+11
251	0x54251a07	2.836425e+12
252	0x521fad82	1.714527e+11
253	0x523459f4	1.9365082e+11
254	0x5196c4a0	8.094299e+10
255	0x518c6cf0	7.539039e+10

exp_avg f4 [64]
0	0x46c865e1	25650.94
1	0x480d70fc	144835.94
2	0x49592428	889410.5
3	0x498cf516	1.1547228e+06
4	0xc7173469	-38708.41
5	0x48659ead	235130.7
6	0x48bee69d	390964.9
7	0x495df7dc	909181.75
8	0x48ed51ca	486030.3
9	0x4935d0fc	744719.75
10	0x48b5edaf	372589.47
11	0x00000000	0.0
12	0x4703952e	33685.18
13	0x493aa301	764464.06
14	0x487bf657	258009.36
15	0x4920ecf9	659151.56
16	0x48c47881	402372.03
17	0x496bdf0c	966128.75
18	0x486cc961	242469.52
19	0x4924a33b	674355.7
20	0x4775dcf6	62940.96
21	0x48be17cf	389310.47
22	0x490bb5e7	572254.44
23	0x498a57d0	1.133306e+06
24	0x495f8ab7	915627.44
25	0x499eecb4	1.3019105e+06
26	0x490bd30b	572720.7
27	0x48a0f7c8	329662.25
28	0x48e5b873	470467.6
29	0x492ffb13	720817.2
30	0x00000000	0.0
31	0x47c305f6	99851.92
32	0x4887a0b6	277765.7
33	0xc59c571d	-5002.889
34	0x48ee1bf2	487647.56
35	0x48e5b84a	470466.3
36	0x49124fa6	599290.4
37	0x48c1378a	395708.3
38	0x48cb6322	416537.06
39	0x49219f87	662008.44
40	0x48df1075	456835.66
41	0x48e19b2b	462041.34
42	0x488caa9a	288084.8
43	0x49506707	853616.44
44	0x4991dec2	1.1949682e+06
45	0x49a87b12	1.3801942e+06
46	0x48c3dbd6	401118.7
47	0x490ffbc1	589756.06
48	0x493cc239	773155.56
49	0x4930be3e	723939.9
50	0x48dbf0ab	450437.34
51	0x4991a8fc	1.1932475e+06
52	0x491d6cc9	644812.56
53	0x48d0b0b1	427397.53
54	0x491a513e	632083.9
55	0x4943e70f	802416.94
56	0x48545eb9	217466.89
57	0x494cb3e6	838462.4
58	0x00000000	0.0
59	0x490f5d9e	587225.9
60	0x4905719c	546585.75
61	0x496a9c12	960961.1
62	0x00000000	0.0
63	0x4989cd5c	1.1288755e+06
