lightning_logs/insurance/version_1/checkpoints/epoch=49-step=1300.ckpt (torch, 170090 bytes, 27 tensors)

input.weight f4 [64, 6]
00000000: da9c 3b3e 7aca e237 66c1 a5bc fbc6 793d
00000010: 0506 843f 379b bb3d 54e7 a93e 8421 293e
00000020: 0542 a83e 25c1 d53e a02c 2c3f 1193 bcbd
00000030: 3d59 c83e 95d2 fbbc 892c 783e 0646 713e
00000040: 011e 823f a309 2d3c 76cf 373e 9efb d3bd
00000050: 492d 423f 9373 d13e 2eb4 703f d574 76be
00000060: 2f9c dc3e 7e09 b33e a678 c63e 23d4 1f3e
00000070: be23 863e 5d60 b53e 7bd6 e73e a294 a83e
00000080: 49f0 b23e 18c0 65be cff5 933e bdd5 4abe
00000090: a172 b5bd c41e 52be 99d2 f23e 7b3a bbbe
000000a0: dde8 f03e 3c6b 61bd 816d d83e 9960 87be
000000b0: 844b 633e 4b75 6f3e 65e6 3f3f b612 593d
000000c0: 073f 063f af38 2d3e cf9c a73d 64a6 323e
000000d0: e555 333f d3c6 cb3e cbc7 073c 6fb1 e0bd
000000e0: 1b50 6e3e 8f4f 493d d4a7 a43e 2e18 753e
000000f0: 8e88 373f e79f b63c 9111 c73d 216f 5bbe
00000100: 2ba3 113f e119 d9bd 1dd3 003f f6bd 383e
00000110: 0248 bb3e 4de1 e93a 9f7e 313f 7ff2 e63c
00000120: a242 cebe e919 3bbe f499 9c3d fc5e fabd
00000130: 22a9 15be 6005 063c 3491 8d3e e7da c73e
00000140: 8a91 853e 52e2 75be d7a5 813f 99a5 bcbc
00000150: 19fb c4be 2e77 09be 00f4 bc3e 0eaa 833e
00000160: 8058 17be 761d b3be 0e64 2e3f 5bb8 c23d
00000170: ccce 7c3e 949c b63e 6f02 0f3f 0e89 7fbd
00000180: 34c3 8bbd d0bd 86bd 16f1 283f 4402 22be
00000190: 8e48 853f 3870 43be 2bf8 91be f60d 373f
000001a0: 9d1f 003e 3555 723c 9419 54bf b1b2 c8bd
000001b0: 4a11 a8bb a70f ad3e 784a b33e b84c a4be
000001c0: fd8f 683f e011 5b3e f50c b6be 7a05 70be
000001d0: a81d ce3d 4ccb ba3d 6eb6 6bbe dc2c 9cbd
000001e0: 5ba9 263f 9318 9e3e 0cad 173f e81d 653e
000001f0: a2a3 153e e568 8dbe a6a4 843e 65c0 a5be
00000200: 6fa5 b4bd fe78 af3e 4ab7 4a3f e0b6 853e
00000210: 9aff 0b3f c6fe 6d3e ffb0 333f c0f5 7abe
00000220: d9fb 933e e790 84be 1b36 233f 9f10 86bd
00000230: 2cfd a93e 2fed a33e a61f 403f 8731 8b3c
00000240: 733e 29bc 2e29 9b3e 2ab1 e63d c6a4 d33d
00000250: 9f10 d73e 7d86 79be 1306 bd3d aaff 00bd
00000260: 1a48 13be b000 053f 7ab0 9c3d 3523 28bf
00000270: 200b c23e 35ab 583e 60e6 1c3f cc3a fd3e
00000280: b3cf c33e 088c dd3e b23f 0c3f 8c09 983e
00000290: 0299 cf3e bb56 d6be 8923 573f d425 183c
000002a0: 3ad3 e83d d75a 913c 6b81 d53e 2516 a83e
000002b0: 3529 243f cc99 9c3d 79f0 273f f0e8 8ebe
000002c0: 05bd 093f f75b b53d 5a80 723f e53c af3d
000002d0: 81b5 813d 99b2 00be b4e0 cfbd 0698 9d3e
000002e0: 686e bb3e d9da e23e 6e2b 17bd 3af0 81bd
000002f0: 9de8 3d3f abaa b33d 0e5f 843f 3085 19be
00000300: e61a 343f 19d5 92be 8378 003f c48e 523d
00000310: 0e61 9c3e 3327 f33c 66d9 d53e 6aa6 5dbe
00000320: dc99 ef3d 10f2 c93e 466b c63e 5848 9abd
00000330: 450d 163f 4fbb a83e 3f88 633e 6d70 403e
00000340: 82e6 583f eecf 47be aa2a 1d3f 2be3 6a3d
00000350: 5e77 e83e 9de6 05be 5a3e 073f a022 13be
00000360: a737 2a3f a12f 023d d713 083f 1fc2 88be
00000370: 8b0d 443f 9b41 64bd 08ef 053f fa29 cc3e
00000380: ed0e 0f3e bdb8 a43e 2b81 cd3e 6733 693e
00000390: df76 793d 2de6 4ebe dc87 463f 4185 6cbd
000003a0: 7f16 7e3f 8e9d 61be c7be 473f 6e2d 063e
000003b0: eb41 373f 092c 52be 367b 483f 0dc2 e5bd
000003c0: 47c5 da3e 2b52 9e3e ed87 dbbd 8350 88bd
000003d0: 03cf 3a3e 32f9 643e d304 3f3e 67a0 7c3e
000003e0: d009 be3b 845f 283e 9442 323f d119 103d
000003f0: 1e7c 113f 235a 3fbd 2ec8 a43e 5218 53be
0.18321553 2.7035585e-05 -0.020233821 0.06098078 1.0314337 0.09160464 0.33184302 0.16516691
0.3286287 0.4174892 0.6725559 -0.09207738 0.39130583 -0.030740062 0.24235739 0.23561868
1.0165406 0.01056138 0.17950234 -0.103507265 0.7585035 0.4090849 0.9402493 -0.24068005
0.4308791 0.3496818 0.38763922 0.15608267 0.26199144 0.35425082 0.45280823 0.32925898
0.34948948 -0.22436559 0.28898475 -0.19808097 -0.08859754 -0.20519549 0.47426298 -0.36568055
0.4705266 -0.055033907 0.42271045 -0.26440886 0.22196776 0.23384587 0.7496093 0.05299636
0.5243992 0.16916154 0.08184206 0.17446285 0.7005294 0.39800128 0.00828738 -0.10971343
0.23272745 0.04914814 0.32159293 0.23935005 0.7169274 0.022293044 0.097201474 -0.21429111
0.568896 -0.10600639 0.50322133 0.18041214 0.36578375 0.0017843634 0.69333833 0.028191803
-0.40285212 -0.18271603 0.07646552 -0.12225148 -0.146153 0.008179992 0.27649844 0.39034197
0.260876 -0.24012116 1.0128735 -0.023028182 -0.38472822 -0.1342437 0.36904907 0.2571568
-0.14779854 -0.34983414 0.6812142 0.09507819 0.24688262 0.35666335 0.5586309 -0.062386565
-0.068243414 -0.065791726 0.6599287 -0.15821177 1.0412767 -0.19085777 -0.2850965 0.7150568
0.1251206 0.014790823 -0.8285153 -0.09799708 -0.005129014 0.33801004 0.35017753 -0.32089782
0.9084471 0.21393538 -0.3555676 -0.23439589 0.1006425 0.09120807 -0.2301881 -0.07625744
0.65102166 0.30878124 0.59248424 0.2237469 0.14613202 -0.2761909 0.25906867 -0.32373348
-0.088206165 0.34271997 0.79185927 0.26116085 0.5468689 0.2324172 0.7019195 -0.24507809
0.28903082 -0.25891802 0.63754433 -0.06546139 0.33200967 0.32016894 0.7504829 0.01699139
-0.01032983 0.30304855 0.1126426 0.103341624 0.42004868 -0.2436771 0.09229674 -0.03149382
-0.14382973 0.51954174 0.07650848 -0.6567872 0.37899113 0.2115906 0.61289024 0.4945892
0.382444 0.43270898 0.5478469 0.29694784 0.40546423 -0.41863045 0.840386 0.009286363
0.11368413 0.017743511 0.417003 0.32829395 0.64125377 0.07646522 0.6560131 -0.27912092
0.53804046 0.088554315 0.947271 0.085565366 0.06333447 -0.1256813 -0.101502806 0.30780047
0.3660767 0.44307593 -0.036906652 -0.06344648 0.74183065 0.08772787 1.0341508 -0.14992213
0.70353544 -0.28678206 0.50183886 0.051405683 0.30542797 0.029681778 0.41767424 -0.21645513
0.11699268 0.39442492 0.38753718 -0.0753333 0.58614 0.32955405 0.22219943 0.18792887
0.84726727 -0.19512913 0.61393225 0.05734555 0.4540357 -0.13076253 0.52829516 -0.14368677
0.6649117 0.031783704 0.53155273 -0.26710603 0.76583165 -0.05572663 0.5231786 0.39875776
0.13970537 0.32172194 0.4013761 0.22773515 0.06090438 -0.20204993 0.77551055 -0.05774427
0.99253076 -0.22032759 0.7802548 0.13103268 0.7158496 -0.2052461 0.78313005 -0.11218653
0.42728636 0.30922064 -0.10719285 -0.066559814 0.18243031 0.22360685 0.18654184 0.24670564
0.0057995096 0.16442686 0.6963284 0.03518087 0.5683001 -0.04671682 0.32183975 -0.20614746

input.bias f4 [64]
00000000: 957c 85bd bec2 6c3e 69c5 c5bd 512b 503e
00000010: c22a ca3e 7790 bc3e f4f8 663d 009c a93d
00000020: 8960 903e 862c e33e 5774 643e 7169 acbe
00000030: 8986 b3be 527e 09be 4899 bcbe d511 8ebd
00000040: d511 973e 306e ce3e bc27 e3bd aa8f aabe
00000050: 2ae5 383e d7fe 503e 73ae 753e b2a7 14be
00000060: 7491 c43e b275 e43e 9dc4 983d d2d0 9ebe
00000070: 4b90 923c 4071 963e 46d0 a73d f6b4 06be
00000080: 5261 4a3e 44a5 733e d24b 4a3e 0dc4 e93d
00000090: 40a7 84be 63ad b73e bc5a 193e 3aa4 a0be
000000a0: 7597 9f3e 5468 87bd 6f6c 773e 008b 8fbe
000000b0: 0e40 e83d 9c12 1f3e 226c 1d3e 1690 a03e
000000c0: d02c 1bbe 1fb4 863e d110 98be 3a9e b33e
000000d0: db81 b43e 5a4f 96be 2469 a5be f097 973d
000000e0: 099d 193e bc79 8c3c cd83 4d3d 0c77 c33d
000000f0: d40b 5a3e e2f2 153e 3416 8bbe 3367 73be
-0.06517903 0.23121163 -0.096567936 0.20329024 0.39485747 0.36828968 0.056389764 0.08281708
0.2819865 0.44369906 0.22310005 -0.33674195 -0.3506358 -0.13427094 -0.36835694 -0.06936995
0.29505792 0.4031844 -0.11091563 -0.33312732 0.18056169 0.20409714 0.23992328 -0.14517096
0.38392222 0.44621044 0.07459376 -0.31018692 0.01789107 0.29383278 0.08194022 -0.13154969
0.19763687 0.23793513 0.19755486 0.11414347 -0.25908852 0.3587447 0.14976019 -0.31375295
0.3117024 -0.06611696 0.24162458 -0.28035736 0.113403425 0.15534443 0.1537328 0.3135993
-0.15153813 0.26309296 -0.2970033 0.35081655 0.35255322 -0.29357415 -0.32306778 0.07402027
0.1500131 0.017147891 0.050174523 0.09544191 0.21293575 0.14643434 -0.27165377 -0.23769836

hidden.0.0.weight f4 [64, 64]
00000000: 3000 a93e a99b 753e c1d3 0f3f 9f37 0b3f
00000010: 7fb9 8c3d a130 303e 086b 8e3e 081b b23e
00000020: 7624 5f3e b695 43bb 9779 983e 9c48 bd3e
00000030: 70be a0bd 684b b03e 76bf e7bd 1154 d03e
00000040: a5f6 a53e 0e32 48bf 9b9d 643e 48f5 ae3c
00000050: a8ad 753e 8961 aa3e 8395 b33e e987 253f
00000060: 1267 923e 45b9 fdbe f7f2 993d 480c 9c3e
00000070: 6b07 b63e 0bf3 b23e 56a0 293d 2ef2 0b3f
00000080: 842c e73d bab0 943e 09de ad3e 57a3 e03e
00000090: 2b3d 193f 99e7 513e dd19 283f 5a57 2b3f
000000a0: b53a 1cbc 4e75 b43e b724 833e fb39 7e3e
000000b0: 7fcc 133f e422 463e 4dd1 ab3e 48d8 483e
000000c0: 08d6 d93e 8d0c 8a3d da15 bb3e 5d53 82bf
000000d0: 843b 543e 8b6a 293f 1876 51bd 6868 9d3d
000000e0: 6f4b 1e3e 2226 8a3e 7e25 ff3e 960a 8a3d
000000f0: d28c 463e 28e0 e03e 1d0d 513e 2963 223f
00000100: 88af 693e a826 953e 38c9 043f 21d9 ca3e
00000110: 6d7d bdbd 3c6e 2f3e 782d 713e 2511 1e3e
00000120: 5d31 443e 393c bbbd b927 e93e ee92 683e
00000130: 4017 6b3d 9b2e 943e 06c4 913d ff56 b13e
00000140: fed9 ea3e 68bf 5ebf d5dc a43d 1851 bc3c
00000150: 79b2 c13d 5915 323e 944c 7d3e 6ba5 3b3f
00000160: 9064 d63c a411 05bf c398 1fbd 5fb8 7b3e
00000170: ed7d 5c3e 88da 8a3e 25e1 cc3d c9ce 253f
00000180: ff45 f23d 1ccb f53d 7e98 683e d605 f83e
00000190: fdca 223f 228a 153d e653 ff3e d692 183f
000001a0: 1f95 b53d 2e5b 5d3e 438b 513e 5fb0 023e
000001b0: eca2 e73e dfa5 8bbc 12d4 f33e 12dd 033e
000001c0: b987 db3e 89b3 803c 5434 853e cdeb 87bf
000001d0: 6471 133e a4fa 433f 4829 1e3d fc79 363e
000001e0: b5d8 583e eab6 273e 9d22 d93e fb04 533e
000001f0: b76b 49ba d947 b93e 1c54 5f3e e385 e23e
00000200: a926 ce3e 7bbe 9f3e c833 123f 5996 fc3e
00000210: 16e8 f6bc cbac 8c3e 24fe db3e 3407 463e
00000220: 3d90 6a3e a486 c6bc f0ec ea3e 18c7 903e
00000230: 464a 9d3d bd53 ee3e c63e c23d ef65 d03e
00000240: 53df d03e 64fd 55bf 8c73 323e a025 91bc
00000250: 49b4 9f3e 9263 6f3e 4f9f 8c3e 1b37 043f
00000260: e64c 8e3d e09f 10bf f170 d93c 552e d13e
00000270: 0f9a 373e b320 933e c83c 37bd a5b8 2e3f
00000280: d294 873e 7dcf bd3e 43a7 813e 0c8a 043f
00000290: b5e8 253f 9782 5a3e c80f 073f 3215 db3e
000002a0: d3e8 21bd d6c1 793e eb0c 663e 352a 663d
000002b0: 0c45 2d3f fb06 063e 761f db3e 9a3b 443e
000002c0: 722f f93e 81e6 af3d a0ee 893e 22da 71bf
000002d0: 30b9 663d 5ee6 2c3f 3ed2 8dbd f560 f63d
000002e0: fd89 373e c20a 9d3e a542 b23e 60b8 803e
000002f0: dcf1 2e3e 0aaa 773e 2233 833e 7b4d 1c3f
00000300: f5c8 6f3e 6afd d63d 862c 113f b623 003f
00000310: 4525 9dbd 2ae0 1b3e 8733 c03e 2406 4d3e
00000320: 9dce 0f3e 84c7 b93d eadb 843e 0919 c33e
00000330: bce1 fb3d d459 b73e e876 1fbd f8ad b33e
00000340: e144 cc3e 53ec 37bf 44c2 933e d819 bdbc
00000350: 314f 973d fd4c d83d 7b4e a23e 5c7c 243f
00000360: 8f7e 9c3d 207b ffbe 7598 d93d 290d f43e
00000370: fd56 073e 92e5 9c3e 4f7c 833d 1db4 263f
00000380: d5ba 283e d645 9f3e c432 653e c257 c43e
00000390: d1f5 0d3f 27c4 b23d 87d0 0f3f 0a74 d53e
000003a0: fcad cd3d 13c3 093e a528 393e 5e69 5c3e
000003b0: 02c3 173f 1f6d e43d 67dd c03e 92df 9a3e
000003c0: 6b42 ff3e 670d 823d f3ad 763e c277 59bf
000003d0: 0d38 543d 78a9 193f 4872 173d 520b a73d
000003e0: 0c5b 873e dc82 913e 0679 ae3e ffd6 323e
000003f0: 43f0 50bc fbed d03e e1c3 3f3e f2f8 0c3f
0.33007956 0.23985161 0.56182486 0.54381746 0.06871318 0.1720605 0.27816033 0.34786248
0.21791252 -0.0029843873 0.29780266 0.3696946 -0.07848823 0.3443253 -0.11315815 0.40689138
0.32414737 -0.7820138 0.22325747 0.021357194 0.23992026 0.33277538 0.35075006 0.6466051
0.2859426 -0.49555412 0.07517045 0.3047812 0.35552534 0.34951052 0.041412674 0.5466641
0.112877876 0.29041082 0.33958462 0.43874618 0.5985896 0.20498504 0.65664464 0.6693016
-0.009535481 0.35245746 0.2561395 0.24826805 0.5773391 0.19349247 0.3355812 0.19613755
0.42546105 0.06740675 0.3654011 -1.018169 0.20725828 0.66178197 -0.051138014 0.076859295
0.15458463 0.26982218 0.49833292 0.067403 0.19389656 0.43921018 0.20415159 0.63432556
0.22820866 0.29131055 0.51869535 0.3961878 -0.09252439 0.17131895 0.23552501 0.15436228
0.19159456 -0.09142346 0.45538118 0.22712299 0.05739522 0.28941807 0.07117467 0.34636685
0.4586944 -0.8701081 0.08049933 0.022987887 0.09457869 0.17390956 0.24736243 0.7329928
0.026170999 -0.5198004 -0.038964044 0.2458205 0.21532412 0.2711985 0.100038804 0.64768654
0.11829757 0.12001631 0.22714421 0.48441952 0.63590986 0.036508687 0.49868697 0.59599054
0.08866333 0.21616814 0.2046328 0.12762593 0.45241487 -0.017046867 0.47622734 0.128773
0.42876986 0.015710609 0.26016486 -1.0618836 0.14398724 0.7655432 0.038613588 0.17819971
0.21176417 0.1637837 0.4240922 0.20607369 -0.0007683592 0.36187628 0.21809429 0.44242772
0.4026387 0.31200013 0.5711026 0.49333456 -0.030139964 0.2747558 0.4296733 0.19338685
0.22906585 -0.024234124 0.45883894 0.28276896 0.07680182 0.46548262 0.09484629 0.4070277
0.40795383 -0.8358977 0.1742689 -0.017718136 0.31192234 0.23377827 0.27465293 0.51646584
0.06948261 -0.5649395 0.026543112 0.4085566 0.17929862 0.28735885 -0.0447357 0.68250495
0.26480728 0.37072363 0.25322923 0.5177314 0.6480821 0.21338879 0.52758455 0.42789608
-0.03952868 0.24390349 0.22465865 0.056192596 0.6768348 0.130886 0.4279744 0.19163361
0.4866901 0.08588887 0.2693987 -0.9447347 0.056328952 0.6753901 -0.06924866 0.12030212
0.17923732 0.3067227 0.3481647 0.25140667 0.1708445 0.24185959 0.2562495 0.61055726
0.23416503 0.10497554 0.5670856 0.5005449 -0.07673124 0.1522223 0.37539312 0.20021874
0.1404366 0.09071258 0.2594903 0.38105038 0.12298915 0.3581072 -0.038931757 0.35093665
0.398963 -0.7184498 0.2885915 -0.023083612 0.073881514 0.10561559 0.317005 0.6425226
0.07641327 -0.49898624 0.10624782 0.4766629 0.13216777 0.30643898 0.06420194 0.6511858
0.16477521 0.31107968 0.22382647 0.38348204 0.5545321 0.08728819 0.5617756 0.41690093
0.100429505 0.13453321 0.18081911 0.2152457 0.59281933 0.11153626 0.37668917 0.30248696
0.4985536 0.063502125 0.24089794 -0.8494836 0.051811267 0.60024214 0.03697422 0.08156456
0.2643665 0.2842015 0.3407671 0.17464827 -0.012752595 0.40806565 0.18727066 0.5506736

hidden.0.0.bias f4 [64]
00000000: db8b 54bd 839e 15bd 51f6 5c3b a34c dc3c
00000010: 746d c0bd 115d 423d 8371 26bd 3b6f 99bd
00000020: a571 b13d 7d62 ac3d c30f 5b3d ce0c ebbd
00000030: 769b dfbd 8699 92bd 00f3 cd3b 28d0 0c3d
00000040: f580 a5bc 2224 08bd c4ff dabd bdda 17bc
00000050: fda8 55bb 9059 79bd cca7 be3c c5e6 be3d
00000060: 1a82 963d 6f3e 3f3c 2935 2a3d 5544 a4bd
00000070: d4a9 c33d a96e e7bd d788 f5bd 4c3c dbbd
00000080: b4b9 70bc fd7e 433d 814b 983d c37c 573d
00000090: f09c d8bc c205 f3bd 30d0 5bbd 647f c7bd
000000a0: 6858 253d fdc9 8f3d 13a9 4abd 16db a2bd
000000b0: 4218 96bd b291 463d 94f9 c63c fcdc 3a3d
000000c0: a8ce b1bd 9c48 babd dc5a 8f3d 53b3 e93c
000000d0: e08f 263c 920a afbd c254 05bc e5f8 4abd
000000e0: ad03 283d 5c1d 8b3d 587d b4bd e80b 673d
000000f0: 320c ca3c 680f 863c b0fc a93c 34ef 87bd
-0.05189119 -0.03652812 0.0033716152 0.026892012 -0.093958765 0.047452036 -0.040635597 -0.07491919
0.08664254 0.08417223 0.05348183 -0.11477052 -0.10918324 -0.071581885 0.0062850714 0.0343782
-0.020203093 -0.033237584 -0.10693315 -0.00926846 -0.0032601946 -0.06087643 0.023273371 0.093213595
0.07349034 0.0116726 0.041554604 -0.08020846 0.095538765 -0.113004036 -0.11988991 -0.1070486
-0.014692713 0.047728527 0.07436276 0.052609216 -0.026442021 -0.118663326 -0.05366534 -0.09741095
0.040367514 0.07020948 -0.049477648 -0.079519436 -0.073288456 0.04847879 0.02428893 0.045620903
-0.08681995 -0.090958804 0.06999752 0.028527891 0.010166138 -0.08546938 -0.008137884 -0.04955377
0.04101913 0.06792709 -0.0881297 0.05640784 0.024664018 0.016364768 0.020750374 -0.06637421

hidden.1.0.weight f4 [64, 64]
00000000: 62fe 3eba d97e cabd fbcf c43d 24d4 d93d
00000010: 615a f5bd 4625 b63d 5917 93bd 04ad b73c
00000020: e35c 8fbd 0609 86bc 8bbc 663d e025 48bd
00000030: a7af de3d 1796 b93c 427e 9dbd d44f 013d
00000040: fbaf d6bc 5747 f33c c4b7 073d 747d f4bd
00000050: 990e e1bd e4ba e1bd d5bd 31bc ba95 01be
00000060: 7563 a33d 87cb c23d a4b8 72bd 43cc 163d
00000070: 0ab2 e3bd cc5e 14bd 7091 303d 28b6 36bd
00000080: 66be a63d 768c f13c 9bb1 713d 290d e5bd
00000090: 12cc c43d 78c1 80bc 747a 11bd c459 babd
000000a0: 03af bd3d 2cca fcbd b644 2fbd a370 d7bd
000000b0: 4268 b3bd bda6 953d 2fe7 f839 d612 983c
000000c0: c68b b03d 929a a73d a9fc e1bc ed2b a23d
000000d0: 99a0 413d 174a c43d 0e16 5bbc 0960 acbd
000000e0: c5b6 3d3d 9071 3ebc a284 c03d e29c 353c
000000f0: 13c7 a7bd f6f9 74bd 0ec8 ccbd 08ab f0bd
00000100: cba0 ad3c b7b1 b5bd 974a 553d 3610 a73b
00000110: a966 b13d 906e 0bbd 8e6a 2bbd 2fd9 e3bd
00000120: 57a5 6e3d d51f d03d 5a7a ce3d 7832 8d3c
00000130: 8837 3d3d 7b8b 943d b070 bebd 8095 26bc
00000140: 7ab9 64bd 592d d13c c454 30bd f8bc cebd
00000150: 15a7 bfbd 1613 e6bd 76e7 e53d 6d1c b2bd
00000160: 4ac8 2c3d a39d e2bd 55ee cdbc e106 ff3d
00000170: e5e2 9fbd 13e6 b4bd f8bc 5dbd 8733 b43d
00000180: 2f75 61bd 02e7 ddbd 4f0f a23d 55e9 a6bc
00000190: eece 933d b0d7 76bd 670f d2bd 808c 4fbc
000001a0: 0e82 21bb b350 0b3d 585b 0a3d 0404 9d3d
000001b0: 44f8 58bc 9912 c0bd 1c09 63bd 8b40 8dbd
000001c0: ca36 8d3d 7449 1dbd 031c fe3d 8c84 ec3d
000001d0: f1d4 c7bd 32c8 85bc e8c4 313b 9cac a4bd
000001e0: 07a4 d13c b906 1ebc 8acd d53d e1a9 e43d
000001f0: a907 67bd df86 cb3d 8477 d9bd 3098 2d3d
00000200: 16f6 783e 624e 933e 3787 c73e e6cb c13e
00000210: 2d43 923e 7774 b63e 2972 703e d5f4 bc3e
00000220: 6eab b43c be96 8abc e6f9 063e 0414 d33d
00000230: 43dc 5d3e 329c c13a 2038 23bc 2412 23bd
00000240: 60a3 c13e e81a c83e 3672 713e e1ed a63e
00000250: 2e59 cd3e b013 3e3c 1b60 863e 40b2 5a3e
00000260: 3ec7 5bbc 49ef 883e fcc3 b53e b643 9a3e
00000270: 7509 c53e fcf3 ea3e 2ddf 953e 5c73 e73e
00000280: 8fed d03e 5677 bb3e 80db 8b3e d85b 913e
00000290: f3bc f43c 129e 943d 5740 a23e c429 51bd
000002a0: ebd6 d33e 87a4 833e 7a59 a03d 1c95 a03e
000002b0: 362e bb3e 5961 6f3e 6fab a1bc 7b47 643e
000002c0: 905f 24bd 6be2 d73e b3d1 8e3d 972c 77bd
000002d0: 4526 bb3e b3ea 733e f3c3 963e 33ea 533e
000002e0: 0781 963e 1b08 a43e b0b6 2b3c 5be6 d03e
000002f0: 2845 d33e f394 9d3e 2661 eebd c0bf a6bb
00000300: b141 b93e 9c28 e93e 0fbf 803e 1e50 ba3e
00000310: 7fbe 8a3e ba69 a13e 7207 de3e 15ca b93e
00000320: bb7d 603d 8b2d 40bd 5484 863d ccc4 c5bd
00000330: 68f4 a23e 75e0 a83c bccd 0b3d b004 5fbc
00000340: 4f81 913e b82c 873e fb3f 8c3e 2219 b43e
00000350: 3668 aa3e f462 b23d 826a 973e a78d e33e
00000360: 410b 193d a570 733e 95d5 943e 273c be3e
00000370: b6ba d33e ce50 d03e a41a dd3e c04f d43e
00000380: 97a3 e23e 217f be3e fd19 593e 2001 e23e
00000390: 8db6 ac3d d6f8 523d 4eec 883e 3689 f03d
000003a0: 74a3 d53e 9a6e bf3e 379e 94bd bb40 873e
000003b0: 02f6 c33e 166c 873e 143c d9bd 9b93 a83e
000003c0: 7c42 493d 21c8 553e b58a bcbd 24b6 f43d
000003d0: 7809 dc3e 8460 8b3e 2f8f 663e 341d 863e
000003e0: aa5b e63e 1454 893e 721d f23d bf14 913e
000003f0: e8a6 a53e e421 943e 005c 9b39 749a 58bd
-0.0007285831 -0.098874755 0.096099816 0.10636166 -0.11980129 0.08893828 -0.071821876 0.022421367
-0.070001386 -0.016361725 0.056332152 -0.048864245 0.10873347 0.022654576 -0.076900974 0.03157027
-0.02620696 0.029697103 0.033134237 -0.11937991 -0.109891124 -0.11021975 -0.010848482 -0.12654772
0.07977954 0.09511476 -0.05925812 0.036815893 -0.11117943 -0.036223218 0.04310745 -0.04460731
0.08141784 0.029485922 0.05900727 -0.11184151 0.09609236 -0.015717253 -0.03551717 -0.09099153
0.092618965 -0.12343249 -0.042790137 -0.105195306 -0.0876012 0.073071934 0.0004747449 0.01856367
0.0862041 0.08183779 -0.027586298 0.079185344 0.0472723 0.09584444 -0.0133719575 -0.08416755
0.04631688 -0.011623755 0.09400298 0.011084767 -0.08192267 -0.059808694 -0.09999095 -0.117513716
0.021194836 -0.08871787 0.052073088 0.005098368 0.08662159 -0.034040987 -0.041849665 -0.11125409
0.05826315 0.101623215 0.100819305 0.01723598 0.046195537 0.07253166 -0.09298837 -0.0101674795
-0.055840947 0.025534319 -0.04304959 -0.10094637 -0.0935804 -0.11234109 0.11225788 -0.08696828
0.042183198 -0.11065223 -0.02513806 0.12452484 -0.078069486 -0.08832946 -0.054135293 0.087988906
-0.055043396 -0.10835077 0.07913076 -0.020374933 0.07217203 -0.06026429 -0.10256844 -0.012667775
-0.002464417 0.034012508 0.03377852 0.076667815 -0.013242785 -0.09378547 -0.05542861 -0.06897076
0.06895216 -0.03840013 0.124076866 0.11548719 -0.09757412 -0.016330812 0.0027125422 -0.08040735
0.02559091 -0.0096451575 0.10439594 0.11165214 -0.05640379 0.09937834 -0.10618499 0.042381465
0.24312624 0.2877074 0.38970348 0.37850875 0.28566876 0.3563573 0.23481049 0.36905542
0.0220544 -0.016917583 0.13181266 0.10306552 0.21666054 0.0014771281 -0.009962112 -0.039812222
0.37819958 0.39083028 0.23578724 0.32603362 0.401071 0.011601374 0.26245198 0.2135706
-0.013414202 0.2674506 0.35501087 0.30129784 0.38483778 0.4588927 0.29271832 0.452052
0.40806243 0.36614484 0.27315903 0.28390384 0.029875254 0.07256712 0.31689712 -0.05106522
0.41374907 0.25711462 0.07829566 0.3136376 0.36558694 0.23376979 -0.019735066 0.22292893
-0.040130198 0.4216493 0.06973591 -0.06034526 0.36552635 0.2382 0.29446372 0.20694809
0.29395315 0.32037434 0.010480568 0.40800747 0.412637 0.30777702 -0.11639623 -0.0050887764
0.3618293 0.45538795 0.25145766 0.3638925 0.27098462 0.31525975 0.43365055 0.3628699
0.054807406 -0.046918433 0.06568208 -0.09656677 0.31827092 0.020614842 0.03413175 -0.013611957
0.28418967 0.26401305 0.27392563 0.35175425 0.33282632 0.0871028 0.29573447 0.4444401
0.03736425 0.23773439 0.290692 0.37155268 0.41353387 0.4068665 0.43184388 0.41467094
0.44265434 0.37206367 0.2120132 0.44141483 0.08433256 0.05150684 0.26742786 0.11744921
0.41726267 0.3738907 -0.072567396 0.26416573 0.38273627 0.2644965 -0.10607162 0.32925114
0.04913567 0.20877124 -0.09206144 0.11948803 0.42975974 0.27222073 0.22515558 0.26194155
0.4499181 0.2682196 0.118220225 0.2833614 0.32353902 0.28932106 0.0002963245 -0.052881673

hidden.1.0.bias f4 [64]
00000000: c03b 0a3d b1a1 b03d 3d86 fe3d 2f47 863b
00000010: 48ce e5bd 80c4 793d 4579 94bd 4cf7 efbd
00000020: ef6d e0bd 4e08 edbd b414 17bd 10b5 dfbd
00000030: 1423 b9bd 89a4 143c 3660 783d 545f 8bbd
00000040: 405c 963d 404a d73c 4991 05be 7470 35bd
00000050: f72b cfbd 2cc7 2c3d f33e 5f3d a71e b7bb
00000060: cdcd 46bb 24b6 393d 2298 b4bd 84e5 ffbd
00000070: f593 9d3d 1417 0cbd b653 5dbd ce27 acbd
00000080: c612 bdbd 0422 90bd 296a 353c 5899 1cbd
00000090: 7819 c73d 6635 e23d 0dc2 1b3b a8ee dd3d
000000a0: 4f04 c9bd 93c6 513b 331a c6bd 1cd8 70bd
000000b0: f2df d3bd 4faf 8f3d 4343 fa3d 5872 c53d
000000c0: e4c2 adbd 46aa afbd 2709 813d f3d2 d8bd
000000d0: 9dcf 8c3c b029 86bc ec71 fdbd 00a9 9c3d
000000e0: daf4 953d 11e3 853d 020e fcbd 3b62 5e3c
000000f0: 4a04 203d 454a 8bbd 8794 80bd 6217 373d
0.03374839 0.0862459 0.12427948 0.004097841 -0.11220986 0.060978413 -0.07249693 -0.1171709
-0.10958468 -0.115738496 -0.03688498 -0.10923207 -0.09039894 0.009072431 0.06063863 -0.06805292
0.07341814 0.026280522 -0.13043703 -0.044296697 -0.101158075 0.042182133 0.054503392 -0.005588371
-0.003033507 0.04533972 -0.088180795 -0.124949485 0.07694236 -0.034201697 -0.05403491 -0.0840603
-0.092320964 -0.07037738 0.011072674 -0.038232177 0.09721655 0.11045341 0.0023766786 0.10836536
-0.09815275 0.0032009229 -0.09672966 -0.058799848 -0.103454486 0.07015859 0.122198604 0.0964095
-0.08484438 -0.08577399 0.06300574 -0.1058711 0.017188841 -0.0163773 -0.123752445 0.07649422
0.07322092 0.0653745 -0.12307359 0.013573225 0.03906659 -0.06801275 -0.06278329 0.044700034

hidden.2.0.weight f4 [64, 64]
00000000: 9406 8f3d 122a dabd f81b b13c f085 49bc
00000010: b480 1ebd 38cc b23d 80f4 dfbb 163a c93d
00000020: d04f e9bd 3a2b e8bd 7e8a c93d a2f3 8c3d
00000030: b4ae d0bd 5877 6d3d 4067 bb3b 98a9 efbc
00000040: 3499 e1bd b84a 75bd 4450 5abd 60ee b13d
00000050: 9020 dc3d ce11 8cbd fcb4 1c3d 80c0 1dbc
00000060: 2086 003c ba13 863d d037 ab3c c48c e73d
00000070: 28ef 5d3d 24d9 37bd 781e f5bc 603a 663c
00000080: 3047 f0bd 80ec cf3c a43d 76bd 0055 3b3c
00000090: b2f9 e2bd a02e 5dbd 2016 213d 6ca8 77bd
000000a0: 7414 94bd 5029 dc3c 70db 29bd 0cfa 0cbd
000000b0: f275 b03d b026 a53d 503c 7fbd aa00 80bd
000000c0: a01a 7cbc 7873 a3bc 50b0 63bc e85f 083d
000000d0: 32d7 c0bd 0e3e b0bd 1c3b d3bd 6cd7 94bd
000000e0: fa6a fc3d 00c4 1439 4c0f 97bd 8a3a 9c3d
000000f0: 42e8 8e3d 000a debc eaa2 bb3d 0025 c7bd
00000100: fd7e adbc bf90 f4bd 7e17 b7bd c37f ecbd
00000110: 7395 f43c 2238 803d fbb7 8b3d c664 4cbd
00000120: af20 163c 6c56 25bd 10c8 68bc 477a dcbd
00000130: 5a1c b23c 2497 8b3d 3e1e b33d b304 e7bd
00000140: 0c8f 50bd 18cd 903d 3a24 963d a63f d73d
00000150: 63bc 2fbd f351 19bc 206d bfbc 3afc d13d
00000160: 8db8 8f3d cd8f ddbd 706f dbbd 0a4a f43d
00000170: fab3 9abb d2dc debd bd32 b6bd 948f 6a3d
00000180: d80f ecbc 6a43 913d 0473 08bd 48df ebbd
00000190: 6f74 a73b ad39 803c 8ee9 d23d da5d 15be
000001a0: cce7 2abd 60d7 bcbd 4c20 c4bd 4045 ff3d
000001b0: 7c54 1c3d 7c15 32bd 4c3d c3bd 8e8f d3bb
000001c0: e86c 8b3d 00a3 263a 897b 09bb 71d1 ce3d
000001d0: 1304 c2bb 4c16 30bd b47f df3d 200c c53d
000001e0: 1caf b6bc 0cea a0bd 207f f8bc 2a93 fcbd
000001f0: 4ada 24bd c92e c4bd 1b7d ad3d f8dd 1dbc
00000200: e66e 9ebc b06d 43bd 46f2 a13e 6a3c cb3e
00000210: daec a33e 7d8e db3e 1cd7 163d fc4f be3e
00000220: 4539 d83e 7e21 a9bd ea1a b63d 29d7 943e
00000230: 0d27 1e3d 1f30 aa3b 5c03 7e3e 3fff dc3e
00000240: b0d9 26bc a83c 6b3d 554b 8cbd ac0c 903d
00000250: fb2b 803e 6414 ca3e 8c3a d93e 2e8c c63e
00000260: cada d43e f5e9 7d3e 20a8 123d 60fc d5bd
00000270: 4f3c df3e c0ea 793d 115b 99bd 48dc a1bd
00000280: 32e8 953d 5167 9e3e 10ed b73e 9edf 873d
00000290: 6794 9b3e b71e c73e 472d a23e 1820 e33e
000002a0: 2588 8ebd f015 9c3e 968c b03e e48d 1fbd
000002b0: c0e7 c0bc 2e1c 4dbd c15a 9b3e 5552 d33e
000002c0: 8dcf 4d3c 70e2 5dbc 0a0d cc3d 90c7 7a3e
000002d0: 0b85 a23e 68f2 b33c aa24 b3bd aa86 733e
000002e0: 09d1 3cbc edb9 b53e 2850 b1bd a219 783e
000002f0: bee0 7a3e ce70 cd3e 7bd2 c6bd cec8 da3e
00000300: 2ca0 03bd 7855 e3bd ac9f 0ebd b05a 46bc
00000310: 804e eabb b4d8 72bd 3a83 fbbd e03c c93c
00000320: 70e4 72bc 78ba 5abd 061d c1bd de6e 933d
00000330: 78d7 18bd c089 b93d 30e9 ce3d e87d b73d
00000340: e448 74bd c809 53bd ca3c 9bbd cc66 ae3d
00000350: 8052 0b3d f4ea e9bd 12da be3d cc07 97bd
00000360: eced e8bd 803a e0bb bac0 de3d ccb5 49bd
00000370: 406a cabd eed7 ae3d 14c1 cb3d 88b4 1fbd
00000380: 08c3 07bd 786f e53c 761d eabd 302d 0d3c
00000390: 4017 acbd b008 a9bc 5869 d0bc 1c8c febd
000003a0: 601b c03d e87a 4a3d 8e93 83bd 38ce adbd
000003b0: 70de 71bd e836 a63d 30cd 3cbc 5885 f0bd
000003c0: 4048 0b3b 3c38 4bbd 4201 b53d 72c2 e63d
000003d0: 529b e53d 38ba f6bc 04bf 29bd 1418 08bd
000003e0: a2ca e73d ac44 4e3d 802a 223c 846b 78bd
000003f0: 608f 7fbd 50f4 603d c216 9dbd 229c b63d
0.069836766 -0.106525555 0.021619782 -0.0123 -0.03869696 0.08730358 -0.0068345666 0.09825532
-0.11392176 -0.1133637 0.098408684 0.06882407 -0.10189572 0.057975143 0.0057190955 -0.029255673
-0.11015549 -0.05988571 -0.053299204 0.086880445 0.10748398 -0.068393335 0.038258538 -0.009628415
0.007844478 0.06546731 0.020900637 0.11306146 0.054183155 -0.044884816 -0.029921755 0.014052004
-0.11732328 0.025381327 -0.06011738 0.01143384 -0.11082782 -0.053999543 0.03932774 -0.060463354
-0.072304636 0.026875168 -0.041469038 -0.03441815 0.08616246 0.0806402 -0.062313378 -0.06250127
-0.015387207 -0.01995252 -0.013897017 0.03329459 -0.09416045 -0.08605586 -0.103140086 -0.07267651
0.12325092 0.00014187396 -0.073759645 0.07628353 0.069778934 -0.027104378 0.09161933 -0.09723854
-0.021178717 -0.119416706 -0.08940028 -0.11547806 0.02985642 0.062607065 0.06822201 -0.049900793
0.009163066 -0.04036562 -0.014207855 -0.1076551 0.021742035 0.06815937 0.087460026 -0.11280193
-0.05091767 0.070703685 0.073311284 0.10510187 -0.04290427 -0.009357917 -0.023367465 0.102531865
0.07017622 -0.108184434 -0.107146144 0.11928184 -0.004721162 -0.10881962 -0.08896396 0.057265833
-0.028816149 0.07092936 -0.033312812 -0.11517197 0.0051103155 0.015652502 0.10298453 -0.14586583
-0.041724965 -0.09220767 -0.09576473 0.1246438 0.038166508 -0.04347752 -0.09533176 -0.006456322
0.068078816 0.00063566864 -0.0020978174 0.100985415 -0.005920896 -0.042990014 0.10913029 0.09621453
-0.022300296 -0.07857141 -0.030334055 -0.12332757 -0.04024724 -0.09579236 0.084711276 -0.009635441
-0.01933999 -0.047712028 0.31630152 0.3969453 0.3201664 0.42882147 0.036826238 0.37170398
0.42231193 -0.08258341 0.08891852 0.29070404 0.03861146 0.0051937248 0.24805969 0.43163487
-0.010183737 0.057430893 -0.06850306 0.07033667 0.25033554 0.39468682 0.4242748 0.38778824
0.41573173 0.24796279 0.035804868 -0.10448527 0.436007 0.06101489 -0.07488073 -0.079033434
0.07319678 0.309382 0.35923052 0.066344485 0.3038666 0.3889062 0.3167517 0.44360423
-0.06959561 0.30485487 0.3448226 -0.038953677 -0.023548007 -0.050075702 0.30342677 0.41273752
0.012561691 -0.013542756 0.099634245 0.2449019 0.3174213 0.021966174 -0.087472275 0.23781839
-0.011524447 0.35493413 -0.08657867 0.24228528 0.24499795 0.40125126 -0.09708115 0.42731327
-0.032135174 -0.11100286 -0.034820244 -0.0121065825 -0.007150471 -0.059288695 -0.12280889 0.02456516
-0.014824972 -0.053400487 -0.09429364 0.071988806 -0.037314862 0.09059477 0.10103071 0.089595616
-0.059639826 -0.051523 -0.07579954 0.08515701 0.034014225 -0.11421767 0.09318937 -0.07374534
-0.11373505 -0.0068429112 0.108766034 -0.04924564 -0.09883547 0.08537279 0.09948936 -0.038990527
-0.03314498 0.028007254 -0.114314005 0.008616731 -0.08402872 -0.020634025 -0.025440857 -0.124290675
0.09380221 0.04943362 -0.06424628 -0.08486599 -0.059050024 0.08115941 -0.01152353 -0.11744183
0.002125278 -0.049614176 0.088381305 0.11267556 0.112112656 -0.030118093 -0.041441932 -0.033226088
0.11317946 0.05035846 0.009897828 -0.06064941 -0.062392592 0.054920495 -0.07670356 0.08916499

hidden.2.0.bias f4 [64]
00000000: 800d f0bd 9cb7 713d 628b 1c3c 227b 96bd
00000010: 473f c9bd 6651 f93c fdca a03d aa9d 163e
00000020: 796f 4d3d 17a8 9abd 7d14 6c3c 4531 963d
00000030: c019 5ebb 87c6 0d3d 6ed0 61bd 396a 08bd
00000040: c697 343d 40f7 4abb b89b 843c ef93 583c
00000050: e917 fbbc 1462 0fbd 216b 323d 36a9 d8bb
00000060: ce3c 113e c5be db3d 5807 37bd ef22 ba3d
00000070: 5725 653d a063 e6bc f852 f5bd f3f3 713d
00000080: 42cc c7bd d407 b9bd c1d7 7a3d bbf8 a43d
00000090: 2397 313d 00f7 1fbd 63b9 d13d 8922 093d
000000a0: 248e 98bd b0fa 2fbd 7ac1 8bbd f9f5 ec3c
000000b0: 4738 203e 366d bfbd 7a6f 8ebd ba7e 093e
000000c0: 8762 b73d fb2c 1f3d a42f afbd 50df b5bc
000000d0: c923 c33c 50c1 31bd 87f6 5cbc 0850 83bc
000000e0: e43d db3d deda 033e b247 53bb ed02 e73d
000000f0: 3da4 b83d 7895 8dbc 889f 68bd 5208 a03d
-0.11721325 0.059012994 0.009554716 -0.073477045 -0.09826522 0.030434322 0.07851217 0.14708582
0.050155137 -0.07551592 0.014409182 0.07333616 -0.003388986 0.03461316 -0.055130415 -0.033304427
0.044090055 -0.0030970126 0.016187534 0.013218864 -0.03065105 -0.035005644 0.043559197 -0.0066119684
0.14183351 0.10729746 -0.044684738 0.09088694 0.055943813 -0.028123677 -0.11978716 0.05907054
-0.09755756 -0.09034696 0.061240915 0.08055254 0.043357026 -0.039053917 0.10240438 0.0334802
-0.07448986 -0.042963684 -0.06824012 0.028925883 0.15646468 -0.09347002 -0.06954856 0.13427249
0.089543395 0.038861256 -0.085540086 -0.02220121 0.023820775 -0.043397248 -0.013486511 -0.016029373
0.10705164 0.1287646 -0.0032238779 0.11279855 0.09015701 -0.017283186 -0.056792766 0.07814087

output.weight f4 [1, 64]
00000000: c2af f73d 101a f5bc 3bf4 b83e a82e ffbd
00000010: c1fd cd3e 233b 38bd 1f41 d23e 7363 af3e
00000020: 2747 05bd 9ba3 f1bc ea98 dc3e a490 1ebd
00000030: d6e3 c03d 1ef1 55bd c13a c33e 1c4c 96bd
00000040: 23c7 dbbc e419 f53d 2743 52bd b4f2 b23e
00000050: f424 9d3a 4cb9 dfbd eb31 62bd 3ac9 d5bd
00000060: d0ea bc3e ba83 de3e 3a09 a1bd 6ff0 ea3e
00000070: d413 c8bd 1866 ce3d 5a16 d23d ff6c d5bc
00000080: 80c5 f23d 4da7 a3bc f211 c73e 123a 39bd
00000090: 820a e63e 86ba bd3d 730d be3e f0a3 d43e
000000a0: fdd2 b03b 94b6 363d c41e 5a3d 81ea be3e
000000b0: ade8 d13e 10af bc3e 3e32 b33e 376c c63e
000000c0: 2020 10bc 2d98 bb3e 87ad 5ebd 0082 663c
000000d0: 0601 ee3e 8d82 65bd 7405 d3bd ee79 f83d
000000e0: a996 a63e 599d b73e f913 0ebc b772 cd3e
000000f0: 3efa b03e 340d 31bd a6cc a93d 56c2 de3e
0.1209407 -0.029919654 0.36123833 -0.12460071 0.4023266 -0.044978272 0.41065308 0.3425556
-0.03253856 -0.029496958 0.43085414 -0.03871216 0.09418456 -0.0522319 0.38130763 -0.073387355
-0.026828354 0.11967829 -0.051333573 0.34950793 0.0011989162 -0.109240144 -0.055223387 -0.104387715
0.36897898 0.43459874 -0.07863088 0.4588656 -0.09769407 0.100780666 0.102581695 -0.02605295
0.118540764 -0.019977236 0.3888088 -0.045221396 0.44929892 0.09264092 0.37119636 0.41531324
0.0053962455 0.044607714 0.053251997 0.37288287 0.4099783 0.36852312 0.3499927 0.38754436
-0.008796722 0.36639538 -0.054364707 0.01406908 0.46485156 -0.056032706 -0.103037745 0.12132631
0.3253682 0.35862234 -0.008671754 0.40126583 0.3456592 -0.043225482 0.08290987 0.43507642

exp_avg f4 [64, 6]
00000000: 6da8 af48 c39e 4348 1b96 4447 0e16 8a48
00000010: 2ba1 ce48 3527 7e49 f61a 6848 b4f8 d347
00000020: c8f5 0047 4463 2e48 ef55 8c48 f88f 2b49
00000030: 4311 1149 e703 5c48 7ab5 8347 b716 db48
00000040: cd41 3049 4469 d149 cae5 d748 b422 1948
00000050: 6ba5 1e47 67bd a248 37cb 0249 a32d 9549
00000060: e589 4447 d4e2 b446 6f9b f145 c0c0 1247
00000070: 428d 6b47 0ac4 1148 a35f 2a48 718c 9c47
00000080: 9aa9 b046 631a fa47 89e4 4e48 9ce0 f648
00000090: 57c2 a148 a110 18c7 59f8 0fc7 ace4 8648
000000a0: 7393 b448 7326 1e49 8f62 8748 e7bf c947
000000b0: dc39 0147 47cf 4d48 1da6 a548 4170 4949
000000c0: b015 2148 be34 9347 6783 b546 26d5 f147
000000d0: 2f8e 4248 159b ef48 cb3e 6f47 769e db46
000000e0: 1cad 0e46 fdf6 3247 78c9 8f47 7e9f 3148
000000f0: 146d ba48 4b16 1348 891e 1747 9e0c 8648
00000100: d81f e248 11ed 7c49 6791 b448 100d 1348
00000110: e530 2847 f97d 9648 60ec cc48 7de8 8b49
00000120: 0000 0000 0000 0000 0000 0000 0000 0000
00000130: 0000 0000 0000 0000 d566 c248 b689 2448
00000140: dc4d 1747 ff94 9948 2232 da48 1608 8a49
00000150: 0000 0000 0000 0000 0000 0000 0000 0000
00000160: 0000 0000 0000 0000 eb0e a048 d9c0 0548
00000170: a0d9 0b47 8251 6e48 b1ee c048 edb2 6249
00000180: 2603 d548 7a22 ea47 6659 7a46 942c 8f48
00000190: 14d8 ea48 80be 8149 4011 33c8 bc66 c1c8
000001a0: f1c5 90c8 202b e847 1c26 f447 f348 3fc9
000001b0: 8c69 7748 cab1 cd47 ce4f 0447 2a3b 2e48
000001c0: 9130 8848 b5d0 2849 0000 0000 0000 0000
000001d0: 0000 0000 0000 0000 0000 0000 0000 0000
000001e0: 09d5 3b48 6148 9547 faa7 ca46 4eaa 0948
000001f0: 7667 6348 055b 0649 86df 3448 9597 af47
00000200: 896a e446 c971 0b48 2354 5a48 4160 0649
00000210: f308 8448 99f7 e447 2483 0547 891e 3d48
00000220: 2d53 9a48 d766 4049 3ff7 0a49 f5ca 7048
00000230: 1aac 9d47 e12d d148 78ca 2849 5374 cc49
00000240: 05e2 2e48 f1ed 9147 5ef1 efc5 0dc8 0148
00000250: ce48 4f48 3acc da48 b6bb 03c8 5b38 ccc7
00000260: e0f4 8646 cdb1 8747 7793 98c8 4ce9 ea47
00000270: 7e09 c747 144e 3647 dbf4 6646 ef31 9547
00000280: 93d6 ef47 1fea 9348 0534 bd48 87f2 3848
00000290: 20bf c646 dc7e 9b48 41d8 db48 f517 8949
000002a0: 339e 6348 24da cf47 34d8 fd46 b201 2b48
000002b0: 2d9c 8948 635b 2949 bbfc 8448 87c8 f247
000002c0: 55e4 1347 d8ce 4748 f5cc a048 89e3 4549
000002d0: d04b 8a47 1fe2 d546 1b0a f445 8cd9 6a47
000002e0: 4c88 b947 80e1 6448 bef3 1549 6199 adc7
000002f0: 0925 08c8 f3a2 e048 87e9 2d49 283f 7849
00000300: 5532 2d48 62c4 9d47 ca84 c346 05fb 0148
00000310: c11d 5148 91b8 0049 ce50 6548 2862 7c47
00000320: 0e36 3046 392e 2e48 6803 8d48 4836 1349
00000330: 6253 aa48 0fbb 1c48 62d6 fb46 c5cc 7a48
00000340: abba cf48 caa1 6e49 f904 b748 1bae 0a48
00000350: e9f9 2847 2bf4 8148 8043 dd48 2f86 8049
00000360: 9946 1b49 d91c 8148 d94f 6947 d190 0049
00000370: 3724 2e49 f4f6 c549 5ac9 d847 b270 4647
00000380: 55f1 7846 fd8b a247 b2b3 0248 e322 a148
00000390: ea31 eb48 90e7 29c7 5840 bfc7 0e5b a548
000003a0: eeab 1649 91c3 6549 c7ff 0149 8598 4248
000003b0: 2a87 5747 5972 d348 e548 1849 347b b049
000003c0: 9ab7 2a47 e512 9d46 c10f d245 e6b9 fe46
000003d0: e477 4c47 5e1c fd47 0021 7648 8ee2 e247
000003e0: ac2a 9e46 c7f9 3a48 974f 9648 90dd 3849
000003f0: 6149 7448 fc04 df47 2de0 0747 6f81 3748
359747.4 200315.05 50326.105 282800.44 423177.34 1.0410113e+06 237675.84 108529.41
33013.78 178573.06 287407.47 702719.5 594196.2 225295.61 67434.95 448693.72
721948.8 1.7154965e+06 442158.3 156810.81 40613.418 333291.22 535731.44 1.2220684e+06
50313.895 23153.414 7731.429 37568.75 60301.258 149264.16 174462.55 80152.88
22612.8 128052.77 211858.14 505604.88 331282.72 -38928.63 -36856.348 276261.38
369819.6 647783.2 277268.47 103295.805 33081.86 210749.11 339248.9 825092.06
164950.75 75369.484 23233.701 123818.3 199224.73 490712.66 61246.793 28111.23
9131.277 45814.99 73618.94 181885.97 381800.62 150617.17 38686.535 274532.94
463102.75 1.03598506e+06 369803.22 150580.25 43056.895 308207.78 419683.0 1.1461276e+06
0.0 0.0 0.0 0.0 0.0 0.0 398134.66 168486.84
38733.86 314535.97 446865.06 1.1307548e+06 0.0 0.0 0.0 0.0
0.0 0.0 327799.34 136963.39 35801.625 244038.03 395125.53 928558.8
436249.2 119876.95 16022.35 293220.62 480960.62 1.062864e+06 -183365.0 -396085.88
-296495.53 118870.25 125004.22 -783503.2 253350.19 105315.58 33871.805 178412.66
278916.53 691467.3 0.0 0.0 0.0 0.0 0.0 0.0
192340.14 76432.76 25939.988 140969.22 232861.84 550320.3 185214.1 89903.164
29237.268 142791.14 223568.55 550404.06 270407.6 117231.195 34179.14 193658.14
316057.4 788077.44 569203.94 246571.83 80728.2 428399.03 691367.5 1.6748904e+06
179080.08 74715.88 -7678.171 132896.2 212259.22 448097.8 -134894.84 -104560.71
17274.438 69475.6 -312475.72 120274.59 101906.984 46670.08 14781.214 76387.87
122797.15 302928.97 387488.16 189386.11 25439.562 318454.88 450242.03 1.1230706e+06
233080.8 106420.28 32492.102 175110.78 281825.4 693686.2 272357.84 124305.055
37860.332 204603.38 329319.66 810552.56 70807.625 27377.06 7809.263 60121.547
94992.59 234374.0 614203.9 -88882.76 -139412.14 460055.6 712344.44 1.0168185e+06
177353.33 80776.766 25026.395 133100.08 214135.02 527241.06 234819.22 64610.156
11277.514 178360.89 288795.25 602980.5 348827.06 160492.23 32235.191 256819.08
425429.34 977436.6 374823.78 142008.42 43257.91 266145.34 453148.0 1.0528699e+06
636009.56 264422.78 59727.848 526605.06 713283.44 1.6217265e+06 110994.7 50800.695
15932.333 83223.98 133838.78 330007.1 481679.3 -43495.562 -97920.69 338648.44
617150.9 941113.06 532476.44 199266.08 55175.164 433042.78 623758.3 1.4457345e+06
43703.6 20105.447 6721.969 32604.95 52343.89 129592.734 252036.0 116165.11
20245.336 191463.11 307836.72 757209.0 250149.52 114185.97 34784.176 187909.73

exp_avg_sq f4 [64, 6]
00000000: 3ad8 3e53 cefe 3453 b74e a752 e4b3 a952
00000010: 1cab a653 1c9d ef54 37e2 bf52 caa2 ca52
00000020: 9577 2c52 7320 3252 d02b 3953 e88c 7354
00000030: 1340 ff53 490c e653 d0ef 5053 9c86 7753
00000040: e55c 5754 bc27 9355 fccd 8b53 7910 8653
00000050: 0306 e252 410b 0c53 4a3c 0154 dd06 1655
00000060: 38dd 3051 c4b4 6251 f27c c650 a0de 7b50
00000070: 85a1 0452 853d ee52 447a 6252 1fba 7752
00000080: f469 ce51 7dee cb51 1643 ec52 d9c2 0e54
00000090: 16a4 bc52 0d21 8c52 aa48 1752 0686 3f52
000000a0: dd10 6a53 95e8 7d54 31c5 f752 adcf fb52
000000b0: 3b1b 5a52 9992 6b52 a10e 6053 7c5d 9a54
000000c0: 7d01 5552 3128 6a52 6a56 c851 b85a bd51
000000d0: 3707 e252 b862 0854 a6a7 8851 ea6d aa51
000000e0: 3c40 1451 9c90 cc50 d300 3e52 2b87 3553
000000f0: 1c41 6153 d7a6 5853 8a17 b652 8d35 d352
00000100: b944 c853 cc22 0455 4836 2353 5a8c 2653
00000110: bd31 8852 a05e 9352 b68c 9053 e751 bc54
00000120: 0000 0000 0000 0000 0000 0000 0000 0000
00000130: 0000 0000 0000 0000 d529 4553 f1cb 4953
00000140: 57f4 9b52 fba1 b252 d5a2 b053 93a3 e054
00000150: 0000 0000 0000 0000 0000 0000 0000 0000
00000160: 0000 0000 0000 0000 6ab9 1953 04ac 1953
00000170: e3b8 8052 a9be 9452 346b 8b53 0019 b254
00000180: 4cd2 6b53 0399 6e53 4079 c552 c392 dd52
00000190: ab58 d753 2cf0 0655 6866 6153 03e6 d653
000001a0: abb1 1c53 5aa6 c752 a791 3e53 9611 1355
000001b0: 85d2 a752 e4ea aa52 8470 0d52 ce2b 1752
000001c0: eb26 1a53 09ac 5054 0000 0000 0000 0000
000001d0: 0000 0000 0000 0000 0000 0000 0000 0000
000001e0: 0495 5752 ce0a 6752 4310 bb51 9273 c751
000001f0: 6ff1 dc52 2507 fb53 5b4c 8252 b865 8d52
00000200: 8cee f051 11be ee51 3dda fd52 106e 2454
00000210: 2ee8 c352 106c cd52 7a71 2552 ed09 3952
00000220: b46b 3c53 7211 6254 4a95 df53 b178 c253
00000230: 119e 3453 0afa 5953 e024 3954 4a9f 7e55
00000240: 7f1b 8a52 3fe7 aa52 a8d8 0152 b275 0052
00000250: 772b 2253 0fa7 1c54 6463 f751 d09e 5852
00000260: de58 8951 0a7a 8c51 a282 6c52 8532 f551
00000270: 46a4 b451 1475 d151 b19c 3551 7586 1451
00000280: a5d7 5c52 7d06 6b53 41f9 3553 2f4c 3453
00000290: 8dd1 8f52 2210 a252 6651 a053 623f d054
000002a0: c406 b252 7d85 ba52 cf49 1f52 1e30 2552
000002b0: 1b02 2b53 c293 6054 2a49 ec52 e424 f552
000002c0: 1185 5052 1fa2 5e52 b4ea 5b53 59c3 9454
000002d0: f987 a851 6c2d c551 8949 3251 f4fd 0451
000002e0: 9664 5b52 433f 5e53 91bc ad53 5bc2 a653
000002f0: 6d2d 0d53 cd58 4753 6879 4d54 0a99 4655
00000300: e597 4b52 85fc 5952 5a90 ba51 9083 b951
00000310: 816d ce52 a289 0154 ab15 ca52 ff77 bb52
00000320: 279a 2952 da6e 3c52 81d8 4153 f17c 6d54
00000330: 065b 3f53 ddab 4653 5062 9f52 e981 b852
00000340: 439c af53 b983 d954 9128 4853 625e 4453
00000350: 6f01 a152 86d5 bf52 5e12 b253 b7a1 de54
00000360: 02b7 d653 e3b1 a453 5f5c 0d53 d27e 3453
00000370: 3193 3754 e2cc 5255 3644 ed51 00e8 0952
00000380: 5c41 6d51 08fe 4551 0525 8e52 e2ab 9a53
00000390: 207b 9f53 857c 9153 2472 f252 b708 2453
000003a0: 0907 2254 22a6 2955 ee3e a753 16f3 9153
000003b0: c1fe ea52 9040 1653 0b24 1154 c447 2a55
000003c0: 14f3 3851 bfab 6c51 50f8 d050 690c 8050
000003d0: f006 0c52 f42a f752 8f49 d452 9585 d752
000003e0: 1582 4252 5b16 4752 fbbd 4053 46c8 8354
000003f0: 3e89 c952 4dd2 d052 7ea7 3152 a60d 3e52
8.1967147e+11 7.77369e+11 3.5929008e+11 3.6443377e+11 1.4316706e+12 8.2330643e+12 4.12067e+11 4.3515727e+11
1.8518516e+11 1.9126215e+11 7.95304e+11 4.1841643e+12 2.1925833e+12 1.9760972e+12 8.973766e+11 1.0631153e+12
3.699906e+12 2.0224858e+13 1.2009126e+12 1.151604e+12 4.8538173e+11 6.014842e+11 2.220249e+12 1.0309764e+13
4.7476605e+10 6.085596e+10 2.6640617e+10 1.6902685e+10 1.4241138e+11 5.1161717e+11 2.4317847e+11 2.6599488e+11
1.1081761e+11 1.0948494e+11 5.073689e+11 2.4526174e+12 4.0510338e+11 3.0092496e+11 1.6243979e+11 2.0564682e+11
1.00530527e+12 4.3621152e+12 5.3208262e+11 5.407605e+11 2.3418993e+11 2.529442e+11 9.623181e+11 5.303947e+12
2.2871325e+11 2.5142416e+11 1.07555406e+11 1.0165885e+11 4.8539183e+11 2.343087e+12 7.336603e+10 9.149856e+10
3.9795802e+10 2.7456233e+10 2.040144e+11 7.796568e+11 9.6746e+11 9.3051204e+11 3.910395e+11 4.5356827e+11
1.7202929e+12 9.080312e+12 7.0099036e+11 7.153193e+11 2.92475e+11 3.1647387e+11 1.241672e+12 6.4706236e+12
0.0 0.0 0.0 0.0 0.0 0.0 8.468104e+11 8.6671e+11
3.3490964e+11 3.8361088e+11 1.5172922e+12 7.718536e+12 0.0 0.0 0.0 0.0
0.0 0.0 6.602407e+11 6.6001594e+11 2.7642885e+11 3.1942695e+11 1.197598e+12 6.119389e+12
1.0128455e+12 1.0247693e+12 4.240714e+11 4.75825e+11 1.8498111e+12 9.272881e+12 9.6808573e+11 1.8459639e+12
6.729957e+11 4.287447e+11 8.184874e+11 1.0106484e+13 3.6039574e+11 3.6704263e+11 1.5186952e+11 1.6231875e+11
6.620779e+11 3.584958e+12 0.0 0.0 0.0 0.0 0.0 0.0
2.3147951e+11 2.4807968e+11 1.0042896e+11 1.0707968e+11 4.744717e+11 2.1563133e+12 2.798134e+11 3.0364847e+11
1.2934929e+11 1.28173875e+11 5.4514408e+11 2.8248847e+12 4.2070698e+11 4.4114064e+11 1.7764336e+11 1.9868387e+11
8.092608e+11 3.8838212e+12 1.9205647e+12 1.670497e+12 7.75746e+11 9.3620286e+11 3.1807504e+12 1.7497506e+13
2.965834e+11 3.6701205e+11 1.3942142e+11 1.379326e+11 6.965139e+11 2.6912707e+12 1.3281555e+11 2.3259434e+11
7.373768e+10 7.541786e+10 2.5395098e+11 1.3163932e+11 9.698127e+10 1.1245155e+11 4.875112e+10 3.9869436e+10
2.3712768e+11 1.0094262e+12 7.8157087e+11 7.7437226e+11 3.08848e+11 3.4802768e+11 1.3771208e+12 7.1553327e+12
3.8230884e+11 4.0055174e+11 1.7103453e+11 1.7736922e+11 7.344747e+11 3.8582066e+12 5.074199e+11 5.2644295e+11
2.2389642e+11 2.3905067e+11 9.445355e+11 5.1114604e+12 9.047947e+10 1.0585883e+11 4.785862e+10 3.569977e+10
2.3557135e+11 9.545441e+11 1.4923859e+12 1.4324506e+12 6.063525e+11 8.561883e+11 3.5300206e+12 1.3647538e+13
2.1860668e+11 2.3406112e+11 1.0016072e+11 9.9597025e+10 4.4330022e+11 2.2254395e+12 4.3397346e+11 4.0258604e+11
1.8210893e+11 2.023284e+11 8.32561e+11 4.0800137e+12 8.218659e+11 8.532869e+11 3.422746e+11 3.9622676e+11
1.5084818e+12 7.473743e+12 8.5967405e+11 8.433971e+11 3.457569e+11 4.1196054e+11 1.5296247e+12 7.649567e+12
1.8443867e+12 1.4147182e+12 6.071401e+11 7.752218e+11 3.153794e+12 1.4486088e+13 1.27381455e+11 1.4807571e+11
6.3687737e+10 5.3148156e+10 3.0525322e+11 1.3286174e+12 1.369931e+12 1.2497187e+12 5.2064852e+11 7.0452085e+11
2.783611e+12 1.1658188e+13 1.4366306e+12 1.2536971e+12 5.046482e+11 6.453283e+11 2.4934998e+12 1.1701575e+13
4.964701e+10 6.3530856e+10 2.8047475e+10 1.7186376e+10 1.5035295e+11 5.3078878e+11 4.558836e+11 4.6282955e+11
2.0885152e+11 2.1376839e+11 8.2782106e+11 4.528006e+12 4.327955e+11 4.4844073e+11 1.9075482e+11 2.040682e+11

exp_avg f4 [64]
00000000: 7b7a 2749 149c de48 bcd2 8549 9752 4949
00000010: 172d bc47 261c a248 5b05 0749 8f91 fb48
00000020: adea 9a48 207b e547 5a70 2b49 3a65 3149
00000030: 0000 0000 7e4e 3d49 0000 0000 45e1 1449
00000040: 69e5 3749 9bb6 e6c8 34ba e648 0000 0000
00000050: ce76 b448 d372 b048 48d5 fc48 aad4 8249
00000060: 2995 9848 9ab4 80c8 4421 3f48 7d8e 3949
00000070: ac04 db48 3af2 ff48 305a 0b48 66d4 6549
00000080: ed67 a648 ddc8 ca48 8061 1f49 b70d 2c49
00000090: 1674 9749 b74c 5048 017e 3949 9bad 7f49
000000a0: 016e a347 2b22 e148 6314 eb48 ca0c 9748
000000b0: adcc 6749 9e43 7248 a4c4 3249 019e d448
000000c0: f7a1 6e49 02e0 9248 3087 1849 cd7a d4c8
000000d0: 74f2 a348 fd7c a249 0000 0000 2d86 8a48
000000e0: 519b bd48 963f f048 a4ff 5249 e57f 9048
000000f0: 2694 7648 3007 1149 350b a048 ea22 6849
685991.7 455904.62 1.0962795e+06 824617.44 96346.18 332001.2 553045.7 515212.47
317269.4 117494.25 702213.6 726611.6 0.0 775399.9 0.0 609812.3
753238.56 -472500.84 472529.62 0.0 369590.44 361366.6 517802.25 1.0717652e+06
312489.28 -263588.8 195717.06 760039.8 448549.38 524177.8 142696.75 941382.4
340799.4 415302.9 652824.0 704731.44 1.2407068e+06 213298.86 759776.06 1.0472577e+06
83676.01 461073.34 481443.1 309350.3 949450.8 248078.47 732234.25 435440.03
977439.44 300800.06 624755.0 -435158.4 335763.62 1.3311036e+06 0.0 283697.4
388314.53 492028.7 864250.25 295935.16 252496.6 594035.0 327769.66 950830.6

exp_avg_sq f4 [64]
00000000: 370e 0b54 8e18 8f53 eb1e ac54 e236 3854
00000010: 9fd8 0b52 0883 2753 3bd2 7e53 9e87 b653
00000020: 38b3 2053 6129 5752 8e2d 1a54 181d de53
00000030: 0000 0000 638e 0054 0000 0000 990e d153
00000040: 3128 2654 9e5c 5254 01da 6f53 0000 0000
00000050: 7040 1453 7f2c 4653 26f4 8553 3aba 9454
00000060: 9146 4153 fe98 c852 6632 8a52 8e31 ee53
00000070: a406 8453 efd9 ae53 6ff9 8252 5c76 5b54
00000080: 6e01 1853 c554 8953 cc61 0154 502d 0554
00000090: aec9 7354 e358 b652 b7a1 4c54 349a 4454
000000a0: 95e3 1152 9874 9d53 010b 9553 b212 b052
000000b0: 59f7 8254 1545 bd52 d667 2054 6e71 8553
000000c0: cfee 3a54 ea8f 0c53 15a4 a553 a3b1 3054
000000d0: af80 3b53 63bb 9654 0000 0000 59b4 e752
000000e0: 34f7 6153 cf94 a053 a350 3f54 a37b ef52
000000f0: 3c53 ca52 a1b7 de53 14da f852 8ed4 4554
2.3889558e+12 1.2291846e+12 5.914025e+12 3.164779e+12 1.5015869e+11 7.194579e+11 1.0944488e+12 1.5679187e+12
6.9020156e+11 2.3102805e+11 2.648757e+12 1.9079417e+12 0.0 2.2085787e+12 0.0 1.7957861e+12
2.8545555e+12 3.613988e+12 1.0301547e+12 0.0 6.3673624e+11 8.5115005e+11 1.1506536e+12 5.110236e+12
8.301126e+11 4.3078012e+11 2.967755e+11 2.0460672e+12 1.1340942e+12 1.5019613e+12 2.8126527e+11 3.7703343e+12
6.52859e+11 1.1796654e+12 2.2227662e+12 2.2879635e+12 4.1882427e+12 3.9158766e+11 3.5155458e+12 3.3776028e+12
1.5664711e+11 1.352532e+12 1.2802695e+12 3.7811395e+11 4.4999644e+12 4.064539e+11 2.7557474e+12 1.1462674e+12
3.2114818e+12 6.037099e+11 1.4228449e+12 3.035578e+12 8.0531784e+11 5.1791114e+12 0.0 4.975816e+11
9.70515e+11 1.3793827e+12 3.2867665e+12 5.1428573e+11 4.3448992e+11 1.913127e+12 5.3440532e+11 3.3986985e+12
