nn_model/lightning_logs/insurance/version_0/checkpoints/epoch=49-step=1300.ckpt (torch, 170090 bytes, 27 tensors)

input.weight f4 [64, 6]
0.44978505 0.0818559 0.5097709 -0.15418887 0.8300429 0.06447844 -0.02362381 -0.15549566
0.37550285 0.40013373 0.8775194 0.087548755 0.03084735 -0.21707451 -0.11904408 0.33739308
0.6209183 0.3826329 0.09690148 0.037124783 -0.2288978 -0.1494497 -0.19717796 -0.08473274
0.15891948 0.28678432 0.2910609 0.3467526 0.41758093 -0.13010013 0.33387375 0.29890054
-0.099492535 0.077805296 0.4803688 0.27998784 0.5096574 -0.13174342 -0.09627524 0.03327525
0.95656806 0.2629553 0.48300433 -0.090834096 0.6830033 0.07172471 1.1568844 -0.04304392
0.10907677 0.11918756 0.26253638 -0.3159704 1.1329277 -0.12012687 -0.08855814 -0.022029448
0.5610312 -0.06975703 0.44387335 0.37228152 0.46196502 0.44245347 0.24361475 0.39038014
0.40750068 0.19939166 -0.11457637 0.25639093 0.18513823 0.01192975 -0.22300749 -0.18892774
0.5856403 0.3560801 0.20662376 0.11440267 0.8962917 -0.1819043 0.27297232 -0.28626844
-0.008899423 -0.008410882 0.46007392 0.38087195 -0.25887507 -0.2631125 0.010943562 -0.13124636
0.109084725 -0.28448382 0.6692871 -0.08721954 0.25759184 -0.11675406 0.001596421 -0.087612644
-0.11377524 0.0426311 0.111708924 -0.35422826 1.1233214 -0.008043587 0.38123208 -0.021783689
0.03508789 0.2309811 0.8085191 -0.046112932 0.6635005 0.24483892 0.33617276 -0.27077553
1.0857682 0.09058856 0.32948908 -0.20014116 0.41062635 0.16795708 0.42185125 -0.13849577
0.31616044 0.19521384 0.53799444 -0.21195388 0.944943 -0.09258337 -0.24796742 -0.22405227
-0.34967917 0.06279993 0.14387494 -0.3069772 0.46691012 -0.19472916 0.27100247 -0.00091350515
0.8997049 -0.08650661 0.58803946 0.060095657 0.4779228 -0.34073332 0.7061302 -0.10255426
0.10754349 0.31317914 -0.19468607 0.4098667 0.3678294 0.15822843 0.40178615 0.32139263
0.8642918 0.04756087 0.40466434 -0.10773716 0.5568366 0.086284034 0.11471287 -0.029069055
0.8903466 -0.069147505 -0.075361595 -0.14395183 0.28165817 0.32145157 0.36879063 0.1632177
0.502167 -0.17991737 0.4744242 -0.15683793 0.21965045 0.32241994 0.5851194 -0.15521154
0.41273314 -0.3234567 0.6720559 -0.04624847 0.58161366 0.3873737 0.04332327 0.008401802
0.2756939 0.093646646 0.46835235 -0.16353765 0.43923497 0.2163352 0.90868074 -0.110650286
0.43446705 -0.2126755 0.099688105 -0.25883862 0.7615456 0.0144380815 0.36819074 0.23004654
0.00032859278 -0.23227686 0.094394535 0.44473338 0.5607072 0.3932278 -0.001643525 0.44605413
0.041126855 -0.21721932 0.64643264 0.38786873 -0.09366526 -0.13393837 0.38473666 0.3147011
0.31607476 0.1903814 0.41816178 -0.14252652 0.3260316 -0.0016958325 0.15970188 -0.27629694
0.5843977 -0.24690087 0.5565362 -0.19101779 0.23482603 0.3991663 0.12801918 0.4711684
0.12933062 -0.026972052 -0.056280233 0.17501749 0.30727062 0.04710944 0.15206124 0.19050145
-0.042537466 -0.18390271 0.12926929 0.3658672 0.54590994 -0.041215803 0.31943864 0.3367592
0.4956963 -0.20722334 0.1987926 0.13809334 -0.0624079 0.30872247 -0.24655843 0.32237604
00000000: 3a4a e63e 11a4 a73d 5880 023f b0e3 1dbe
00000010: b17d 543f 460d 843d b886 c1bc 413a 1fbe
00000020: e941 c03e 54de cc3e 1da5 603f c34c b33d
00000030: 95b3 fc3c c848 5ebe 62cd f3bd c9be ac3e
00000040: 80f4 1e3f 76e8 c33e 4874 c63d 2810 183d
00000050: 2f64 6abe 5809 19be 05e9 49be 5c88 adbd
00000060: cabb 223e 65d5 923e ef05 953e 8f89 b13e
00000070: 2bcd d53e f838 05be 80f1 aa3e 7e09 993e
00000080: bec2 cbbd 6258 9f3d e6f2 f53e 915a 8f3e
00000090: e878 023f bfe7 06be f42b c5bd a14b 083d
000000a0: a5e1 743f 14a2 863e 584c f73e 3a07 babd
000000b0: 4ed9 2e3f 68e4 923d ca14 943f d24e 30bd
000000c0: a463 df3d 9c18 f43d 2b6b 863e dfc6 a1be
000000d0: c603 913f 1405 f6bd f85d b5bd 1a77 b4bc
000000e0: be9f 0f3f c6dc 8ebd 5e43 e33e af9b be3e
000000f0: ae86 ec3e 4389 e23e 2576 793e e8df c73e
00000100: eea3 d03e 542d 4c3e 04a7 eabd ac45 833e
00000110: e094 3d3e 0075 433c 135c 64be 4676 41be
00000120: 86ec 153f 2250 b63e 2e95 533e f24b ea3d
00000130: 5f73 653f 1f45 3abe 07c3 8b3e c791 92be
00000140: e3ce 11bc cccd 09bc cf8e eb3e a601 c33e
00000150: 468b 84be aeb6 86be a04c 333c 7265 06be
00000160: d067 df3d dda7 91be 6656 2b3f 28a0 b2bd
00000170: 14e3 833e c11c efbd 003f d13a 426e b3bd
00000180: fe02 e9bd f39d 2e3d a6c7 e43d 685d b5be
00000190: ffc8 8f3f 40c9 03bc da30 c33e b573 b2bc
000001a0: 52b8 0f3d 4f86 6c3e 1cfb 4e3f eae0 3cbd
000001b0: 2bdb 293f 0eb7 7a3e d61e ac3e 17a3 8abe
000001c0: 74fa 8a3f 7f86 b93d cbb2 a83e cef1 4cbe
000001d0: 9e3d d23e f1fc 2b3e e3fc d73e d6d1 0dbe
000001e0: c8df a13e 23e6 473e 01ba 093f 700a 59be
000001f0: c9e7 713f 5a9c bdbd 2ceb 7dbe f56d 65be
00000200: 2609 b3be 409d 803d f453 133e 1e2c 9dbe
00000210: d80e ef3e 1567 47be d6c0 8a3e 4b78 6fba
00000220: 0f53 663f 612a b1bd c189 163f dd26 763d
00000230: 4cb2 f43e 9974 aebe f3c4 343f f807 d2bd
00000240: c33f dc3d 0459 a03e c95b 47be 0cda d13e
00000250: 2354 bc3e a206 223e eab6 cd3e 938d a43e
00000260: 3a42 5d3f 30cf 423d 2a30 cf3e 4da5 dcbd
00000270: d88c 0e3f afb5 b03d 95ee ea3d 3a22 eebc
00000280: c1ed 633f 359d 8dbd 2e57 9abd 1c68 13be
00000290: 8035 903e 4d95 a43e 20d2 bc3e 8a22 273e
000002a0: 048e 003f 423c 38be bbe7 f23e 1f9a 20be
000002b0: 0cec 603e 3a14 a53e 63ca 153f c6ef 1ebe
000002c0: c251 d33e 1e9c a5be db0b 2c3f 096f 3dbd
000002d0: a2e4 143f d855 c63e be73 313d b6a7 093c
000002e0: c027 8d3e d0c9 bf3d e1cb ef3e 6a76 27be
000002f0: 68e3 e03e fa86 5d3e 4d9f 683f 9e9c e2bd
00000300: 7772 de3e 9bc7 59be 4729 cc3d 7f86 84be
00000310: a7f4 423f b48d 6c3c 7f83 bc3e 5291 6b3e
00000320: fa46 ac39 fcd9 6dbe ec51 c13d 18b4 e33e
00000330: 828a 0f3f 2755 c93e 8c6b d7ba 3561 e43e
00000340: a274 283d be6e 5ebe 9c7c 253f bb96 c63e
00000350: 92d3 bfbd 2427 09be 34fc c43e 8120 a13e
00000360: 8dd4 a13e 57f3 423e 4d19 d63e 79f2 11be
00000370: 9ded a63e b246 deba e488 233e cb76 8dbe
00000380: 169b 153f 95d3 7cbe 2879 0e3f 2b9a 43be
00000390: 3c76 703e 865f cc3e 7617 033e fc3c f13e
000003a0: 3f6f 043e 7ef4 dcbc 1a86 66bd c937 333e
000003b0: 9352 9d3e d4f5 403d f1b5 1b3e d012 433e
000003c0: c43b 2ebd fe50 3cbe 2b5f 043e f252 bb3e
000003d0: c1c0 0b3f e7d1 28bd 768d a33e b46b ac3e
000003e0: e8cb fd3e 5b32 54be 4a90 4b3e 5768 0d3e
000003f0: 6d9f 7fbd df10 9e3e d079 7cbe 790e a53e

input.bias f4 [64]
-0.14496928 0.010696319 0.24822626 -0.27721146 -0.013298673 -0.020280967 0.20882124 -0.16909198
0.061911598 -0.076734364 0.026442982 -0.3780063 0.1551272 0.27550665 -0.21989562 -0.11567117
-0.044051692 0.098603055 -0.10464471 0.20584175 -0.18968481 -0.25851828 0.19028467 -0.026853092
0.0987047 -0.43236735 0.023550043 0.054729752 -0.2535135 0.14425793 0.14701013 0.10637555
0.12919882 -0.036046818 -0.2331119 0.36876187 0.22522911 0.32926428 -0.011157508 0.20411888
0.20293657 0.38640863 0.27319577 -0.31781533 -0.3453934 -0.3179726 0.27919874 0.4370589
-0.1227682 -0.05394778 -0.16263603 0.07057671 0.16781397 -0.14052032 -0.14637911 0.40994483
0.13212603 0.0046907812 0.22024417 -0.3600786 -0.06553011 0.04081564 0.14415604 -0.19123948
00000000: d472 14be 9d3f 2f3c 062f 7e3e a9ee 8dbe
00000010: ade2 59bc 4524 a6bc 3cd5 553e 7326 2dbe
00000020: 0497 7d3d e826 9dbd f49e d83c 0b8a c1be
00000030: aad9 1e3e 350f 8d3e 512c 61be 02e5 ecbd
00000040: 8c6f 34bd 66f0 c93d f74f d6bd 2ec8 523e
00000050: bc3c 42be 825c 84be fcd9 423e 04fb dbbc
00000060: b125 ca3d 415f ddbe 05ec c03c 4e2c 603d
00000070: 85cc 81be 5ab8 133e d389 163e 6ddb d93d
00000080: b24c 043e d4a5 13bd e3b4 6ebe 5bce bc3e
00000090: 76a2 663e 5495 a83e fbcd 36bc 8a04 513e
000000a0: 9bce 4f3e 5ad7 c53e 51e0 8b3e b1b8 a2be
000000b0: 67d7 b0be 4ecd a2be 23f3 8e3e 2fc6 df3e
000000c0: e56d fbbd 59f8 5cbd 0f8a 26be 868a 903d
000000d0: 6dd7 2b3e 8fe4 0fbe 68e4 15be 4ae4 d13e
000000e0: 0c4c 073e 20b5 993b b087 613e 395c b8be
000000f0: a634 86bd 4d2e 273d a49d 133e 48d4 43be

hidden.0.0.weight f4 [64, 64]
0.25196204 0.16407633 0.13252366 0.035463214 0.264573 0.046006754 0.23469804 0.5521357
0.5752767 0.08433598 0.13641095 0.03903532 0.41816556 -0.038470313 0.12361838 0.3537486
0.44669202 0.23407966 0.21062581 0.32251307 0.6649429 0.017480418 0.5071984 0.2125079
0.105497554 0.7057658 0.44432408 0.1444064 0.07108437 0.17748466 -0.0007354814 0.503417
0.38136145 -0.09101153 0.17600131 0.032440793 0.16720386 0.3742902 0.010592153 -0.06873062
0.081685685 0.13381584 0.04165376 0.13392586 0.43141285 0.09665406 0.36593556 -0.07443756
0.3353678 0.4253866 0.085549295 0.56082433 0.022223685 0.1571594 -0.10023703 -0.096447416
0.27488482 0.28125346 0.23309958 0.31571236 0.29026428 0.5089859 0.24585488 0.36883497
0.09807628 0.012844529 -0.10847593 0.0029957294 0.053856894 0.10326561 -0.11598422 0.09347607
-0.06823806 0.050105415 -0.13018171 -0.041630358 -0.08415313 0.100525714 -0.09441179 0.03217854
-0.03253337 0.044141117 -0.030401548 -0.07548392 -0.10864489 0.058748007 -0.08765171 -0.09359381
-0.08962868 0.07845391 -0.07444225 -0.0005866979 -0.09665608 0.04597711 0.012294934 -0.12118427
0.05614329 0.08815404 -0.039161876 -0.098319605 0.032784663 0.052651398 -0.13333784 -0.120950274
-0.022297917 0.06690813 0.05495709 -0.07497668 -0.074330345 -0.110388115 0.07814663 -0.095636785
-0.1017109 0.0661907 -0.10782714 0.03463527 -0.06047843 -0.054798193 -0.096163794 0.07782936
-0.08899707 -0.10713806 -0.08097837 -0.004364565 -0.1334369 0.004545414 0.10797069 0.04465275
0.24808499 0.2239569 0.085680455 0.10579841 0.20887291 -0.034654092 0.2843333 0.71997744
0.5412609 0.15516141 0.008596728 0.082164645 0.33010694 -0.10504863 -0.117514506 0.31599858
0.5383005 0.3758113 0.324745 0.2657201 0.4907808 0.0841112 0.38566303 0.2728444
0.014291864 0.64403045 0.6126859 0.15034488 0.07439538 0.3364381 -0.037070554 0.49327826
0.23572665 -0.07009977 0.09562989 -0.1035342 0.041990846 0.22100073 -0.04434931 -0.021518636
0.06756666 0.0120501565 -0.046838198 0.11767702 0.29833388 -0.004673615 0.25706288 -0.16481934
0.3960075 0.3476785 -0.10205719 0.37725967 0.15742208 0.2281804 -0.09554276 -0.06984898
0.3559843 0.28110042 0.012914776 0.3782379 0.14827429 0.34158483 0.24960797 0.24298073
-0.119267166 0.077074826 -0.0804086 -0.0626346 -0.12332359 -0.00013615191 0.10552585 -0.09358075
0.015139803 0.027711943 -0.0065981 -0.094379485 0.08981019 0.08233866 -0.03184244 -0.045259178
-0.07840507 0.12161979 -0.059113935 0.124380946 -0.09433514 0.025822029 0.017216444 0.008550137
-0.050415084 -0.04925345 -0.08404975 -0.11496046 0.034581617 -0.09348105 -0.07417154 -0.11958811
-0.052644134 -0.034082815 0.053236723 -0.11508033 -0.11420472 0.07920039 0.042183146 -0.115740374
-0.08169182 -0.05610773 0.07172197 -0.010388896 0.022931755 0.037833422 0.054590747 -0.071407095
0.04064566 0.12340568 0.029656246 0.0866635 0.120929524 -0.11676906 0.035404474 -0.032670453
-0.0849839 0.084082186 -0.081034034 0.0579163 0.0322911 -0.057069093 -0.06425199 0.12276189
00000000: 2b01 813e a003 283e 48b4 073e e041 113d
00000010: 1d76 873e 9471 3c3d af54 703e c458 0d3f
00000020: 5545 133f 58b8 ac3d 50af 0b3e 80e3 1f3d
00000030: cc19 d63e 0c93 1dbd a22b fd3d 891e b53e
00000040: d1b4 e43e 94b2 6f3e 4bae 573e 6f20 a53e
00000050: b339 2a3f 1833 8f3c c1d7 013f ac9b 593e
00000060: 1a0f d83d 11ad 343f 727e e33e 45df 133e
00000070: af94 913d 8abe 353e 52cd 40ba f0df 003f
00000080: cf41 c33e 4164 babd b039 343e a3e0 043d
00000090: 7d37 2b3e f7a2 bf3e b68a 2d3c a4c2 8cbd
000000a0: d34a a73d 0507 093e 229d 2a3d dc23 093e
000000b0: 25e2 dc3e 90f2 c53d e85b bb3e b872 98bd
000000c0: 54b5 ab3e 46cc d93e 7834 af3d 2f92 0f3f
000000d0: 720e b63c 65ee 203e 1249 cdbd 3986 c5bd
000000e0: b4bd 8c3e 7400 903e a8b1 6e3e 0da5 a13e
000000f0: 859d 943e e64c 023f 62c1 7b3e f0d7 bc3e
00000100: 37dc c83d dc71 523c a128 debd 0054 443b
00000110: 0c99 5c3d ec7c d33d 2289 edbd 6270 bf3d
00000120: 65c0 8bbd 563b 4d3d 5b4e 05be 9884 2abd
00000130: 7a58 acbd 6de0 cd3d f85a c1bd a5cd 033d
00000140: b641 05bd 51cd 343d ab0c f9bc 5097 9abd
00000150: 3681 debd c0a1 703d bd82 b3bd 1dae bfbd
00000160: 3e8f b7bd 72ac a03d 2e75 98bd a1cc 19ba
00000170: 9ff3 c5bd 7e52 3c3d b170 493c 752f f8bd
00000180: 82f6 653d 1b8a b43d 3468 20bd ca5b c9bd
00000190: 3649 063d fea8 573d b789 08be c7b4 f7bd
000001a0: 1faa b6bc 2107 893d b01a 613d 608d 99bd
000001b0: 823a 98bd 2a13 e2bd 570b a03d 38dd c3bd
000001c0: ce4d d0bd fd8e 873d 7ad4 dcbd b6dd 0d3d
000001d0: 3bb8 77bd 1274 60bd 86f1 c4bd 0065 9f3d
000001e0: 1944 b6bd 336b dbbd fdd7 a5bd a004 8fbb
000001f0: afa3 08be b2f1 943b bd1f dd3d cde5 363d
00000200: fe09 7e3e f554 653e 3c79 af3d d6ac d83d
00000210: c8e2 553e 73f1 0dbd 2294 913e 7150 383f
00000220: 1390 0a3f a2e2 1e3e 4ad9 0c3c f045 a83d
00000230: c703 a93e bc23 d7bd 72ab f0bd 91ca a13e
00000240: 10ce 093f 576a c03e fa44 a63e 770c 883e
00000250: 9f47 fb3e 7e42 ac3d a075 c53e 43b2 8b3e
00000260: 6c28 6a3c 2edf 243f fcd8 1c3f 02f4 193e
00000270: 9b5c 983d 9d41 ac3e 4bd7 17bd f88e fc3e
00000280: 5462 713e 7890 8fbd 9bd9 c33d bd09 d4bd
00000290: 98fe 2b3d 044e 623e 9fa7 35bd da47 b0bc
000002a0: 6460 8a3d 056e 453c 69d9 3fbd a600 f13d
000002b0: 38bf 983e 2025 99bb bf9d 833e 67c6 28be
000002c0: 7fc1 ca3e eb02 b23e 5c03 d1bd 2e28 c13e
000002d0: 4133 213e 1fa8 693e ecab c3bd fb0c 8fbd
000002e0: 9343 b63e 65ec 8f3e 7f98 533c 66a8 c13e
000002f0: 37d5 173e 35e4 ae3e 3b99 7f3e f1cf 783e
00000300: 5842 f4bd 68d9 9d3d 44ad a4bd 9246 80bd
00000310: 1491 fcbd 00c4 0eb9 f01d d83d 44a7 bfbd
00000320: f00c 783c 2804 e33c e034 d8bb 084a c1bd
00000330: 68ee b73d 2ca1 a83d 386d 02bd b061 39bd
00000340: d692 a0bd cc13 f93d 7421 72bd 70bb fe3d
00000350: c832 c1bd b888 d33c 8009 8d3c e015 0c3c
00000360: 0c80 4ebd fcbd 49bd 4622 acbd 6470 ebbd
00000370: 74a5 0d3d fe72 bfbd 40e7 97bd 9cea f4bd
00000380: 60a1 57bd 6c9a 0bbd c00e 5a3d 3caf ebbd
00000390: 2ae4 e9bd d033 a23d 3cc8 2c3d 4a09 edbd
000003a0: 0a4e a7bd 38d1 65bd f8e2 923d 3036 2abc
000003b0: 60db bb3c 38f7 1a3d 8c9a 5f3d e23d 92bd
000003c0: 107c 263d 1ebc fc3d a8f1 f23c a27c b13d
000003d0: e6a9 f73d 9e24 efbd 4804 113d 74d1 05bd
000003e0: 0a0c aebd 4833 ac3d 2cf5 a5bd a439 6d3d
000003f0: ac43 043d 48c1 69bd 8c96 83bd 966a fb3d

hidden.0.0.bias f4 [64]
-0.024692 -0.028122254 -0.089393765 -0.04517083 -0.1408957 -0.13858704 -0.26364297 -0.073330544
-0.12712993 -0.22737704 -0.091446504 -0.44648668 -0.17180027 -0.012529513 -0.17317234 -0.301701
-0.0701823 -0.035811808 -0.13202116 -0.092173085 -0.09742741 -0.060542583 -0.1769187 -0.03539799
-0.028955996 -0.09110682 -0.036393672 0.4222271 -0.20037119 -0.16305813 -0.04383482 -0.00933391
-0.14942722 -0.041540455 -0.0573097 -0.06785566 -0.029777594 -0.029079678 -0.025082275 -0.034142476
-0.09896366 0.22698872 -0.06323908 0.0074566584 -0.036246613 -0.09284918 -0.11399209 -0.087606266
0.045573846 -0.13637641 -0.04843047 0.037199024 -0.20117773 -0.103866264 -0.1635245 -0.13280624
-0.07013279 0.019309103 -0.10625324 -0.10349341 -0.30206957 -0.1903834 -0.20489855 -0.12708001
00000000: e146 cabc a460 e6bc 1414 b7bd 0c05 39bd
00000010: f646 10be c3e9 0dbe 36fc 86be 532e 96bd
00000020: 592e 02be 87d5 68be 4e48 bbbd e799 e4be
00000030: 69ec 2fbe 9648 4dbc 1754 31be 8e78 9abe
00000040: bdbb 8fbd 67af 12bd 8e30 07be 3ec5 bcbd
00000050: 0688 c7bd 80fb 77bd 2d2a 35be 7cfd 10bd
00000060: 2035 edbc 3696 babd 8811 15bd 272e d83e
00000070: 1b2e 4dbe b6f8 26be 248c 33bd 42ed 18bc
00000080: 7303 19be 5326 2abd 93bd 6abd e9f7 8abd
00000090: 24f0 f3bc 8138 eebc 5879 cdbc fbd8 0bbd
000000a0: 76ad cabd bb6f 683e 7e83 81bd fc56 f43b
000000b0: 5477 14bd b627 bebd af74 e9bd ea6a b3bd
000000c0: a4ab 3a3d 42a6 0bbe 075f 46bd 015e 183d
000000d0: 8901 4ebe d6b7 d4bd f772 27be 5cfe 07be
000000e0: c8a1 8fbd 202e 9e3c 4c9b d9bd 5af4 d3bd
000000f0: dda8 9abe def3 42be edd0 51be 4321 02be

hidden.1.0.weight f4 [64, 64]
0.28564438 0.110563524 0.33997953 0.021692976 0.25823742 0.20410657 0.34023398 0.33346102
0.31657958 0.24388309 0.39160123 0.55050135 0.22911733 0.36311933 0.26074973 0.19398098
0.34833068 0.2166991 -0.09330685 -0.057769757 0.24212997 0.3311421 0.37671146 0.2934497
0.055717602 -0.06126529 -0.016660929 -0.46880493 0.3226401 0.33143485 0.022994462 0.3642064
0.38373396 0.30667916 0.3017924 0.32015976 0.23326786 0.27873418 0.05462946 0.23208055
-0.034352288 -0.3075693 0.33442 0.21427207 0.34859407 -0.08520427 -0.028476525 0.21604466
-0.113595486 0.029923487 0.3544654 0.08298216 0.26056692 0.23894338 0.34961194 0.17207149
-0.0940224 0.04645139 0.23891504 0.39278793 0.32058614 0.323639 0.19572352 0.37683183
0.34100506 -0.09903609 0.3515568 -0.013611063 0.36558902 0.34453183 0.3849543 0.16730608
0.23552763 0.3505891 0.24448292 0.31567615 0.29012224 0.26613715 0.24389765 0.36250198
0.401428 0.33535644 -0.032431982 0.01988509 0.32301864 0.2786801 0.34980968 0.368973
0.049705565 0.10257493 -0.12168543 -0.37009147 0.20487833 0.3723117 -0.09218543 0.20246093
0.37101623 0.19909073 0.2634803 0.31201696 0.1639704 0.38837707 0.074264005 0.21955727
-0.09932126 -0.5011221 0.34757262 0.22278696 0.32258865 0.0065975995 0.052852437 0.26775953
-0.006847188 0.040119566 0.38722926 -0.015278265 0.3359486 0.22854337 0.18729314 0.1481375
0.07433223 -0.073164776 0.22885938 0.38593796 0.14600763 0.37322974 0.1655009 0.19780532
0.3963571 0.0010687548 0.33798862 0.044353664 0.35054538 0.20170818 0.29867536 0.22444445
0.40826318 0.28926775 0.30193672 0.41774216 0.36257815 0.39911428 0.24239907 0.21843193
0.31061873 0.39723328 -0.09255016 0.072160766 0.31183618 0.2648195 0.36759624 0.4014208
0.01309979 0.06225717 -0.055224 -0.4317551 0.27108842 0.33004373 0.052084696 0.3082759
0.26476088 0.3423201 0.39552256 0.36304146 0.18754472 0.35546774 -0.01648897 0.27198935
-0.05163996 -0.36494127 0.4062162 0.35544115 0.23881605 0.09083887 -0.016769875 0.37954146
-0.100012824 -0.11357765 0.34325448 -0.072463654 0.22118776 0.28772604 0.29720733 0.34564868
0.078380525 0.06623821 0.21549746 0.36974722 0.18322459 0.32652408 0.32002953 0.32605502
0.20844652 -0.080002084 0.37893525 0.08866781 0.25023738 0.26462108 0.24598815 0.27914608
0.318133 0.3633215 0.3987754 0.32561445 0.17945622 0.30135152 0.37986904 0.19959617
0.30625018 0.35757488 -0.06292054 0.026824169 0.17511158 0.20864004 0.2074965 0.21421336
0.071573466 0.10206908 -0.0036544204 -0.43493032 0.338173 0.40849262 -0.090685174 0.31101838
0.25612995 0.18861276 0.31442314 0.17870656 0.15605387 0.39128524 0.03678301 0.24321
-0.107102945 -0.45152795 0.26998228 0.29270458 0.40298587 0.06132707 -0.01352112 0.38120785
0.044774756 0.07192086 0.27367175 0.0742345 0.1926864 0.32335863 0.34861976 0.3328677
0.06346567 0.05566433 0.18776871 0.31446984 0.37909853 0.2053204 0.1717758 0.17250739
00000000: fb3f 923e 216f e23d cc11 ae3e 78b5 b13c
00000010: b237 843e 5001 513e 2633 ae3e 67bb aa3e
00000020: b816 a23e 7dbc 793e f57f c83e a8ed 0c3f
00000030: bc9d 6a3e c7ea b93e fd80 853e f3a2 463e
00000040: 6658 b23e 5ee6 5d3e a917 bfbd fb9f 6cbd
00000050: ebf0 773e 758b a93e 53e0 c03e 0a3f 963e
00000060: 2438 643d 50f1 7abd 807c 88bc 3307 f0be
00000070: 1531 a53e d4b1 a93e e25e bc3c 4379 ba3e
00000080: c778 c43e 0d05 9d3e 8984 9a3e fbeb a33e
00000090: c5dd 6e3e 3fb6 8e3e 24c3 5f3d 86a6 6d3e
000000a0: fcb4 0cbd b979 9dbe 1939 ab3e 236a 5b3e
000000b0: ec7a b23e 947f aebd 9a47 e9bc d03a 5d3e
000000c0: c0a4 e8bd 1a22 f53c 7d7c b53e 8df2 a93d
000000d0: 0769 853e 93ad 743e 5600 b33e 8233 303e
000000e0: d18e c0bd d043 3e3d 25a6 743e 801b c93e
000000f0: de23 a43e 03b4 a53e bf6b 483e 1af0 c03e
00000100: 3798 ae3e 6fd3 cabd 41ff b33e f000 5fbc
00000110: 7c2e bb3e 7a66 b03e bb18 c53e 4952 2b3e
00000120: 282e 713e 6a80 b33e bb59 7a3e 4ea0 a13e
00000130: e78a 943e 2143 883e 4ec0 793e dc99 b93e
00000140: f987 cd3e d7b3 ab3e 66d7 04bd 0ee6 a23c
00000150: b362 a53e 28af 8e3e 411a b33e 07ea bc3e
00000160: 1098 4b3d ce12 d23d 3636 f9bd a17c bdbe
00000170: a0cb 513e a49f be3e b7cb bcbd eb51 4f3e
00000180: d7f5 bd3e 71de 4b3e e4e6 863e b0c0 9f3e
00000190: dbe7 273e 5cd9 c63e ba17 983d 9fd3 603e
000001a0: f268 cbbd 8a49 00bf 0af5 b13e 4422 643e
000001b0: 572a a53e ad30 d83b cc7b 583d c717 893e
000001c0: 605e e0bb 6a54 243d ea42 c63e b051 7abc
000001d0: 7401 ac3e 4607 6a3e c6c9 3f3e 5bb1 173e
000001e0: 7f3b 983d 6ad7 95bd 1d5a 6a3e a999 c53e
000001f0: 0683 153e f817 bf3e 1179 293e 7a8d 4a3e
00000200: 51ef ca3e 7615 8c3a d80c ad3e 30ac 353d
00000210: af7a b33e 978c 4e3e faeb 983e c4d4 653e
00000220: df07 d13e e71a 943e 7397 9a3e 4de2 d53e
00000230: d8a3 b93e b558 cc3e 7637 783e 9fac 5f3e
00000240: 6b09 9f3e 2962 cb3e f08a bdbd 06c9 933d
00000250: fea8 9f3e 6c96 873e 9335 bc3e 0787 cd3e
00000260: 80a0 563c 6001 7f3d 9032 62bd 010f ddbe
00000270: 1acc 8a3e 7efb a83e c356 553d 57d6 9d3e
00000280: bd8e 873e 9544 af3e ef81 ca3e 92e0 b93e
00000290: b90b 403e deff b53e e013 87bc 3042 8b3e
000002a0: 6c84 53bd 95d9 babe 92fb cf3e 62fc b53e
000002b0: 328c 743e bb09 ba3d fa60 89bc 4253 c23e
000002c0: 86d3 ccbd 669b e8bd 0dbf af3e d367 94bd
000002d0: 0b7f 623e d450 933e 8f2b 983e ddf8 b03e
000002e0: f885 a03d e6a7 873d 5eab 5c3e 824f bd3e
000002f0: 3a9f 3b3e 2a2e a73e e9da a33e aff0 a63e
00000300: 0173 553e 22d8 a3bd cd03 c23e 7897 b53d
00000310: 1d1f 803e 6a7c 873e 51e4 7b3e 3cec 8e3e
00000320: 54e2 a23e 4705 ba3e 4a2c cc3e f0b6 a63e
00000330: 5fc3 373e bf4a 9a3e 327e c23e f062 4c3e
00000340: d3cc 9c3e 0e14 b73e 7cdc 80bd 5cbe db3c
00000350: 7350 333e bca5 553e f679 543e bf5a 5b3e
00000360: 1c95 923d 9809 d13d 007f 6fbb 30af debe
00000370: 0325 ad3e f225 d13e 26b9 b9bd cd3d 9f3e
00000380: 7723 833e b423 413e 12fc a03e dafe 363e
00000390: 96cc 1f3e 8a56 c83e c8a9 163d 0b0c 793e
000003a0: ca58 dbbd ac2e e7be 1e3b 8a3e 60dd 953e
000003b0: 2a54 ce3e 1832 7b3d b087 5dbc ad2d c33e
000003c0: bc65 373d 3e4b 933d b41e 8c3e 4208 983d
000003d0: 954f 453e 438f a53e 4a7e b23e a36d aa3e
000003e0: 4afa 813d 4800 643d 7146 403e 3102 a13e
000003f0: 3419 c23e 833f 523e ffe5 2f3e c7a5 303e

hidden.1.0.bias f4 [64]
-0.08917689 -0.10669039 -0.12563384 -0.1811796 -0.15275499 0.024930255 -0.06825778 -0.061776023
0.039536163 0.09274075 -0.0011199177 -0.041727155 0.040563993 -0.02034373 -0.027556995 -0.03141596
0.034084253 -0.005166244 -0.12581207 0.0010152757 0.020238446 -0.07010309 -0.015174229 -0.13747245
-0.03295192 -0.120926596 -0.14298008 -0.0636089 -0.03626469 -0.011988139 -0.19553646 -0.12372951
-0.1336128 -0.079391725 0.040459007 -0.06520821 -0.0045397584 -0.039193172 -0.08139735 -0.093566924
-0.12890694 -0.050737724 -0.12062062 0.052366838 0.01850361 -0.01890052 0.029478494 -0.015227836
-0.015288625 0.02451877 -0.07713942 -0.005827678 -0.06211586 -0.17139035 0.078750506 -0.07288874
-0.05131476 0.020178255 0.09895835 -0.036417082 -0.10819639 0.008012358 0.09079271 0.019945035
00000000: 60a2 b6bd 7e80 dabd 28a6 00be 2587 39be
00000010: ce6b 1cbe 893a cc3c bcca 8bbd db08 7dbd
00000020: acf0 213d ddee bd3d 34ca 92ba 18ea 2abd
00000030: 6e26 263d e5a7 a6bc 35bf e1bc 06ae 00bd
00000040: ee9b 0b3d 9949 a9bb e1d4 00be 0013 853a
00000050: 19cb a53c 3592 8fbd 549d 78bc 94c5 0cbe
00000060: 98f8 06bd 5da8 f7bd 5f69 12be 6245 82bd
00000070: 498a 14bd e669 44bc b63a 48be e665 fdbd
00000080: cbd1 08be 2198 a2bd 58b8 253d e28b 85bd
00000090: 41c2 94bb 0589 20bd a7b3 a6bd 04a0 bfbd
000000a0: 2e00 04be 5cd2 4fbd f207 f7bd 9c7e 563d
000000b0: e294 973c 43d5 9abc e27c f13c 2c7e 79bc
000000c0: 247d 7abc 96db c83c 46fb 9dbd 1bf6 bebb
000000d0: 336d 7ebd f480 2fbe f247 a13d b146 95bd
000000e0: 6d2f 52bd de4c a53c adaa ca3d 142a 15bd
000000f0: 1296 ddbd 4446 033c 87f1 b93d c563 a33c

hidden.2.0.weight f4 [64, 64]
-0.04173574 0.06163022 0.11834495 0.088743016 -0.0999129 -0.062482238 -0.03410229 -0.08498618
0.10664448 -0.08977385 -0.011719346 -0.08192606 -0.0690209 0.06571093 -0.039881095 -0.07626453
0.09550308 -0.080625385 0.0609435 0.016545624 0.08282444 0.00057029724 0.0067695975 0.0563751
0.029050216 -0.04045771 0.12026499 0.09997851 0.044286683 0.10352358 -0.00950785 -0.05622244
0.09171073 -0.029401839 0.07496877 0.077528 -0.08127999 0.006753966 -0.017796636 -0.12278645
0.0069054067 0.08357027 0.017635256 -0.06831637 -0.02056104 0.008396506 -0.10770717 -0.014774263
0.030290723 0.090400875 -0.02197057 0.04138148 -0.112240896 -0.012557253 -0.10636954 0.038183764
-0.026815802 -0.06954287 0.021214187 0.09274183 -0.046429932 -0.11306086 -0.068280935 -0.012671813
0.35933942 0.3700311 0.32511842 0.35146734 0.20951003 0.34658125 0.3498798 0.28602955
-0.10533932 0.13032496 0.20006 0.27336982 0.21403854 0.23193496 0.19575515 -0.06645004
0.055228274 0.21688378 0.30433735 0.2811897 0.3706016 0.03272303 0.40340018 0.19392139
-0.062471315 0.2270135 0.277865 0.40559196 0.3515923 -0.061635755 0.38347054 -0.016085848
0.22904739 0.13046822 -0.011483929 0.07482712 0.42817786 0.23388442 0.012590752 0.029608518
0.07256811 0.22841209 -0.054741234 0.07914139 0.19516262 0.08402053 0.24711637 0.23986506
0.108852886 0.187169 0.2021484 -0.0953292 0.298864 0.37407118 -0.04899842 -0.08593593
0.4129469 0.3412278 -0.012719015 -0.07599402 0.061439868 0.265649 0.03698639 0.24187173
0.3440385 0.3313801 0.3360914 0.30835593 0.33230558 0.32137275 0.2457818 0.23984356
0.007882819 0.10131462 0.25706077 0.22530398 0.428426 0.18816012 0.23723532 -0.021996416
0.040808946 0.39769375 0.31224316 0.18702312 0.27396232 0.07406024 0.2528033 0.19304655
0.10027066 0.36712858 0.41363168 0.39273953 0.3224418 -0.0276088 0.2905156 -0.119356275
0.34943128 0.045183983 0.13209915 -0.01759008 0.42422467 0.33318248 0.11938897 0.1084086
-0.11334521 0.41437125 -0.034706965 0.06760202 0.28479066 -0.024375603 0.2839898 0.2650465
-0.055295367 0.30801326 0.31454346 -0.08777541 0.32975075 0.1660744 0.041821312 -0.032969248
0.3248854 0.35795838 0.06333377 -0.062007755 -0.030884197 0.40165642 0.06033453 0.31884763
0.10281497 0.057004955 -0.06350644 -0.10230021 0.008834701 -0.087377116 -0.12165749 0.008599649
-0.00425376 -0.05196597 0.10441689 -0.025815396 0.08771907 -0.1143796 -0.09098532 0.055479795
0.04379047 0.0038102642 -0.12497644 -0.046148706 -0.012977756 -0.10984737 -0.12432785 -0.11157336
-0.0012294201 0.10056434 0.03779407 0.104805715 -0.055454608 0.03835486 -0.08221477 -0.10165632
0.031797998 0.09457004 -0.11197648 0.06271523 0.051249914 -0.07237219 0.112930134 0.057433218
0.072887436 -0.026561696 -0.07700126 -0.055067655 -0.0031429115 0.03893066 0.08467332 -0.13151194
-0.08469803 -0.061290883 -0.10138027 0.04626687 -0.016477648 -0.06099035 0.009861205 0.033206612
0.061850976 0.10343328 -0.11476993 -0.07828533 -0.045343652 -0.0054565524 -0.041602712 -0.01661901
00000000: 18f3 2abd f86f 7c3d d65e f23d e6be b53d
00000010: 229f ccbd 60ed 7fbd d8ae 0bbd 3c0d aebd
00000020: 6c68 da3d 5adb b7bd 8002 40bc dac8 a7bd
00000030: d45a 8dbd 7493 863d 5c5a 23bd 9430 9cbd
00000040: 1e97 c33d ec1e a5bd e49f 793d b08a 873c
00000050: dc9f a93d 0080 153a 80d3 dd3b 94e9 663d
00000060: b8fa ed3c fcb6 25bd 7e4d f63d 88c1 cc3d
00000070: f465 353d 2c04 d43d d0c6 1bbc 8049 66bd
00000080: d6d2 bb3d 20dc f0bc 3a89 993d 00c7 9e3d
00000090: 2076 a6bd 6050 dd3b 40ca 91bc 7677 fbbd
000000a0: c046 e23b e426 ab3d d077 903c 74e9 8bbd
000000b0: a06f a8bc 8091 093c 9495 dcbd c00f 72bc
000000c0: 4024 f83c 1824 b93d a0fb b3bc a07f 293d
000000d0: 8ede e5bd f0bc 4dbc 46d8 d9bd 9466 1c3d
000000e0: d0ac dbbc 7e6c 8ebd 60c9 ad3c 6eef bd3d
000000f0: 502d 3ebd 748c e7bd e0d6 8bbd 709d 4fbc
00000100: 56fb b73e b774 bd3e ec75 a63e 87f3 b33e
00000110: cc89 563e 1973 b13e 7223 b33e 7772 923e
00000120: 24bc d7bd e873 053e 87dc 4c3e 21f7 8b3e
00000130: eb2c 5b3e 5c80 6d3e 0a74 483e f516 88bd
00000140: 0b37 623d c816 5e3e 1bd2 9b3e 19f8 8f3e
00000150: 7ebf bd3e 9508 063d 788a ce3e 5493 463e
00000160: ece1 7fbd 3a76 683e 5244 8e3e c0a9 cf3e
00000170: e803 b43e c675 7cbd 4056 c43e 78c6 83bc
00000180: 668b 6a3e 7699 053e 1727 3cbc f63e 993d
00000190: 213a db3e 667f 6f3e 7149 4e3c 908d f23c
000001a0: 979e 943d dce4 693e 5838 60bd e214 a23d
000001b0: b6d8 473e f512 ac3d 130c 7d3e 309f 753e
000001c0: 43ee de3d 3ba9 3f3e fdff 4e3e f53b c3bd
000001d0: b404 993e 4286 bf3e 91b2 48bd 2dff afbd
000001e0: c76d d33e 69b5 ae3e 6a63 50bc c1a2 9bbd
000001f0: 5fa8 7b3d 2503 883e 0a7f 173d 39ad 773e
00000200: d025 b03e a7aa a93e 2c14 ac3e d4e0 9d3e
00000210: f523 aa3e f88a a43e 39ae 7b3e 8d99 753e
00000220: f026 013c 0a7e cf3d 789d 833e 16b6 663e
00000230: a75a db3e 0cad 403e d1ed 723e d431 b4bc
00000240: 4827 273d 849e cb3e 56de 9f3e fd82 3f3e
00000250: ca44 8c3e e5ac 973d 6f6f 813e ffad 453e
00000260: b45a cd3d 47f8 bb3e 88c7 d33e 2815 c93e
00000270: 1717 a53e da2b e2bc 76be 943e 1071 f4bd
00000280: a8e8 b23e d712 393d 0045 073e 1219 90bc
00000290: fa33 d93e e596 aa3e 3482 f43d 5405 de3d
000002a0: 8921 e8bd 7828 d43e e428 0ebd ee72 8a3d
000002b0: 15d0 913e 58af c7bc 1c67 913e 2db4 873e
000002c0: 657d 62bd eab3 9d3e d70b a13e 98c3 b3bd
000002d0: 17d5 a83e 680f 2a3e d34c 2b3d c30a 07bd
000002e0: 6157 a63e 5246 b73e 23b5 813d d8fb 7dbd
000002f0: db00 fdbc e9a5 cd3e 5721 773d ff3f a33e
00000300: a890 d23d 077e 693d aa0f 82bd c682 d1bd
00000310: 6cbf 103c c6f2 b2bd 9027 f9bd 8be5 0c3c
00000320: 2063 8bbb 45da 54bd 86d8 d53d cf7a d3bc
00000330: 0ea6 b33d da3f eabd 8356 babd c83e 633d
00000340: a35d 333d a0b5 793b a6f3 ffbd 6d06 3dbd
00000350: a7a0 54bc a8f7 e0bd 9a9f febd 9380 e4bd
00000360: 7e24 a1ba adf4 cd3d f4cd 1a3d 61a4 d63d
00000370: 5f24 63bd fc19 1d3d 3860 a8bd 3031 d0bd
00000380: 9e3e 023d f0ad c13d ed53 e5bd d870 803d
00000390: 6eeb 513d df37 94bd ea47 e73d 183f 6b3d
000003a0: 0246 953d ea97 d9bc d6b2 9dbd 9f8e 61bd
000003b0: 4ef9 4dbb c175 1f3d 3569 ad3d 11ab 06be
000003c0: 2976 adbd 260c 7bbd 76a0 cfbd 5482 3d3d
000003d0: 22fc 86bc 04d1 79bd e490 213c a803 083d
000003e0: 7357 7d3d d4d4 d33d 7f0c ebbd 0f54 a0bd
000003f0: 44ba 39bd e1cc b2bb 9b67 2abd 9724 88bc

hidden.2.0.bias f4 [64]
-0.116939455 0.014789113 0.056047685 -0.074922994 -0.026145436 -0.032929078 0.072935835 0.029368836
0.05271479 -0.03600361 0.04281774 0.012146367 -0.07358787 -0.04940472 0.05298745 -0.022494867
-0.044750042 -0.09015934 -0.07490778 0.043637805 -0.06325664 0.10337528 -0.020208422 0.022027412
0.08603566 0.011314168 0.034003194 -0.04651531 -0.117346875 -0.009794309 -0.15514557 -0.05427197
-0.011293677 -0.15934396 -0.10837099 -0.09653959 0.058154285 -0.06435082 0.08059917 -0.04921092
-0.008243257 0.08411892 -0.1224095 0.067252524 -0.014023885 0.08981544 -0.16183543 -0.042516723
0.05895554 -0.09187378 0.059585135 -0.06686321 -0.090011634 -0.014755236 0.02063014 0.019964933
-0.012983531 0.09225136 -0.012153389 -0.11297212 0.10034578 -0.04155687 -0.027500331 -0.0047438624
00000000: f47d efbd 094e 723c 4292 653d 3a71 99bd
00000010: f42e d6bc a4e0 06bd 625f 953d ea96 f03c
00000020: 77eb 573d 8578 13bd a861 2f3d 8e01 473c
00000030: 3db5 96bd 9b5c 4abd 5e09 593d 2847 b8bc
00000040: d24b 37bd 76a5 b8bd 4069 99bd 8ebd 323d
00000050: b38c 81bd 6bb6 d33d 228c a5bc d572 b43c
00000060: 7733 b03d 0f5f 393c ef46 0b3d d686 3ebd
00000070: 8f53 f0bd 4f78 20bc 7bde 1ebe 494c 5ebd
00000080: 1d09 39bc 102b 23be 9cf1 ddbd 8cb6 c5bd
00000090: 3033 6e3d 5dca 83bd 2d11 a53d 6491 49bd
000000a0: ba0e 07bc 8a46 ac3d d5b1 fabd b1bb 893d
000000b0: 70c4 65bc 28f1 b73d 30b8 25be 0426 2ebd
000000c0: 5d7b 713d 5228 bcbd 8b0f 743d 94ef 88bd
000000d0: 0558 b8bd f2bf 71bc 8a00 a93c 808d a33c
000000e0: e0b8 54bc 48ee bc3d 021f 47bc ed5d e7bd
000000f0: 1782 cd3d 8937 2abd 6048 e1bc 6772 9bbb

output.weight f4 [1, 64]
-0.09283851 0.31461626 0.3643935 0.0029290225 -0.05384183 -0.053389058 -0.059904594 -0.008292018
-0.0657311 0.3803018 0.33946425 0.40119562 -0.088601194 0.34959006 0.3237601 0.10280909
0.41243565 0.09591836 -0.077390715 0.30547497 0.3285029 -0.007840658 0.4087877 0.31363192
0.37450472 0.41139618 0.35671988 -0.07884133 0.33956227 0.29361233 0.3607787 0.37777916
0.37111923 0.357994 0.07279602 0.09107132 0.3795265 0.38052738 -0.03141427 -0.09475991
0.3806755 0.35545152 0.3626697 0.42309752 0.09750043 -0.009396162 0.36120802 -0.07674822
0.30191597 -0.036746584 0.34281567 0.30049944 0.33651608 -0.08752923 0.34237805 0.41397074
0.08861111 0.39648727 0.3880427 0.398751 -0.09856845 0.3535163 -0.09853132 0.34945294
00000000: 1e22 bebd 6215 a13e c991 ba3e d8f4 3f3b
00000010: 4089 5cbd 7cae 5abd 855e 75bd 3fdb 07bc
00000020: 079e 86bd ebb6 c23e 42ce ad3e 8369 cd3e
00000030: 8b74 b5bd 78fd b23e e2c3 a53e 928d d23d
00000040: c42a d33e d870 c43d 067f 9ebd 3767 9c3e
00000050: 8831 a83e 1a76 00bc 9f4c d13e 5d94 a03e
00000060: 15bf bf3e 85a2 d23e fda3 b63e 9077 a1bd
00000070: 1bdb ad3e 5b54 963e fcb7 b83e 456c c13e
00000080: 5703 be3e fd4a b73e 1416 953d 9a83 ba3d
00000090: 4c51 c23e 7cd4 c23e 40ac 00bd 7c11 c2bd
000000a0: e6e7 c23e befd b53e d8af b93e 3da0 d83e
000000b0: 4eae c73d 5cf2 19bc 42f0 b83e 2c2e 9dbd
000000c0: bb94 9a3e 9683 16bd 8985 af3e 10db 993e
000000d0: d64b ac3e 8642 b3bd 2d4c af3e f9f3 d33e
000000e0: be79 b53d 6100 cb3e 88ad c63e 1729 cc3e
000000f0: 41de c9bd 1700 b53e caca c9bd 7feb b23e

exp_avg f4 [64, 6]
372683.25 200211.95 86916.66 262401.62 424106.2 1.1697408e+06 303579.03 118001.71
58462.52 228917.34 375928.78 1.0317105e+06 83287.164 37463.477 13999.825 61960.555
103611.25 276703.72 0.0 0.0 0.0 0.0 0.0 0.0
356517.44 187282.36 32960.53 250622.45 397199.8 989056.94 129279.72 71902.0
19558.5 87740.78 149724.78 401844.5 285560.2 155849.05 66720.7 200417.55
327922.28 903451.0 791730.06 304805.94 164235.1 561945.2 910942.4 2.3616788e+06
737073.2 211784.62 35822.043 505482.72 713974.4 1.6665345e+06 126695.47 69698.47
23863.123 85244.45 142270.58 368154.5 124674.52 68844.59 27371.363 85637.97
143367.28 386871.5 0.0 0.0 0.0 0.0 0.0 0.0
420998.34 231940.2 74963.83 297514.94 489258.47 1.2365005e+06 66615.26 37487.38
12979.711 44511.094 77893.56 200519.98 0.0 0.0 0.0 0.0
0.0 0.0 321481.6 48400.055 71262.6 245442.23 528828.44 840541.1
546169.4 -81768.47 -245504.06 543492.1 733689.9 1.1395196e+06 423029.12 191262.1
74824.04 299414.4 486570.16 1.2138578e+06 390113.06 209846.58 94157.95 288302.4
444348.78 1.2587485e+06 395093.44 136189.58 52634.68 272753.5 457072.75 1.0257962e+06
836332.25 336520.03 151963.97 618745.6 816282.56 2.2750492e+06 0.0 0.0
0.0 0.0 0.0 0.0 583658.06 225205.67 99879.586 405211.9
675406.94 1.6121894e+06 414827.2 168537.78 98756.734 309520.94 455250.47 1.2505575e+06
43635.156 25908.844 9168.376 30344.633 50579.9 138043.33 794702.7 319439.7
104246.69 608788.8 747338.94 1.9069198e+06 734806.4 362589.7 145062.33 541662.6
839447.44 2.171475e+06 104836.625 42811.5 18759.238 80440.695 132958.4 362309.56
157992.23 99290.57 39727.52 116948.49 187427.47 474604.34 306614.62 147298.78
62971.305 205022.08 350981.88 908790.8 85261.06 46735.117 19988.654 60426.863
98467.664 267682.34 527744.94 187085.75 80363.695 372965.06 613005.25 1.4179625e+06
463156.34 196267.19 82125.62 318242.62 522353.94 1.2856316e+06 1663.9636 1963.0548
-4160.6914 -1669.3304 3412.056 -10672.526 176301.5 57368.707 49859.895 132979.39
283740.34 473035.56 46373.71 26693.072 10992.015 32360.502 53569.46 145496.81
120716.2 66647.96 29330.047 85171.37 138473.62 384138.88 356545.53 46513.855
-5407.1885 233811.97 425776.1 817084.9 57045.59 32265.035 11251.984 38497.816
66288.8 171207.53 -23091.17 -10415.597 -7259.5054 -18096.238 -25701.129 -81009.69
170482.94 52737.363 17971.49 132681.55 220478.28 473705.6 9059.742 7198.0063
1442.1162 5903.517 11465.205 25125.352 41694.797 25568.66 7184.0337 32477.041
00000000: 68f9 b548 fd84 4348 54c2 a947 3420 8048
00000010: 4615 cf48 66ca 8e49 613b 9448 db78 e647
00000020: 855e 6447 568d 5f48 198f b748 e8e1 7b49
00000030: 95ab a247 7a57 1247 4dbf 5a46 8e08 7247
00000040: a05d ca47 f71b 8748 0000 0000 0000 0000
00000050: 0000 0000 0000 0000 0000 0000 0000 0000
00000060: ae14 ae48 97e4 3648 88c0 0047 9dbf 7448
00000070: faf1 c148 0f78 7149 dc7f fc47 006f 8c47
00000080: 00cd 9846 645e ab47 3237 1248 9036 c448
00000090: 066f 8b48 4332 1848 5a50 8247 63b8 4348
000000a0: 491e a048 b091 5c49 214b 4149 bed4 9448
000000b0: c662 2048 9331 0949 e665 5e49 3b25 104a
000000c0: 13f3 3349 28d2 4e48 0bee 0b47 57d1 f648
000000d0: 664f 2e49 346f cb49 bc73 f747 3c21 8847
000000e0: 3f6e ba46 3a7e a647 a5ef 0a48 50c3 b348
000000f0: 4381 f347 4c76 8647 bad6 d546 fc42 a747
00000100: d201 0c48 f0e6 bc48 0000 0000 0000 0000
00000110: 0000 0000 0000 0000 0000 0000 0000 0000
00000120: cb90 cd48 0d81 6248 ea69 9247 5e45 9148
00000130: 4fe5 ee48 a4f0 9649 a11b 8247 616f 1247
00000140: d8ce 4a46 18df 2d47 c822 9847 ffd1 4348
00000150: 0000 0000 0000 0000 0000 0000 0000 0000
00000160: 0000 0000 0000 0000 33f9 9c48 0e10 3d47
00000170: 4d2f 8b47 8fb0 6f48 c71b 0149 d235 4d49
00000180: 9657 0549 3cb4 9fc7 04c0 6fc8 42b0 0449
00000190: 9e1f 3349 fd19 8b49 a48e ce48 86c7 3a48
000001a0: 0524 9247 cd32 9248 4595 ed48 0e2d 9449
000001b0: 227c be48 a5ed 4c48 fae6 b747 cdc5 8c48
000001c0: 99f7 d848 e4a7 9949 aeea c048 65ff 0448
000001d0: ae9a 4d47 302e 8548 182e df48 4370 7a49
000001e0: c42e 4c49 0151 a448 fe66 1448 9a0f 1749
000001f0: a949 4749 a5db 0a4a 0000 0000 0000 0000
00000200: 0000 0000 0000 0000 0000 0000 0000 0000
00000210: a17e 0e49 6bed 5b48 cb13 c347 7ddb c548
00000220: efe4 2449 ebcc c449 668d ca48 7296 2448
00000230: 5ee2 c047 1e22 9748 4f4a de48 eca7 9849
00000240: 2873 2a47 b069 ca46 8141 0f46 4411 ed46
00000250: e693 4547 d5ce 0648 eb04 4249 f6f9 9b48
00000260: 589b cb47 4da1 1449 af74 3649 3ec7 e849
00000270: 6665 3349 b60b b148 95a9 0d48 ea3d 0449
00000280: 77f1 4c49 4c89 044a 50c2 cc47 803b 2747
00000290: 7a8e 9246 591c 9d47 9ad7 0148 b2e8 b048
000002a0: 0f4a 1a48 49ed c147 852f 1b47 3f6a e447
000002b0: de08 3748 8bbd e748 d4b6 9548 b2d8 0f48
000002c0: 4efb 7547 8537 4848 bc60 ab48 6ddf 5d49
000002d0: 8886 a647 1e8f 3647 4f29 9c46 dd0a 6c47
000002e0: d551 c047 4bb4 8248 0fd8 0049 70b3 3648
000002f0: d9f5 9c47 a21c b648 d4a8 1549 5417 ad49
00000300: 8b26 e248 ccaa 3f48 cf66 a047 5464 9b48
00000310: 3e0e ff48 fdef 9c49 d6fe cf44 c161 f544
00000320: 8805 82c5 93aa d0c4 e540 5545 1bc2 26c6
00000330: 602b 2c48 b518 6047 e5c3 4247 d9dc 0148
00000340: 8b8b 8a48 72f9 e648 b625 3547 258a d046
00000350: 0fc0 2b46 01d1 fc46 7641 5147 3416 0e48
00000360: 1ac6 eb47 fb2b 8247 1824 e546 af59 a647
00000370: 683a 0748 5c91 bb48 3118 ae48 dbb1 3547
00000380: 82f9 a8c5 fe54 6448 03e6 cf48 ce7b 4749
00000390: 97d5 5e47 1212 fc46 f0cf 2f46 d161 1647
000003a0: 6678 8147 e231 2748 5766 b4c6 63be 22c6
000003b0: 0bdc e2c5 7a60 8dc6 42ca c8c6 d838 9ec7
000003c0: bc7c 2648 5d01 4e47 fb66 8c46 6392 0148
000003d0: 924f 5748 334d e748 f88e 0d46 0df0 e045
000003e0: b843 b444 237c b845 d224 3346 b44a c446
000003f0: ccde 2247 52c1 c746 4580 e045 15ba fd46

exp_avg_sq f4 [64, 6]
8.2271804e+11 8.33759e+11 3.460098e+11 3.7278115e+11 1.4430844e+12 8.017134e+12 6.823359e+11 7.337355e+11
3.0501192e+11 3.234801e+11 1.2423243e+12 6.836011e+12 1.1925867e+11 1.4278803e+11 6.1355737e+10 4.6105866e+10
2.9490745e+11 1.2160493e+12 0.0 0.0 0.0 0.0 0.0 0.0
7.7021964e+11 8.293336e+11 3.2091698e+11 3.5225177e+11 1.4487272e+12 6.4468204e+12 1.577766e+11 1.7712459e+11
7.767059e+10 6.4301887e+10 3.5937645e+11 1.5890037e+12 6.166078e+11 6.526406e+11 2.74028e+11 2.7388974e+11
1.1723945e+12 6.0847785e+12 3.6725268e+12 3.3872213e+12 1.43927e+12 1.7143453e+12 6.1677723e+12 3.1645713e+13
2.224267e+12 2.3148505e+12 8.2369774e+11 9.87362e+11 4.1866919e+12 1.827405e+13 1.2836598e+11 1.4064832e+11
6.2422626e+10 5.098168e+10 3.0497207e+11 1.2995527e+12 1.4525576e+11 1.6686272e+11 7.165216e+10 5.8259046e+10
3.4823134e+11 1.4790872e+12 0.0 0.0 0.0 0.0 0.0 0.0
1.2026982e+12 1.264449e+12 4.912592e+11 5.564094e+11 2.1757154e+12 1.0660914e+13 9.23483e+10 1.1398297e+11
4.952948e+10 3.327684e+10 2.5496932e+11 9.612617e+11 0.0 0.0 0.0 0.0
0.0 0.0 5.499245e+11 2.3826832e+11 1.4247207e+11 1.9128017e+11 7.611498e+11 3.0351384e+12
1.6191383e+12 1.4893157e+12 7.001798e+11 8.150352e+11 4.1355557e+12 1.7035889e+13 1.2069305e+12 1.1813475e+12
5.017654e+11 5.562131e+11 2.1473455e+12 1.13732e+13 9.350665e+11 9.502641e+11 3.9210408e+11 4.1944547e+11
1.636147e+12 9.094732e+12 1.134064e+12 1.0377374e+12 4.4700103e+11 5.047566e+11 2.0916864e+12 9.682878e+12
2.7457626e+12 2.761537e+12 1.03267965e+12 1.1886129e+12 4.8638135e+12 2.2823066e+13 0.0 0.0
0.0 0.0 0.0 0.0 2.270044e+12 2.006826e+12 8.7542176e+11 1.0216216e+12
3.9075072e+12 2.079014e+13 9.273465e+11 9.1272525e+11 3.7683574e+11 4.111015e+11 1.653029e+12 8.409665e+12
5.7956004e+10 7.347462e+10 3.2630184e+10 1.9568247e+10 1.762712e+11 6.175817e+11 2.0255426e+12 1.918799e+12
7.232431e+11 9.1084816e+11 3.16806e+12 1.6315532e+13 3.3156783e+12 3.2540726e+12 1.3205369e+12 1.532014e+12
5.6748524e+12 2.8534775e+13 1.3825327e+11 1.5984106e+11 6.903394e+10 5.5709405e+10 3.303796e+11 1.4105282e+12
1.36352e+11 1.294103e+11 6.0975047e+10 5.2835852e+10 3.021029e+11 1.4054102e+12 6.243765e+11 6.4030854e+11
2.7128259e+11 2.8205063e+11 1.1474702e+12 6.0969284e+12 1.0312452e+11 1.2519343e+11 5.4393885e+10 3.8016705e+10
2.817848e+11 1.07186926e+12 1.8160226e+12 1.6614729e+12 7.103137e+11 8.326317e+11 3.1650472e+12 1.669153e+13
1.2867682e+12 1.06382996e+12 5.0977387e+11 5.311812e+11 2.3386118e+12 1.2573498e+13 3.0515577e+10 3.9348388e+10
1.8384804e+10 7.602777e+09 1.105513e+11 3.2791596e+11 1.1423807e+11 1.33881995e+11 5.0161086e+10 4.182342e+10
1.6996824e+11 5.7228604e+11 7.242373e+10 9.352364e+10 4.1104314e+10 2.42197e+10 2.2475239e+11 7.757402e+11
1.6479856e+11 1.9261435e+11 8.269335e+10 6.4955007e+10 4.042868e+11 1.692047e+12 9.8390894e+11 8.651177e+11
3.847822e+11 4.229895e+11 1.9221242e+12 8.4387745e+12 5.7850687e+10 7.338781e+10 3.2759329e+10 1.8772404e+10
1.8404049e+11 6.08333e+11 3.8100996e+10 4.8755098e+10 2.3035929e+10 1.0250461e+10 1.3848522e+11 4.043773e+11
3.0618544e+11 3.4725927e+11 1.4709868e+11 1.4411293e+11 6.700562e+11 3.0591628e+12 5.078353e+10 6.9503975e+10
3.1348748e+10 1.4438811e+10 1.8458585e+11 5.590885e+11 1.011956e+11 1.27594996e+11 5.506e+10 3.583884e+10
00000000: d18d 3f53 e91f 4253 951f a152 fa96 ad52
00000010: 44ff a753 4e54 e954 64de 1e53 0bd6 2a53
00000020: 4108 8e52 d5a1 9652 26a0 9053 40f4 c654
00000030: f722 de51 52fb 0452 6491 6451 fbc1 2b51
00000040: b553 8952 1891 8d53 0000 0000 0000 0000
00000050: 0000 0000 0000 0000 0000 0000 0000 0000
00000060: ab54 3353 2218 4153 4970 9552 af07 a452
00000070: 6fa7 a853 8ea0 bb54 dff0 1252 cbf5 2452
00000080: 39ac 9051 0f8b 6f51 0359 a752 00fc b853
00000090: b090 0f53 69f4 1753 5e35 7f52 6714 7f52
000000a0: 147c 8853 2217 b154 eac4 5554 8829 4554
000000b0: 978d a753 7993 c753 7c81 b354 bc40 e655
000000c0: 2978 0154 f6bd 0654 36c8 3f53 5ce3 6553
000000d0: 92b2 7354 12f6 8455 ab19 ef51 2cfd 0252
000000e0: db8a 6851 ebeb 3d51 8103 8e52 b049 9753
000000f0: ac47 0752 2c67 1b52 6a76 8551 2808 5951
00000100: 6928 a252 3c30 ac53 0000 0000 0000 0000
00000110: 0000 0000 0000 0000 0000 0000 0000 0000
00000120: 3303 8c53 8433 9353 a9c2 e452 968c 0153
00000130: 5f49 fd53 0023 1b55 1a03 ac51 514f d451
00000140: fe82 3851 89ee f750 6c75 6d52 aacf 5f53
00000150: 0000 0000 0000 0000 0000 0000 0000 0000
00000160: 0000 0000 0000 0000 0e0a 0053 98e7 5d52
00000170: fdaf 0452 bf24 3252 1038 3153 16ab 3054
00000180: 157e bc53 1161 ad53 f805 2353 e2c3 3d53
00000190: 95b8 7054 a2e7 7755 5581 8c53 e686 8953
000001a0: 19a7 e952 e280 0153 e2fb f953 7980 2555
000001b0: 4eb6 5953 2740 5d53 7396 b652 cc51 c352
000001c0: fb78 be53 8458 0455 be05 8453 f89d 7153
000001d0: ad26 d052 ad0b eb52 1d81 f353 88e7 0c55
000001e0: 0dd3 1f54 1cbe 2054 8170 7053 6d5f 8a53
000001f0: 3c8e 8d54 460f a655 0000 0000 0000 0000
00000200: 0000 0000 0000 0000 0000 0000 0000 0000
00000210: 4b22 0454 13a0 e953 34d3 4b53 64dd 6d53
00000220: 6572 6354 a744 9755 29ea 5753 aa82 5453
00000230: 527a af52 1e6f bf52 1a70 c053 e3c0 f454
00000240: 27e7 5751 6edb 8851 231d f350 78cb 9150
00000250: 542a 2452 bdca 0f53 e0cd eb53 ab60 df53
00000260: a664 2853 c812 5453 c667 3854 186c 6d55
00000270: 75ff 4054 7669 3d54 11bb 9953 9359 b253
00000280: f228 a554 299e cf55 26c2 0052 14dd 1452
00000290: f395 8051 a188 4f51 51d8 9952 0435 a453
000002a0: b3f9 fd51 a40b f151 5626 6351 32d4 4451
000002b0: 79ad 8c52 7d9c a353 bd5f 1153 5d15 1553
000002c0: cfa6 7c52 0e57 8352 4795 8553 a871 b154
000002d0: 9a15 c051 e130 e951 0da2 4a51 8e9f 0d51
000002e0: 5e37 8352 6390 7953 b169 d353 c06b c153
000002f0: ff61 2553 b7dc 4153 e13a 3854 cbe4 7255
00000300: aecc 9553 35b1 7753 c861 ed52 bc59 f752
00000310: 0820 0854 eef7 3655 d85b e350 8c95 1251
00000320: 3bfa 8850 9694 e24f f8ea cd51 a1b2 9852
00000330: f5c8 d451 e95f f951 57dd 3a51 eccd 1b51
00000340: 964b 1e52 e83e 0553 53e6 8651 8c33 ae51
00000350: 2120 1951 6973 b450 2551 5152 b89d 3453
00000360: 0a7b 1952 d762 3352 4307 9a51 ecf9 7151
00000370: be42 bc52 eefa c453 8b15 6553 086d 4953
00000380: 9d2d b352 47f8 c452 c4c3 df53 c599 f554
00000390: b782 5751 09b2 8851 7613 f450 85dd 8b50
000003a0: ac66 2b52 79a3 0d53 f1ef 0d51 7ca0 3551
000003b0: 8ca1 ab50 68be 1850 73f9 0052 884d bc52
000003c0: 2694 8e52 88b4 a152 0fff 0852 3337 0652
000003d0: 7602 1c53 1411 3254 f32e 3d51 1476 8151
000003e0: fe90 e950 b127 5750 b2e8 2b52 452c 0253
000003f0: d37d bc51 09aa ed51 4f1d 4d51 9582 0551

exp_avg f4 [64]
815544.06 655073.7 182422.8 0.0 719060.06 267263.78 623135.4 1.6561136e+06
1.3734045e+06 276779.7 272188.25 0.0 888748.06 144826.78 0.0 679540.0
1.0206102e+06 874445.25 872399.4 773961.06 1.7114844e+06 0.0 1.1882195e+06 933541.75
92649.28 1.576741e+06 1.5782298e+06 231290.17 347952.5 645561.25 184582.39 1.051522e+06
935272.6 3276.3367 334014.62 100384.55 262626.06 671248.94 124048.91 -50436.258
365867.97 19017.873 91549.45 616703.25 885690.7 0.0 937514.94 -118972.22
1.1361788e+06 944545.06 0.0 1.2351025e+06 194607.94 593595.2 0.0 -154067.64
1.01141875e+06 574276.7 334188.94 89989.25 675083.56 1.1191451e+06 974742.7 723639.2
00000000: 811b 4749 1bee 1f49 b325 3248 0000 0000
00000010: 418d 2f49 f97f 8248 f621 1849 8d29 ca49
00000020: e4a6 a749 7625 8748 88e7 8448 0000 0000
00000030: c1fa 5849 b26e 0d48 0000 0000 40e7 2549
00000040: 232c 7949 d47c 5549 f6fc 5449 91f4 3c49
00000050: e3eb d049 0000 0000 dc0b 9149 5cea 6349
00000060: a4f4 b447 2879 c049 aea7 c049 8bde 6148
00000070: 10e6 a948 949b 1d49 9941 3448 105c 8049
00000080: 8a56 6449 63c5 4c45 d417 a348 4610 c447
00000090: 423c 8048 0fe1 2349 7448 f247 4204 45c7
000000a0: 7fa5 b248 bf93 9446 bace b247 f48f 1649
000000b0: ab3b 5849 0000 0000 afe2 6449 1c5e e8c7
000000c0: 96b1 8a49 119a 6649 0000 0000 f4c4 9649
000000d0: fc0b 3e48 b3eb 1049 0000 0000 e974 16c8
000000e0: aced 7649 4b34 0c49 9e2d a348 a0c2 af47
000000f0: b9d0 2449 499d 8849 6bf9 6d49 73ab 3049

exp_avg_sq f4 [64]
2.3839126e+12 2.0450315e+12 3.7919647e+11 0.0 1.9629682e+12 4.8829353e+11 1.8495545e+12 9.489078e+12
5.6366947e+12 3.8455706e+11 4.4846026e+11 0.0 3.2195401e+12 2.9609873e+11 0.0 1.08507044e+12
4.3670136e+12 3.4114608e+12 2.7103322e+12 2.9571332e+12 6.742456e+12 0.0 5.980708e+12 2.5593182e+12
1.8787122e+11 4.737282e+12 8.6538296e+12 4.2724432e+11 3.8530757e+11 1.844993e+12 3.2640375e+11 4.8635015e+12
3.504228e+12 9.187471e+10 2.5610578e+11 2.3614544e+11 5.157748e+11 2.6300714e+12 1.8279883e+11 1.188659e+11
9.409171e+11 1.6813426e+11 3.284668e+11 1.3228444e+12 2.632874e+12 0.0 3.740448e+12 1.2405128e+11
4.1622008e+12 3.0013595e+12 0.0 5.978347e+12 4.2573182e+11 1.2329929e+12 0.0 1.9254916e+11
3.990119e+12 1.6539581e+12 7.6163744e+11 9.821993e+11 2.3698331e+12 4.768496e+12 4.1943286e+12 1.7799284e+12
00000000: 11c3 0a54 b012 ee53 be93 b052 0000 0000
00000010: 0385 e453 2061 e352 0551 d753 9215 0a55
00000020: a60c a454 c612 b352 a1d4 d052 0000 0000
00000030: e366 3b54 b8e1 8952 0000 0000 3da3 7c53
00000040: 9331 7e54 ba92 4654 19c3 1d54 b820 2c54
00000050: 363b c454 0000 0000 bf0f ae54 d0f8 1454
00000060: fdf7 2e52 80df 8954 0edc fb54 7ef3 c652
00000070: 3e6c b352 14c9 d653 5cfe 9752 e98b 8d54
00000080: 11f9 4b54 4721 ab51 6084 6e52 76ed 5b52
00000090: 262d f052 1e17 1954 a33e 2a52 ae67 dd51
000000a0: 0813 5b53 5596 1c52 4bf4 9852 d6ff 9953
000000b0: e140 1954 0000 0000 05b9 5954 4310 e751
000000c0: a045 7254 beb3 2e54 0000 0000 28fe ad54
000000d0: 303f c652 0d8a 8f53 0000 0000 4c53 3352
000000e0: 6841 6854 cb8b c053 2155 3153 a4af 6453
000000f0: 44f1 0954 10c8 8a54 5e24 7454 0036 cf53
