lightning_logs/insurance/version_2/checkpoints/epoch=49-step=1300.ckpt (torch, 40258 bytes, 21 tensors)

input.weight f4 [32, 6]
0.813942 0.4028125 0.44465625 0.41864815 1.4129717 -0.29917827 -0.15834571 -0.27055234
0.29129192 0.17267878 0.093309395 -0.004189506 1.3286994 0.39019457 0.9267514 0.70775634
2.0253932 -0.31776944 1.2846351 0.5240735 0.9803625 0.12839448 1.9463015 -0.10903028
1.0943416 0.23807122 0.5621584 0.69029963 1.3848472 0.45802882 0.92722195 0.11570957
0.33271667 0.27651253 1.675972 0.33060566 0.65359086 0.58387834 1.1094121 0.6369267
1.7851869 0.32795334 0.96046096 -0.06357835 1.0686117 0.38238278 1.4618154 -0.3009106
1.2537954 0.07655154 0.47525853 0.12934852 2.0989761 -0.22676833 0.6792189 0.6143831
1.0705565 0.5921125 1.2396876 0.008585688 0.832845 -0.12569873 0.68619543 0.5295325
1.1935545 0.4784468 0.91670734 0.6243401 0.4975936 0.6597423 1.5114783 -0.2991425
1.1504304 0.45018843 0.6154634 0.9807807 1.5279945 0.17034443 0.9592185 0.66167176
1.0014454 0.81672466 1.7061795 0.14276972 1.2735608 0.59008557 0.7903743 0.27276754
1.3190843 0.034892164 0.7864753 0.0904062 0.82472354 0.2543831 1.8144569 -0.10014882
0.8290442 0.42780995 0.9038499 0.33291456 2.0167484 0.121692464 1.3758839 0.57725906
1.005506 0.62036216 1.9098471 -0.101463385 0.8286774 0.46770832 0.5454191 0.22724052
2.037542 0.43575993 1.411696 0.48372638 0.71875226 0.9545692 2.0169528 0.22275765
1.120614 -0.07576449 0.58877707 0.6118291 1.4905082 -0.36670282 0.83594614 0.23858948
0.9825348 0.87009805 1.286728 0.42389524 0.93431485 0.685867 0.36428046 0.9764743
1.3818102 0.54808694 0.8432605 0.31179583 0.87174 0.79209036 1.9753274 -0.095265314
0.7782227 -0.09010571 0.5047472 0.29827818 1.5316197 0.35872453 0.7197343 -0.06752086
0.49868208 0.6293823 1.9679184 0.0008039869 0.9364322 -0.18860866 0.41433856 0.5945473
1.2991098 -0.1358981 0.9801207 0.45312843 0.49298072 0.3350845 1.5573865 0.27921245
1.0173744 0.19070265 0.99676937 0.37832645 1.5965836 0.06951149 0.6000677 0.6140949
0.7649548 0.7802825 1.7405288 0.036633547 0.7442511 0.04257659 0.590744 0.5051876
1.843412 0.13093743 0.7077974 -0.096948154 0.87649274 0.82094896 1.4470189 -0.40269864
00000000: 815e 503f 713d ce3e fca9 e33e 0d59 d63e
00000010: 42dc b43f e52d 99be 6125 22be d685 8abe
00000020: 3724 953e b5d2 303e ff18 bf3d 2048 89bb
00000030: d212 aa3f 95c7 c73e 943f 6d3f 852f 353f
00000040: 0ba0 0140 adb2 a2be ec6e a43f ae29 063f
00000050: 09f9 7a3f d879 033e 6820 f93f 444b dfbd
00000060: 6313 8c3f f1c8 733e 9de9 0f3f 7ab7 303f
00000070: ac42 b13f c182 ea3e 6b5e 6d3f 24f9 ec3d
00000080: d759 aa3e 0d93 8d3e 4086 d63f 2545 a93e
00000090: bb51 273f 0d79 153f 3701 8e3f a10d 233f
000000a0: 0181 e43f 80e9 a73e c5e0 753f 5e35 82bd
000000b0: 45c8 883f adc7 c33e c41c bb3f f410 9abe
000000c0: 5e7c a03f 0ec7 9c3d 1655 f33e f073 043e
000000d0: a055 0640 f535 68be 4ae1 2d3f 3648 1d3f
000000e0: ff07 893f af94 173f 15ae 9e3f fcaa 0c3c
000000f0: 5435 553f 2bb7 00be 81aa 2f3f 718f 073f
00000100: 65c6 983f fbf6 f43e 55ad 6a3f c1d4 1f3f
00000110: 97c4 fe3e dfe4 283f 1f78 c13f 3529 99be
00000120: 4e41 933f 197f e63e 028f 1d3f 7214 7b3f
00000130: 5395 c33f c56e 2e3e 588f 753f 5263 293f
00000140: 5d2f 803f de14 513f 1764 da3f 3a32 123e
00000150: 0a04 a33f d90f 173f f855 4a3f 30a8 8b3e
00000160: c1d7 a83f 16eb 0e3d 7256 493f e326 b93d
00000170: 1521 533f 803e 823e 2040 e83f d31a cdbd
00000180: 3e3c 543f e809 db3e b562 673f c773 aa3e
00000190: 6812 0140 e639 f93d f71c b03f 40c7 133f
000001a0: 6cb4 803f 0ed0 1e3f df75 f43f 09cc cfbd
000001b0: 3424 543f 7777 ef3e 96a0 0b3f bdb1 683e
000001c0: 1767 0240 ed1b df3e 74b2 b43f fcaa f73e
000001d0: 2600 383f a65e 743f c115 0140 951a 643e
000001e0: 4870 8f3f 6a2a 9bbd 18ba 163f d5a0 1c3f
000001f0: f9c8 be3f 79c0 bbbe 9100 563f cd50 743e
00000200: 6787 7b3f bfbe 5e3f 81b3 a43f cc08 d93e
00000210: 422f 6f3f fb94 2f3f f882 ba3e 38fa 793f
00000220: 28df b03f 6d4f 0c3f ecdf 573f b4a3 9f3e
00000230: 5a2a 5f3f 6fc6 4a3f 87d7 fc3f 761a c3bd
00000240: 9a39 473f 5889 b8bd 1d37 013f ebb7 983e
00000250: 1d0c c43f beaa b73e 8240 383f 6048 8abd
00000260: 4253 ff3e 331f 213f c0e4 fb3f a6c2 523a
00000270: 05ba 6f3f a122 41be 2f24 d43e 4034 183f
00000280: 3b49 a63f df28 0bbe 31e9 7a3f 7300 e83e
00000290: f867 fc3e 3290 ab3e 7158 c73f eff4 8e3e
000002a0: 5339 823f 8e47 433e 472c 7f3f 01b4 c13e
000002b0: da5c cc3f 0a5c 8e3d 099e 193f 5335 1d3f
000002c0: 14d4 433f 98c0 473f a6c9 de3f 0f0d 163d
000002d0: 3d87 3e3f ca64 2e3d 003b 173f f953 013f
000002e0: edf4 eb3f 7614 063e 3632 353f c18c c6bd
000002f0: d461 603f b629 523f ea37 b93f 842e cebe

input.bias f4 [32]
0.7047787 -0.3672341 0.7763857 0.3539378 0.7252591 0.34742457 0.9355242 0.89157104
0.12238105 0.8051729 0.6203587 0.8739496 0.64263064 0.9150696 0.700494 0.49751663
0.8133066 0.4821964 0.24921772 0.4641491 0.58145773 0.72452533 0.65312165 0.22337149
0.52016115 0.95412195 0.688316 0.4050501 0.64241284 0.71944904 0.81887996 0.28361848
00000000: 606c 343f 1c06 bcbe 37c1 463f 5637 b53e
00000010: 95aa 393f a2e1 b13e 847e 6f3f 003e 643f
00000020: eaa2 fa3d d01f 4e3f d4cf 1e3f 29bb 5f3f
00000030: 7183 243f 0042 6a3f 9353 333f 80ba fe3e
00000040: dd34 503f 72e2 f63e ee32 7f3e f3a4 ed3e
00000050: 6ada 143f 7e7a 393f fb32 273f 7fbb 643e
00000060: 4829 053f 5641 743f 7a35 303f ba62 cf3e
00000070: 2b75 243f d02d 383f 1ea2 513f 7136 913e

hidden.0.0.weight f4 [32, 32]
1.0696943 -0.026159342 1.2038808 1.1577832 0.8671591 0.88489366 0.75389 0.9463099
1.3779299 0.7228653 0.77040213 0.8371612 0.7451588 0.7267662 0.9791731 1.1189636
0.91571623 0.96096855 0.76225096 0.81828403 1.2326452 0.8322323 0.5693223 1.015487
0.7928817 0.8663053 0.889978 0.7198592 0.81639713 0.79819435 0.79325014 1.3615611
1.1064737 0.06472319 1.2403246 0.9984856 0.86843 0.9999408 0.8539123 1.0135975
1.315875 0.8346227 0.8621105 1.096258 0.7891852 0.80680734 0.89743733 0.9809882
1.0085502 1.0577296 0.88899976 0.9568484 1.2434762 0.6500488 0.66582686 1.0266459
0.8822875 1.1102216 0.8616568 0.84488505 0.8110881 0.7388772 0.8678888 1.2623678
0.98659885 0.023548998 1.1524898 1.0808665 0.8714104 0.9424752 0.95222694 0.9095109
1.1531179 0.7926052 0.6995887 0.96318865 0.89279944 0.8932845 1.008603 1.0498532
0.9733837 0.8371485 0.96496916 0.8307887 1.2314299 0.8839663 0.7531872 0.9598898
0.7350463 1.0254352 1.1718237 0.7976851 0.8819682 0.7358161 1.0547624 1.3742088
0.07255259 -0.022473052 0.08276783 -0.06444681 -0.11773389 -0.07055975 0.007253453 -0.063776776
0.01206471 -0.07156562 0.17008783 0.043170527 0.13857429 0.009835854 0.15887244 0.17337681
-0.15940821 -0.082815565 -0.0787466 0.13227148 -0.17306744 -0.17401262 -0.06779694 0.08965506
0.12669237 -0.1292142 -0.10965611 -0.1363119 -0.14702125 0.062466472 -0.029406577 0.058117032
0.13022423 0.004291258 -0.1334506 -0.10286225 -0.1336193 0.07788885 -0.019963061 0.12830918
-0.18618204 0.020483492 -0.055058096 0.14035177 0.025431609 0.067801796 -0.1562246 0.060659155
0.074994765 -0.08151585 0.08718316 0.1323084 -0.17455465 0.097560756 -0.14027068 0.13924105
-0.15180758 -0.034956038 -0.06894705 -0.070387326 0.013366229 -0.057635415 -0.18147421 -0.028070157
1.2115223 0.1107439 0.8869505 1.1172776 0.68946147 0.80663484 0.9416243 1.1763551
1.2035981 0.78534114 0.73928034 0.8132515 0.7721494 0.95893866 0.7222172 1.1312834
0.9090462 1.0682172 0.9075846 0.9484742 1.0543433 0.8101122 0.6391354 1.1540756
0.8971279 1.1494489 1.1110938 0.9867337 0.9033259 0.76823133 0.98039544 1.106179
1.1044091 -0.0926826 1.2296916 1.1816498 0.8860329 0.98738265 0.86435467 1.2241073
1.1991153 0.7528222 0.78714466 1.0114731 0.90737426 0.88032174 0.8559653 1.0116616
1.0599687 1.1648941 0.8367173 0.7927419 1.0968046 0.75562745 0.82070285 1.1741027
1.0360855 1.0067536 0.8710373 0.7171305 1.0649385 0.96529245 0.9291669 1.4354019
0.0694776 -0.13175228 0.14423846 -0.07227419 -0.017789552 -0.122160494 -0.04819594 -0.03571295
0.13509737 -0.059128802 -0.17835078 -0.16623761 -0.081863046 -0.048877083 -0.11917632 0.07464206
0.14866608 0.04130835 -0.13792373 0.010386498 -0.050022297 0.105642736 0.032947388 0.09397914
0.026501214 0.04877483 -0.16121651 0.078980595 -0.11212983 0.0027420074 -0.03387919 0.16443814
00000000: beeb 883f 1e4c d6bc c418 9a3f 3d32 943f
00000010: 24fe 5d3f 6488 623f effe 403f 5e41 723f
00000020: 0260 b03f b30d 393f 1339 453f 3250 563f
00000030: bac2 3e3f 5a0d 3a3f 17ab 7a3f 333a 8f3f
00000040: 616c 6a3f 0902 763f e122 433f 107b 513f
00000050: 51c7 9d3f 2d0d 553f 1bbf 113f 7afb 813f
00000060: 4cfa 4a3f 2fc6 5d3f 99d5 633f b148 383f
00000070: 67ff 503f 7756 4c3f 7112 4b3f a247 ae3f
00000080: eea0 8d3f 988d 843d f5c2 9e3f c19c 7f3f
00000090: 6e51 5e3f 1ffc 7f3f ff99 5a3f 90bd 813f
000000a0: 986e a83f d5a9 553f 46b3 5c3f 2f52 8c3f
000000b0: 0b08 4a3f ed8a 4e3f 74be 653f 0b22 7b3f
000000c0: 2c18 813f af63 873f 7d95 633f 04f4 743f
000000d0: 3a2a 9f3f 9969 263f a173 2a3f 2269 833f
000000e0: 98dd 613f be1b 8e3f 8a95 5c3f 634a 583f
000000f0: 78a3 4f3f 0e27 3d3f f62d 5e3f 4595 a13f
00000100: be91 7c3f d4e9 c03c c984 933f d559 8a3f
00000110: c114 5f3f 0e46 713f 25c5 733f b5d5 683f
00000120: 5e99 933f 2de8 4a3f 3f18 333f 8893 763f
00000130: 818e 643f 4bae 643f e719 813f 9761 863f
00000140: ad2f 793f 5d4f 563f 3808 773f 91ae 543f
00000150: 7f9f 9d3f 9e4b 623f e0d0 403f 57bb 753f
00000160: ff2b 3c3f 7641 833f 52fe 953f 1735 4c3f
00000170: abc8 613f 725e 3c3f 7402 873f 13e6 af3f
00000180: 7496 943d 6819 b8bc 2e82 a93d b0fc 83bd
00000190: 771e f1bd a181 90bd 60ae ed3b 669d 82bd
000001a0: 10ab 453c ff90 92bd 812b 2e3e 94d3 303d
000001b0: 6be6 0d3e 9026 213c 75af 223e b189 313e
000001c0: e83b 23be 359b a9bd e645 a1bd 2d72 073e
000001d0: 9738 31be 5d30 32be 1fd9 8abd 129d b73d
000001e0: a5bb 013e ba50 04be 6293 e0bd 5995 0bbe
000001f0: bd8c 16be d8dc 7f3d 10e6 f0bc 200c 6e3d
00000200: 8059 053e ae9d 8c3b 46a7 08be 71a9 d2bd
00000210: 7fd3 08be 3084 9f3d 9389 a3bc 7b63 033e
00000220: 81a6 3ebe ffcc a73c 9984 61bd 60b8 0f3e
00000230: f355 d03c abdb 8a3d 57f9 1fbe bc75 783d
00000240: db96 993d c8f1 a6bd 168d b23d da7b 073e
00000250: 74be 32be efcd c73d 1ea3 0fbe 3595 0e3e
00000260: 7273 1bbe 102e 0fbd 1c34 8dbd 3b27 90bd
00000270: 07fe 5a3c 1d13 6cbd 60d4 39be 63f3 e5bc
00000280: 2a13 9b3f b3cd e23d 300f 633f f402 8f3f
00000290: 8c80 303f 9f7f 4e3f 4a0e 713f ce92 963f
000002a0: 810f 9a3f 1e0c 493f 7a41 3d3f 4031 503f
000002b0: 95ab 453f 017d 753f 3ae3 383f e5cd 903f
000002c0: 40b7 683f 57bb 883f 7757 683f 35cf 723f
000002d0: b9f4 863f 8363 4f3f 619e 233f c0b8 933f
000002e0: 2daa 653f 2421 933f 5238 8e3f 949a 7c3f
000002f0: 5e40 673f cfaa 443f 32fb 7a3f 4697 8d3f
00000300: 475d 8d3f 60d0 bdbd 8966 9d3f 4d40 973f
00000310: 0dd3 623f 1cc5 7c3f 5946 5d3f 8caf 9c3f
00000320: 9c7c 993f f5b8 403f 5082 493f f377 813f
00000330: ae49 683f c45c 613f 8b20 5b3f 217e 813f
00000340: 0ead 873f 401b 953f 1b33 563f 22f1 4a3f
00000350: 1864 8c3f cd70 413f 9519 523f ff48 963f
00000360: 739e 843f 4ddd 803f 4dfc 5e3f dd95 373f
00000370: e84f 883f 681d 773f e2dd 6d3f 40bb b73f
00000380: 464a 8e3d 12ea 06be 3fb3 133e 7e04 94bd
00000390: 65bb 91bc 482f fabd 1b69 45bd be47 12bd
000003a0: f756 0a3e 0b31 72bd 96a1 36be 313a 2abe
000003b0: d0a7 a7bd 5633 48bd b712 f4bd f0dd 983d
000003c0: ec3b 183e f232 293d e13b 0dbe 212c 2a3c
000003d0: 2ee4 4cbd 385b d83d d7f3 063d 2378 c03d
000003e0: 1319 d93c 1ec8 473d f115 25be 94c0 a13d
000003f0: 53a4 e5bd 40b3 333b e8c4 0abd 7962 283e

hidden.0.0.bias f4 [32]
0.5096975 0.39220902 0.52407885 -0.12952065 0.056669433 0.40837038 0.55679595 -0.18076229
0.53913474 0.47449225 0.66435945 -0.15745011 0.47080523 0.029362366 -0.14005266 0.49688536
0.5378796 0.5512643 0.58398217 0.40542337 -0.023857206 0.55285585 0.08020663 0.0642065
0.44266394 0.38092184 0.4790332 0.5489705 0.008837729 0.54544806 0.5388589 -0.16484317
00000000: 897b 023f 9fcf c83e 082a 063f 10a1 04be
00000010: 351e 683d ec15 d13e 2e8a 0e3f c019 39be
00000020: bc04 0a3f a6f0 f23e 7613 2a3f 9a3a 21be
00000030: 620d f13e 5889 f03c f769 0fbe c267 fe3e
00000040: 7ab2 093f a81f 0d3f db7f 153f a793 cf3e
00000050: 3070 c3bc f687 0d3f 6043 a43d b37e 833d
00000060: d9a4 e23e 3008 c33e d743 f53e 5589 0c3f
00000070: 1fcc 103c 7ca2 0b3f a8f2 093f a6cc 28be

hidden.1.0.weight f4 [32, 32]
0.79825366 0.79487234 0.81657976 0.14894243 0.039784394 1.1188269 1.0678592 0.16817033
0.80270517 1.0960876 0.8580097 -0.13531923 1.0581578 0.029661683 0.0023073195 0.86174434
1.1195087 1.1354448 1.0212239 0.9199905 -0.12618716 1.0392898 0.1153533 0.07270981
0.8500753 1.1424646 0.9626046 0.914881 0.16718957 1.0108519 0.92192906 -0.004295188
0.10299227 -0.04426412 -0.17133652 0.15912731 -0.16215472 0.10073594 -0.042444542 -0.18159156
-0.12455282 -0.038644977 -0.09396046 0.050445482 -0.10722366 -0.12811129 0.038581025 -0.15016326
0.050729375 -0.07288506 0.012268992 -0.004999409 -0.029169831 -0.13989106 0.0132775605 -0.12752406
0.012944821 0.08427913 -0.15010747 -0.12539832 0.011029642 -0.013291518 -0.12950687 -0.18774457
0.11286609 -0.13558355 0.0722461 -0.06968787 -0.13814223 -0.052785378 0.16345549 -0.14065075
-0.13228083 0.07929571 -0.109564364 0.05940461 0.06537933 0.028642222 0.1304506 -0.11579484
0.088942625 -0.0019900305 -0.15889291 -0.13879853 0.01603747 -0.11134931 -0.095161974 0.06000767
-0.08357867 0.027695868 0.030061143 0.12702957 -0.13704829 -0.06352807 0.1118774 0.13924704
0.91291636 0.89320827 0.8674073 0.14911394 -0.080819964 1.0405576 0.96747154 -0.13593458
0.79277986 0.8525318 1.0598818 -0.056559317 0.88060397 -0.053747095 0.09040775 1.0479499
0.7981869 0.8208415 1.0446206 1.1160575 -0.09731234 0.8342372 0.079603836 -0.15137084
0.87586445 0.7824173 0.8763233 0.89716583 -0.018806634 1.0360616 0.81759405 -0.079976134
0.009663825 -0.14078417 -0.12291989 0.013770372 0.16007048 0.025751246 0.04755876 -0.10148375
-0.073792994 -0.15540239 0.07157844 -0.040832326 -0.091571055 0.022925768 -0.16361253 0.042053163
-0.12107978 0.11978882 -0.18964157 0.16158031 -0.1712194 0.09759189 -0.13322207 0.13271375
-0.17558421 0.078729644 0.13244456 0.06946699 0.065989606 0.14020947 0.029823417 -0.16182171
0.8425898 0.89096504 0.98472756 0.08102296 -0.12595478 1.0127145 0.8736269 0.02821095
0.75299466 0.87229425 1.0873983 -0.13194586 0.9429106 -0.14014462 0.045552123 0.93586993
0.8403865 0.9390241 1.0381956 0.97072154 -0.13001558 1.0213212 0.0054246634 -0.16844524
0.87602705 0.80002224 0.90930116 0.85987973 -0.038226932 1.0447737 0.9819074 -0.04477775
-0.10565553 -0.17555241 -0.13143636 0.09949519 -0.020827275 -0.036925036 0.15400815 -0.15863968
-0.18365681 -0.001876384 -0.17256574 -0.17245397 -0.13035175 -0.1053885 0.025414186 -0.16913445
0.1155068 0.1462489 0.09861513 -0.12109885 0.17558245 -0.05457599 0.06867629 0.1266165
0.112758934 0.047975212 0.007174703 0.120375656 0.04859741 -0.030057933 -0.15345834 -0.16900904
0.9199393 0.987074 1.0039262 -0.16500756 -0.093398914 0.82776314 0.7581995 -0.027141834
0.7820342 0.85371995 0.77916074 0.07238175 0.89744633 -0.110996075 -0.078853786 1.0584806
0.9101403 1.0263844 1.0062039 0.9978078 -0.15155151 0.9983027 -0.08244206 0.052189723
1.0316005 0.8838327 0.883074 0.89108115 0.017621692 0.95271945 0.82424086 -0.14361733
00000000: 5a5a 4c3f c17c 4b3f 5f0b 513f 5d84 183e
00000010: f6f4 223d b835 8f3f 9caf 883f d834 2c3e
00000020: 167e 4d3f 994c 8c3f 86a6 5b3f 2091 0abe
00000030: b771 873f 0ffd f23c 6636 173b 479b 5c3f
00000040: 104c 8f3f 4156 913f 77b7 823f 7f84 6b3f
00000050: 3537 01be 7307 853f 5a3e ec3d e2e8 943d
00000060: 899e 593f 483c 923f 416d 763f a435 6a3f
00000070: be33 2b3e 9863 813f 8b03 6c3f a6be 8cbb
00000080: 9ced d23d 4b4e 35bd d772 2fbe 45f2 223e
00000090: e30b 26be a54e ce3d 54da 2dbd 23f3 39be
000000a0: 8d15 ffbd 324a 1ebd 576e c0bd ec9f 4e3d
000000b0: 1498 dbbd 9b2f 03be 2307 1e3d 66c4 19be
000000c0: 9bc9 4f3d c344 95bd e203 493c 15d2 a3bb
000000d0: 92f5 eebc 9a3f 0fbe 208a 593c ab95 02be
000000e0: 8416 543c 899a ac3d c6b5 19be 6b68 00be
000000f0: acb5 343c abc4 59bc 739d 04be 1d40 40be
00000100: 5626 e73d 6ad6 0abe c3f5 933d 84b8 8ebd
00000110: 2875 0dbe 7b35 58bd e060 273e c006 10be
00000120: a074 07be ca65 a23d 4863 e0bd 4052 733d
00000130: 99e5 853d 18a3 ea3c d894 053e d825 edbd
00000140: 8d27 b63d 2c6b 02bb d3b4 22be 3421 0ebe
00000150: 0361 833c 1b0b e4bd 48e4 c2bd 9aca 753d
00000160: 4b2b abbd 72e2 e23c c942 f63c 0a14 023e
00000170: 6356 0cbe 011b 82bd fa1f e53d c796 0e3e
00000180: e3b4 693f 4ca9 643f 680e 5e3f 53b1 183e
00000190: f084 a5bd fe30 853f 37ac 773f 6f32 0bbe
000001a0: 9ff3 4a3f 863f 5a3f 35aa 873f beaa 67bd
000001b0: 436f 613f ea25 5cbd b327 b93d 3923 863f
000001c0: fa55 4c3f ab22 523f 21b6 853f f9da 8e3f
000001d0: b14b c7bd 9290 553f 5607 a33d f500 1bbe
000001e0: a738 603f 804c 483f b956 603f a9ac 653f
000001f0: 5f10 9abc ab9d 843f d84d 513f 87ca a3bd
00000200: 0555 1e3c ba29 10be 6cbd fbbd 209d 613c
00000210: 84e9 233e 47f4 d23c f9cc 423d b6d6 cfbd
00000220: c820 97bd ce21 1fbe b897 923d cc3f 27bd
00000230: 9b89 bbbd d2ce bb3c 0b8a 27be f03f 2c3d
00000240: adf8 f7bd d753 f53d 6631 42be 4f75 253e
00000250: 2354 2fbe 42de c73d 5e6b 08be 1de6 073e
00000260: 59cc 33be 023d a13d 8c9f 073e b644 8e3d
00000270: 8f25 873d 1293 0f3e 3d50 f43c 97b4 25be
00000280: f7b3 573f 4916 643f 1b17 7c3f 5eef a53d
00000290: 4afa 00be a1a0 813f 03a6 5f3f a61a e73c
000002a0: 42c4 403f ad4e 5f3f de2f 8b3f d11c 07be
000002b0: 9762 713f 1282 0fbe dd94 3a3d 2c95 6f3f
000002c0: 9223 573f e263 703f 98e3 843f 3581 783f
000002d0: ce22 05be a7ba 823f 60c1 b13b e97c 2cbe
000002e0: 4f43 603f 42ce 4c3f f6c7 683f 1421 5c3f
000002f0: d893 1cbd 25bb 853f 495e 7b3f e068 37bd
00000300: ed61 d8bd 03c4 33be 4197 06be 22c4 cb3d
00000310: f69d aabc b53e 17bd 50b4 1d3e 7172 22be
00000320: 8810 3cbe 00f1 f5ba 13b5 30be c697 30be
00000330: ee7a 05be edd5 d7bd 6931 d03c 9531 2dbe
00000340: d48e ec3d 46c2 153e bbf6 c93d ad02 f8bd
00000350: e3cb 333e 138b 5fbd 28a6 8c3d c1a7 013e
00000360: 28ee e63d a881 443d c519 eb3b 8387 f63d
00000370: 140e 473d 0e3c f6bc 2f24 1dbe b510 2dbe
00000380: 2481 6b3f e2b0 7c3f a780 803f bef7 28be
00000390: ee47 bfbd 49e8 533f 5d19 423f 8d58 debc
000003a0: 6533 483f 648d 5a3f 1477 473f e23c 943d
000003b0: 0bbf 653f e951 e3bd 187e a1bd 4b7c 873f
000003c0: f4fe 683f 9060 833f 4acb 803f 5570 7f3f
000003d0: 5230 1bbe c490 7f3f 62d7 a8bd e4c4 553d
000003e0: 7c0b 843f dc42 623f 2311 623f e51d 643f
000003f0: 5e5b 903c 6ce5 733f 7301 533f 6c10 13be

hidden.1.0.bias f4 [32]
0.4751022 0.13698195 -0.07260872 0.5229186 -0.12791194 0.4883174 -0.051201336 0.4283235
-0.074283004 -0.13572726 -0.03093724 -0.041925844 -0.15289055 -0.12872829 -0.017557587 -0.09115425
0.049457595 -0.14197947 -0.12810482 0.1275605 0.6163412 0.43669716 0.00026697305 0.6081955
0.053861313 -0.08817051 0.3238768 0.5779679 0.30994332 -0.015645897 0.29532707 0.38563207
00000000: 9840 f33e ff44 0c3e e1b3 94bd fedd 053f
00000010: 59fb 02be bd04 fa3e 7eb8 51bd 384d db3e
00000020: b021 98bd 16fc 0abe 1870 fdbc 6fba 2bbd
00000030: 578f 1cbe 59d1 03be eed4 8fbc 14af babd
00000040: 0c94 4a3d 1163 11be e92d 03be 389f 023e
00000050: 89c8 1d3f c596 df3e 84f8 8b39 b3b2 1b3f
00000060: ae9d 5c3d be92 b4bd 2ed3 a53e b4f5 133f
00000070: e4b0 9e3e d32b 80bc 1c35 973e 9171 c53e

output.weight f4 [1, 32]
0.98348075 -0.061656 -0.074437514 1.1269381 -0.04460255 0.9581334 -0.11687315 1.0641867
-0.03728326 -0.026477769 -0.090619236 -0.15210475 -0.03742295 -0.07913649 -0.07875758 -0.10586845
-0.002821314 0.16271742 -0.022280127 -0.122900285 0.97726315 1.0899683 -0.08326542 0.9586635
-0.13971816 0.031446204 1.0890312 0.99974954 1.0739547 -0.13319694 1.0376719 1.0811318
00000000: 65c5 7b3f 008b 7cbd b272 98bd 823f 903f
00000010: 2ab1 36bd 3b48 753f 315b efbd 4537 883f
00000020: 55b6 18bd e8e7 d8bc 9496 b9bd 59c1 1bbe
00000030: cf48 19bd 5012 a2bd a74b a1bd 8fd1 d8bd
00000040: cbe5 38bb 659f 263e d084 b6bc 25b3 fbbd
00000050: eb2d 7a3f 1584 8b3f 0f87 aabd f96a 753f
00000060: 4712 0fbe bccd 003d 6065 8b3f 96ef 7f3f
00000070: 5977 893f c764 08be 6fd2 843f 8762 8a3f

exp_avg f4 [32, 6]
2235.3416 419480.28 66308.85 124924.2 -853313.6 806332.0 0.0 0.0
0.0 0.0 0.0 0.0 2339.2563 437066.1 69282.59 130161.0
-889122.44 843013.44 2325.5674 419629.9 66684.95 124967.65 -853569.2 816802.25
1596.1396 301291.0 47917.62 89745.29 -613089.25 586733.06 1931.5187 344900.38
54829.113 102719.58 -701496.56 671385.56 1709.6632 321275.06 51089.53 95694.945
-653723.25 625604.2 2313.5781 421467.75 66978.875 125516.78 -857382.7 820423.8
-16423.303 416527.72 5945.0615 121954.16 -1.03700244e+06 454216.97 1682.4601 317079.94
50423.05 94445.53 -645202.1 617441.9 1527.8092 284961.44 45324.684 84881.73
-579803.3 554917.56 2045.0281 373127.16 59309.656 111125.67 -759046.0 726371.8
1737.621 320781.4 51008.12 95544.91 -652624.3 624581.3 1803.8905 339104.34
53918.47 101003.1 -690006.25 660300.6 1794.0718 334244.97 53144.848 99553.84
-680073.1 650810.1 2325.1758 412734.38 65587.61 122911.41 -839421.2 803306.56
2016.4336 368274.2 58542.074 109682.336 -749180.44 716947.56 2142.076 388938.72
61818.168 115832.6 -791180.4 757122.44 1927.0405 345737.47 54963.117 102969.94
-703223.1 673030.8 1963.0219 358290.75 56957.94 106710.305 -728867.6 697523.9
-8432.619 396132.47 37326.76 130854.53 -940329.2 589898.3 1480.8834 280495.7
44618.516 83554.47 -570784.7 546270.7 1448.1068 277907.22 44208.0 82785.25
-565577.44 541269.5 2349.6406 417567.88 66354.64 124351.04 -849254.75 812712.1
1831.9734 330030.34 52471.85 98294.445 -671304.56 642492.6 2246.8125 407293.88
64730.51 121297.3 -828509.9 792831.8 2205.589 395279.34 62821.06 117717.3
-803995.6 769402.56 1766.4296 320292.03 50927.203 95395.94 -651528.9 623563.9
1926.4835 349465.34 55556.527 104081.21 -710877.94 680325.1 1877.1453 343302.7
54579.996 102248.266 -698382.56 668360.0 2043.1531 369862.06 58792.414 110153.516
-752355.56 720002.4 -79895.94 259205.1 -62085.14 116848.69 -1.001431e+06 20990.465
00000000: 77b5 0b45 09d3 cc48 6d82 8147 1afe f347
00000010: 1a54 50c9 c0db 4449 0000 0000 0000 0000
00000020: 0000 0000 0000 0000 0000 0000 0000 0000
00000030: 1a34 1245 4369 d548 4c51 8747 8038 fe47
00000040: 2712 59c9 57d0 4d49 1459 1145 bde5 cc48
00000050: 7a3e 8247 d313 f447 1364 50c9 246a 4749
00000060: 7884 c744 601d 9348 9f2d 3b47 a548 af47
00000070: 14ae 15c9 d13e 0f49 9970 f144 8c68 a848
00000080: 1d2d 5647 ca9f c847 8943 2bc9 99e9 2349
00000090: 39b5 d544 62df 9c48 8891 4747 79e7 ba47
000000a0: b499 1fc9 43bc 1849 4099 1045 78cb cd48
000000b0: 70d1 8247 6426 f547 6b52 51c9 7d4c 4849
000000c0: 9b4e 80c6 f761 cb48 7ec8 b945 1431 ee47
000000d0: a72c 7dc9 1fc9 dd48 b94e d244 fed2 9a48
000000e0: 0df7 4447 c476 b847 2285 1dc9 1ebe 1649
000000f0: e5f9 be44 2e24 8b48 af0c 3147 ddc8 a547
00000100: b58d 0dc9 597a 0749 e6a0 ff44 e530 b648
00000110: a8ad 6747 d60a d947 6050 39c9 3d56 3149
00000120: df33 d944 ada1 9c48 1f40 4747 749c ba47
00000130: 0555 1fc9 557c 1849 7f7c e144 0b94 a548
00000140: 789e 5247 8d45 c547 6475 28c9 ca34 2149
00000150: 4c42 e044 9f34 a348 d998 4f47 ec70 c247
00000160: 9208 26c9 a2e3 1e49 d052 1145 cc87 c948
00000170: ce19 8047 b40f f047 d3ef 4cc9 a91e 4449
00000180: e00d fc44 46d2 b348 13ae 6447 2b39 d647
00000190: c7e7 36c9 3909 2f49 37e1 0545 57e9 bd48
000001a0: 2b7a 7147 4d3c e247 c628 41c9 27d8 3849
000001b0: 4ce1 f044 2fd1 a848 1eb3 5647 f81c c947
000001c0: 72af 2bc9 6d50 2449 b360 f544 58f2 ae48
000001d0: f17d 5e47 276b d047 3af2 31c9 3e4b 2a49
000001e0: 7ac2 03c6 8f6c c148 c3ce 1147 4493 ff47
000001f0: 9392 65c9 a504 1049 451c b944 f6f5 8848
00000200: 844a 2e47 3c31 a347 0b5a 0bc9 eb5d 0549
00000210: 6b03 b544 67b2 8748 00b0 2c47 a0b0 a147
00000220: 9714 0ac9 5825 0449 40da 1245 fce3 cb48
00000230: 5299 8147 85df f247 6c56 4fc9 826a 4649
00000240: 26ff e444 cb25 a148 daf7 4c47 39fb bf47
00000250: 89e4 23c9 cadb 1c49 006d 0c45 bcdf c648
00000260: 83da 7c47 a6e8 ec47 de45 4ac9 fd8f 4149
00000270: 6dd9 0945 eb01 c148 0f65 7547 a6ea e547
00000280: ba49 44c9 a9d7 3b49 bfcd dc44 8164 9c48
00000290: 34ef 4647 f851 ba47 8e10 1fc9 be3c 1849
000002a0: 79cf f044 2ba3 aa48 8704 5947 9b48 cb47
000002b0: df8d 2dc9 5218 2649 a6a4 ea44 d6a0 a748
000002c0: ff33 5547 22b4 c747 e980 2ac9 802c 2349
000002d0: e664 ff44 c298 b448 6aa8 6547 c224 d747
000002e0: 39ae 37c9 26c8 2f49 f80b 9cc7 4621 7d48
000002f0: 2485 72c7 5838 e447 707d 74c9 eefc a346

exp_avg_sq f4 [32, 6]
1.6011767e+11 2.5834368e+11 1.0703242e+11 4.5443334e+10 7.251828e+11 1.9067407e+12 2.310827 0.0
7.4997454 2.3486657 13.083296 64.17136 1.635395e+11 2.6984373e+11 1.10619386e+11 4.701251e+10
7.5185285e+11 1.9864411e+12 1.5228047e+11 2.4973995e+11 1.0266349e+11 4.3625656e+10 6.9731916e+11 1.8391746e+12
1.12705135e+11 1.6916069e+11 7.268078e+10 3.07227e+10 4.8775696e+11 1.267617e+12 1.16736926e+11 1.8429152e+11
7.716738e+10 3.2733819e+10 5.224205e+11 1.3664297e+12 1.1707967e+11 1.8010204e+11 7.642877e+10 3.2355346e+10
5.154879e+11 1.3447717e+12 1.6034652e+11 2.5982747e+11 1.0744199e+11 4.5620482e+10 7.281971e+11 1.9174172e+12
1.8920527e+11 3.206022e+11 1.2929553e+11 5.523341e+10 8.8924186e+11 2.2774245e+12 1.1771739e+11 1.7935575e+11
7.647107e+10 3.2359332e+10 5.15169e+11 1.3409177e+12 1.0456326e+11 1.5494578e+11 6.6991964e+10 2.8306113e+10
4.490196e+11 1.162806e+12 1.2936364e+11 2.0893023e+11 8.652047e+10 3.674772e+10 5.888079e+11 1.545523e+12
1.10300635e+11 1.7189e+11 7.2455e+10 3.0708871e+10 4.907855e+11 1.2806371e+12 1.2578879e+11 1.9529384e+11
8.249838e+10 3.4939785e+10 5.568304e+11 1.4556259e+12 1.2264259e+11 1.8972836e+11 8.0277996e+10 3.3999835e+10
5.4192996e+11 1.4143699e+12 1.4183457e+11 2.3437474e+11 9.596721e+10 4.0815043e+10 6.535396e+11 1.7228918e+12
1.2972373e+11 2.0776015e+11 8.640552e+10 3.66703e+10 5.8611053e+11 1.5386912e+12 1.3566939e+11 2.2110059e+11
9.1169325e+10 3.8732923e+10 6.2005916e+11 1.6321802e+12 1.1581069e+11 1.8397898e+11 7.680521e+10 3.2589294e+10
5.2058132e+11 1.3634735e+12 1.2348955e+11 1.9768594e+11 8.223399e+10 3.490064e+10 5.581534e+11 1.4647579e+12
1.7164224e+11 2.813149e+11 1.1535865e+11 4.970668e+10 7.9491845e+11 2.0382954e+12 1.01696225e+11 1.5150932e+11
6.5332666e+10 2.7613872e+10 4.3912643e+11 1.1377921e+12 1.0454913e+11 1.5417418e+11 6.6839142e+10 2.8226347e+10
4.4779536e+11 1.1596358e+12 1.4296842e+11 2.3749371e+11 9.700148e+10 4.1265037e+10 6.609082e+11 1.7443772e+12
1.1417222e+11 1.7727355e+11 7.484847e+10 3.1717587e+10 5.0541494e+11 1.3185055e+12 1.4902654e+11 2.419082e+11
9.994635e+10 4.2443457e+10 6.777392e+11 1.7849998e+12 1.4311116e+11 2.299548e+11 9.545384e+10 4.0529203e+10
6.471605e+11 1.698509e+12 1.0801227e+11 1.6817724e+11 7.09089e+10 3.0056751e+10 4.799519e+11 1.2516406e+12
1.19250035e+11 1.8968065e+11 7.914001e+10 3.3583194e+10 5.3711602e+11 1.4065521e+12 1.172063e+11 1.8589545e+11
7.767378e+10 3.295471e+10 5.271766e+11 1.3798742e+12 1.2933292e+11 2.0719388e+11 8.6148555e+10 3.656582e+10
5.8429374e+11 1.5334546e+12 1.600994e+11 2.4764701e+11 1.0464936e+11 4.6863372e+10 7.700528e+11 1.5865753e+12
00000000: 071f 1552 ef99 7052 095d c751 244a 2951
00000010: 43d8 2853 4df9 dd53 97e4 1340 0000 0000
00000020: eafd ef40 8a50 1640 2e55 5141 bc57 8042
00000030: db4e 1852 c24f 7b52 6f0b ce51 a022 2f51
00000040: ec0d 2f53 8f40 e753 7ed2 0d52 a596 6852
00000050: c439 bf51 ab84 2251 765b 2253 ad1b d653
00000060: ffed d151 0d8b 1d52 e660 8751 e6e6 e450
00000070: 2921 e352 ee91 9353 8170 d951 86a2 2b52
00000080: 46bc 8f51 cee2 f350 6045 f352 c712 9f53
00000090: f013 da51 acbb 2752 145c 8e51 ed10 f150
000000a0: f20a f052 528d 9c53 9755 1552 b2fb 7152
000000b0: 5520 c851 15f3 2951 ee8b 2953 7c37 df53
000000c0: 0d36 3052 c34a 9552 ead4 f051 afc2 4d51
000000d0: f20a 4f53 4590 0454 0744 db51 be09 2752
000000e0: 3f70 8e51 8718 f150 eee4 ef52 761a 9c53
000000f0: a6c3 c251 f44d 1052 8490 7951 a0e5 d250
00000100: 4f17 d152 525e 8753 64f5 f051 d994 4252
00000110: 2d28 a151 5be5 0851 b017 0953 2dec b353
00000120: 7173 cd51 c515 2052 3cf5 8651 86cc e450
00000130: 318a e452 f615 9553 c54c ea51 aee1 3552
00000140: 4baa 9951 2d29 0251 aea5 0153 0875 a953
00000150: 8b70 e451 c4b2 3052 8887 9551 8a51 fd50
00000160: 165b fc52 82a7 a453 ff17 0452 4b47 5a52
00000170: bbc0 b251 420c 1851 ff29 1853 2d92 c853
00000180: 18a1 f151 e17d 4152 5df1 a051 869b 0851
00000190: e976 0853 9220 b353 35b4 fc51 7dea 4d52
000001a0: ecd0 a951 984a 1051 685e 1053 c302 be53
000001b0: d7b6 d751 0258 2b52 940f 8f51 25cf f250
000001c0: 216a f252 adba 9e53 6804 e651 001c 3852
000001d0: 392c 9951 d803 0251 89f4 0153 3085 aa53
000001e0: b3da 1f52 59ff 8252 4adf d651 fc2b 3951
000001f0: d514 3953 f049 ed53 8a6c bd51 a31a 0d52
00000200: 1662 7351 48bd cd50 f37b cc52 d974 8453
00000210: e9bc c251 fd95 0f52 c6fe 7851 7c4d d250
00000220: 5e85 d052 d7ff 8653 5426 0552 ea2e 5d52
00000230: e9ad b451 68b9 1951 33e1 1953 7e12 cb53
00000240: 8fa9 d451 4f19 2552 886a 8b51 7f50 ec50
00000250: 285a eb52 877e 9953 b2ca 0a52 694b 6152
00000260: 222a ba51 3c1d 1e51 67cc 1d53 24cd cf53
00000270: 5c48 0552 7f29 5652 f0cb b151 a9fb 1651
00000280: c6ad 1653 83bb c553 4430 c951 94a0 1c52
00000290: 0014 8451 b4f0 df50 ba7e df52 ccb5 9153
000002a0: d91e de51 64a7 3052 e668 9351 dc36 fa50
000002b0: 381d fa52 85be a353 5250 da51 ee20 2d52
000002c0: bfad 9051 1f88 f550 597c f552 75a3 a053
000002d0: bee6 f051 dff6 4052 d576 a051 e237 0851
000002e0: 9f0a 0853 8284 b253 ac1a 1552 a6a3 6652
000002f0: b4ec c251 6594 2e51 b94a 3353 a1b3 b853

exp_avg f4 [32]
425905.44 0.0 444714.25 429455.84 308414.25 353000.7 328858.16 431345.44
323165.16 324565.7 291701.44 381888.28 328343.97 347100.1 342123.56 422389.47
376927.16 398062.72 353858.72 366713.1 364930.5 287138.5 284493.62 427333.16
337794.22 416841.97 404542.84 327832.78 357680.84 351378.03 378546.9 142592.06
00000000: 2ef6 cf48 0000 0000 4825 d948 fbb1 d148
00000010: c897 9648 165d ac48 4593 a048 2e9e d248
00000020: a5cb 9d48 b67a 9e48 ae6e 8e48 0978 ba48
00000030: ff52 a048 837b a948 720d a748 af3e ce48
00000040: e50b b848 d75d c248 57c8 ac48 230f b348
00000050: 5030 b248 5034 8c48 b4e9 8a48 a5a8 d048
00000060: 47f0 a448 3f89 cb48 db87 c548 1913 a048
00000070: 1ba6 ae48 4192 ab48 5dd6 b848 0440 0b48

exp_avg_sq f4 [32]
5.1907723e+11 13.374006 5.364541e+11 4.9772714e+11 3.5184565e+11 3.7373765e+11 3.6996065e+11 5.2086515e+11
6.199987e+11 3.7011063e+11 3.2422832e+11 4.1890945e+11 3.5058414e+11 3.9944952e+11 3.8863127e+11 4.6516607e+11
4.1852315e+11 4.4169055e+11 3.7196867e+11 3.9823904e+11 5.557444e+11 3.1603055e+11 3.2341177e+11 4.702391e+11
3.6243715e+11 4.8450604e+11 4.6255564e+11 3.431818e+11 3.8315652e+11 3.7599055e+11 4.173175e+11 4.7656498e+11
00000000: d4b6 f152 eefb 5541 50ce f952 b3c5 e752
00000010: 45d7 a352 0009 ae52 bf46 ac52 f78b f252
00000020: cd5a 1053 a058 ac52 07fb 9652 e611 c352
00000030: e340 a352 1802 ba52 75f8 b452 1e9c d852
00000040: d9e3 c252 9ead cd52 1f36 ad52 cb71 b952
00000050: f364 0153 c729 9352 b099 9652 def8 da52
00000060: e0c5 a852 9f9d e152 ee64 d752 75ce 9f52
00000070: d16b b252 9115 af52 1f54 c252 f9ea dd52

exp_avg f4 [32, 32]
-39925.88 0.0 -60074.242 -58078.86 -11660.425 -40369.992 -19998.082 -45441.37
-82131.234 -13014.437 -13023.6455 -34708.94 -23604.135 -21988.291 -20211.91 -57881.086
-44273.953 -50006.945 -45352.188 -43258.137 -54817.613 -6866.5493 -89.93441 -61868.19
-33666.883 -53087.387 -40129.21 -29323.652 -37202.645 -32904.215 -44406.39 -55939.5
-40230.676 0.0 -60532.74 -58522.01 -11750.858 -40678.227 -20152.135 -45788.12
-82756.75 -13115.012 -13124.019 -34974.426 -23785.389 -22157.521 -20367.316 -58322.32
-44612.336 -50388.957 -45698.57 -43589.016 -55235.453 -6920.468 -92.60101 -62339.88
-33924.08 -53492.434 -40435.355 -29548.12 -37486.996 -33156.055 -44745.46 -56365.54
-38073.727 0.0 -57287.5 -55384.76 -11117.916 -38497.023 -19068.8 -43333.418
-78322.61 -12409.403 -12418.285 -33098.34 -22508.008 -20966.79 -19273.146 -55196.484
-42219.55 -47686.848 -43247.97 -41250.664 -52275.234 -6546.2896 -83.647896 -58998.664
-32104.656 -50624.715 -38267.74 -27962.605 -35476.324 -31377.07 -42346.11 -53345.39
0.0 0.0 0.0 0.0 0.0 0.0 0.0 0.0
0.0 0.0 0.0 0.0 0.0 0.0 0.0 0.0
0.0 0.0 0.0 0.0 0.0 0.0 0.0 0.0
0.0 0.0 0.0 0.0 0.0 0.0 0.0 0.0
0.0 0.0 0.0 0.0 0.0 0.0 0.0 0.0
0.0 0.0 0.0 0.0 0.0 0.0 0.0 0.0
0.0 0.0 0.0 0.0 0.0 0.0 0.0 0.0
0.0 0.0 0.0 0.0 0.0 0.0 0.0 0.0
-40869.234 0.0 -61493.453 -59450.72 -11938.449 -41323.93 -20473.055 -46514.754
-84069.15 -13324.118 -13333.063 -35529.93 -24163.73 -22510.26 -20691.453 -59247.55
-45320.754 -51188.93 -46424.05 -44281.367 -56111.695 -7031.4688 -95.5846 -63328.88
-34462.68 -54341.31 -41077.01 -30017.586 -38082.28 -33682.805 -45455.746 -57259.453
-38708.27 0.0 -58242.17 -56307.645 -11304.33 -39138.715 -19387.69 -44055.523
-79626.86 -12617.138 -12626.051 -33650.305 -22883.93 -21317.26 -19595.174 -56115.977
-42923.52 -48481.793 -43968.926 -41938.652 -53146.0 -6656.5913 -86.55395 -59981.5
-32639.953 -51468.324 -38905.4 -28429.125 -36067.895 -31900.506 -43051.996 -54233.734
0.0 0.0 0.0 0.0 0.0 0.0 0.0 0.0
0.0 0.0 0.0 0.0 0.0 0.0 0.0 0.0
0.0 0.0 0.0 0.0 0.0 0.0 0.0 0.0
0.0 0.0 0.0 0.0 0.0 0.0 0.0 0.0
00000000: e1f5 1bc7 0000 0000 3eaa 6ac7 dcde 62c7
00000010: b331 36c6 feb1 1dc7 2a3c 9cc6 5f81 31c7
00000020: 9e69 a0c7 bf59 4bc6 957e 4bc6 f194 07c7
00000030: 4568 b8c6 95c8 abc6 d2e7 9dc6 1619 62c7
00000040: f4f1 2cc7 f256 43c7 3028 31c7 23fa 28c7
00000050: 9d21 56c7 6594 d6c5 6bde b3c2 31ac 71c7
00000060: e282 03c7 635f 4fc7 36c1 1cc7 4e17 e5c6
00000070: a552 11c7 3788 00c7 6476 2dc7 8083 5ac7
00000080: ad26 1dc7 0000 0000 bd74 6cc7 039a 64c7
00000090: 6f9b 37c6 3ae6 1ec7 4570 9dc6 1fdc 32c7
000000a0: 60a2 a1c7 0cec 4cc6 1310 4dc6 6d9e 08c7
000000b0: c7d2 b9c6 0b1b adc6 a21e 9fc6 52d2 63c7
000000c0: 5644 2ec7 f5d4 44c7 9282 32c7 0445 2ac7
000000d0: 74c3 57c7 be43 d8c5 b833 b9c2 e183 73c7
000000e0: 1484 04c7 6ff4 50c7 5bf3 1dc7 3dd8 e6c6
000000f0: ff6e 12c7 0e84 01c7 76c9 2ec7 8a2d 5cc7
00000100: bab9 14c7 0000 0000 80c7 5fc7 c358 58c7
00000110: aab7 2dc6 0661 16c7 9af9 94c6 6b45 29c7
00000120: 4ef9 98c7 9de5 41c6 2409 42c6 574a 01c7
00000130: 04d8 afc6 94cd a3c6 4b92 96c6 7c9c 57c7
00000140: 8deb 24c7 d946 3ac7 f8ef 28c7 aa22 21c7
00000150: 3c33 4cc7 5192 ccc5 b94b a7c2 aa76 66c7
00000160: 50d1 fac6 b7c0 45c7 bd7b 15c7 3675 dac6
00000170: 5394 0ac7 2422 f5c6 1c6a 25c7 6461 50c7
00000180: 0000 0000 0000 0000 0000 0000 0000 0000
00000190: 0000 0000 0000 0000 0000 0000 0000 0000
000001a0: 0000 0000 0000 0000 0000 0000 0000 0000
000001b0: 0000 0000 0000 0000 0000 0000 0000 0000
000001c0: 0000 0000 0000 0000 0000 0000 0000 0000
000001d0: 0000 0000 0000 0000 0000 0000 0000 0000
000001e0: 0000 0000 0000 0000 0000 0000 0000 0000
000001f0: 0000 0000 0000 0000 0000 0000 0000 0000
00000200: 0000 0000 0000 0000 0000 0000 0000 0000
00000210: 0000 0000 0000 0000 0000 0000 0000 0000
00000220: 0000 0000 0000 0000 0000 0000 0000 0000
00000230: 0000 0000 0000 0000 0000 0000 0000 0000
00000240: 0000 0000 0000 0000 0000 0000 0000 0000
00000250: 0000 0000 0000 0000 0000 0000 0000 0000
00000260: 0000 0000 0000 0000 0000 0000 0000 0000
00000270: 0000 0000 0000 0000 0000 0000 0000 0000
00000280: 3ca5 1fc7 0000 0000 7435 70c7 b83a 68c7
00000290: cc89 3ac6 ee6b 21c7 1cf2 9fc6 c1b2 35c7
000002a0: 9332 a4c7 7930 50c6 4154 50c6 eec9 0ac7
000002b0: 76c7 bcc6 85dc afc6 e8a6 a1c6 8d6f 67c7
000002c0: c108 31c7 eef4 47c7 0d58 35c7 5ef9 2cc7
000002d0: b22f 5bc7 c0bb dbc5 512b bfc2 e160 77c7
000002e0: ae9e 06c7 4f45 54c7 0375 20c7 2c83 eac6
000002f0: 48c2 14c7 ce92 03c7 bf8f 31c7 74ab 5fc7
00000300: 4534 17c7 0000 0000 2c82 63c7 a5f3 5bc7
00000310: 52a1 30c6 b7e2 18c7 6177 97c6 8617 2cc7
00000320: 6e85 9bc7 8d24 45c6 3448 45c6 4e72 03c7
00000330: dcc7 b2c6 858a a6c6 5916 99c6 fa33 5bc7
00000340: 85ab 27c7 cb61 3dc7 edc0 2bc7 a7d2 23c7
00000350: 009a 4fc7 bb04 d0c5 9f1b adc2 804d 6ac7
00000360: e8ff fec6 530c 49c7 66f9 17c7 401a dec6
00000370: e5e3 0cc7 0339 f9c6 ff2b 28c7 bcd9 53c7
00000380: 0000 0000 0000 0000 0000 0000 0000 0000
00000390: 0000 0000 0000 0000 0000 0000 0000 0000
000003a0: 0000 0000 0000 0000 0000 0000 0000 0000
000003b0: 0000 0000 0000 0000 0000 0000 0000 0000
000003c0: 0000 0000 0000 0000 0000 0000 0000 0000
000003d0: 0000 0000 0000 0000 0000 0000 0000 0000
000003e0: 0000 0000 0000 0000 0000 0000 0000 0000
000003f0: 0000 0000 0000 0000 0000 0000 0000 0000

exp_avg_sq f4 [32, 32]
9.24841e+09 0.07554488 1.958929e+10 1.6677546e+10 1.9475675e+10 1.3059991e+10 2.5021209e+10 1.1780427e+10
1.1783253e+10 1.4811743e+10 1.4250889e+10 1.3012775e+10 1.806928e+10 2.3558599e+10 1.5834345e+10 1.2123497e+10
2.11011e+10 1.9420705e+10 1.8232189e+10 2.3531071e+10 8.821761e+09 1.9226178e+10 2.1846295e+10 1.3722611e+10
1.2800467e+10 1.6302157e+10 8.3485445e+09 1.4659654e+10 1.5590639e+10 1.6801015e+10 1.6241206e+10 5.1032914e+09
9.505495e+09 0.84985334 2.015539e+10 1.7152876e+10 2.005389e+10 1.3433178e+10 2.5769173e+10 1.2114502e+10
1.2093021e+10 1.5241528e+10 1.4664124e+10 1.3385075e+10 1.8602693e+10 2.4263602e+10 1.6298264e+10 1.246042e+10
2.172143e+10 1.9986307e+10 1.8759887e+10 2.4231262e+10 9.061163e+09 1.979312e+10 2.249302e+10 1.4105088e+10
1.3167753e+10 1.6773284e+10 8.581498e+09 1.5082862e+10 1.604321e+10 1.7288823e+10 1.6712733e+10 5.2267607e+09
8.413661e+09 0.24294303 1.7810459e+10 1.5165116e+10 1.7699131e+10 1.1875901e+10 2.2735706e+10 1.0714026e+10
1.0723592e+10 1.3465725e+10 1.2956221e+10 1.1833524e+10 1.6423372e+10 2.1407156e+10 1.4393534e+10 1.102801e+10
1.9179405e+10 1.765485e+10 1.6574808e+10 2.138447e+10 8.0274427e+09 1.747388e+10 1.9853036e+10 1.2481943e+10
1.163954e+10 1.4821809e+10 7.595067e+09 1.3328446e+10 1.4174001e+10 1.5274137e+10 1.4765381e+10 4.648059e+09
0.0 0.0 0.0 0.0 0.0 0.0 0.0 0.0
0.0 0.0 0.0 0.0 0.0 0.0 0.0 0.0
0.0 0.0 0.0 0.0 0.0 0.0 0.0 0.0
0.0 0.0 0.0 0.0 0.0 0.0 0.0 0.0
0.549059 0.33969596 432.66736 128.2818 2481.2295 285.96857 6013.458 15.165164
0.00749082 225.14734 842.89154 127.36382 566.06604 4530.559 135.30634 1.7932501
2414.3953 883.56396 1204.2063 3645.4663 0.9652349 3477.059 4221.5 4.2367306
339.4593 70.65547 0.57542866 556.5287 140.41063 537.4401 146.83156 0.001733533
9.900833e+09 0.591055 2.1008941e+10 1.7874405e+10 2.091409e+10 1.3999123e+10 2.6877884e+10 1.2623122e+10
1.25823e+10 1.5888285e+10 1.5286181e+10 1.3949425e+10 1.9398666e+10 2.5308365e+10 1.6993132e+10 1.297839e+10
2.2648748e+10 2.0835955e+10 1.9554802e+10 2.5271845e+10 9.433673e+09 2.0639283e+10 2.3456127e+10 1.4692199e+10
1.3723643e+10 1.748376e+10 8.939163e+09 1.5721398e+10 1.6724281e+10 1.8022742e+10 1.7422203e+10 5.4301466e+09
8.716436e+09 0.45550558 1.8460461e+10 1.5716454e+10 1.8351788e+10 1.2307711e+10 2.3576478e+10 1.1102313e+10
1.1104401e+10 1.3958042e+10 1.3429643e+10 1.2263601e+10 1.7027314e+10 2.2198706e+10 1.4921496e+10 1.1425482e+10
1.9883985e+10 1.8301129e+10 1.7180789e+10 2.2173325e+10 8.314323e+09 1.8116864e+10 2.0584993e+10 1.2932322e+10
1.2063192e+10 1.5362792e+10 7.8685066e+09 1.3814852e+10 1.4692141e+10 1.5832637e+10 1.5305174e+10 4.8093486e+09
0.0 0.0019120036 11.683238 2.2530065 1.4127355 0.015008731 17.743979 0.42687017
0.0 0.10469537 0.0015435201 1.2632837 1.4150617 18.603443 0.005063546 0.112944596
13.720593 10.196772 2.706323 20.23861 0.0006388459 3.7831526 5.213984 0.3002955
0.006679321 3.218196 0.0 0.74260205 0.33333543 3.8301477 1.5040065 0.0
00000000: e2cf 0950 46b7 9a3d 9bf3 9150 ca83 7850
00000010: e71a 9150 e99b 4250 2b6c ba50 c38a 2f50
00000020: 8b95 2f50 51b6 5c50 d45a 5450 cce7 4150
00000030: 6ba0 8650 7686 af50 3cf3 6b50 79a7 3450
00000040: 2737 9d50 0eb2 9050 24d7 8750 f551 af50
00000050: 5974 0350 063f 8f50 80c4 a250 9b7b 4c50
00000060: e8bd 3e50 cbeb 7250 57ce f84f 2472 5a50
00000070: 9151 6850 c95a 7a50 4903 7250 0617 984f
00000080: 96a4 0d50 fd8f 593f 5b2b 9650 0799 7f50
00000090: c269 9550 822b 4850 ccfe bf50 2885 3450
000000a0: 3733 3450 d11d 6350 3283 5a50 0274 4750
000000b0: d299 8a50 26c7 b450 f1dc 7250 bbac 3950
000000c0: 57d6 a150 dbe8 9450 a5c5 8b50 7789 b450
000000d0: 9805 0750 6178 9350 0896 a750 a42e 5250
000000e0: fe36 4450 00f1 7950 a2bf ff4f 8dc0 6050
000000f0: fd0f 6f50 d0cf 8050 040a 7950 05c5 9b4f
00000100: 24bf fa4f 0fc6 783e c1b2 8450 54fa 6150
00000110: 6ade 8350 f8f6 3050 eb64 a950 c4a6 1f50
00000120: 42cb 1f50 aaa7 4850 1010 4150 5055 3050
00000130: 31ba 7450 e97e 9f50 fa7a 5650 8554 2450
00000140: d0e5 8e50 f489 8350 e0fb 7650 a453 9f50
00000150: 873c ef4f c830 8250 a9ea 9350 d5fe 3950
00000160: 5271 2d50 b7dc 5c50 c359 e24f fd9b 4650
00000170: 8635 5350 359a 6350 7505 5c50 e085 8a4f
00000180: 0000 0000 0000 0000 0000 0000 0000 0000
00000190: 0000 0000 0000 0000 0000 0000 0000 0000
000001a0: 0000 0000 0000 0000 0000 0000 0000 0000
000001b0: 0000 0000 0000 0000 0000 0000 0000 0000
000001c0: 0000 0000 0000 0000 0000 0000 0000 0000
000001d0: 0000 0000 0000 0000 0000 0000 0000 0000
000001e0: 0000 0000 0000 0000 0000 0000 0000 0000
000001f0: 0000 0000 0000 0000 0000 0000 0000 0000
00000200: 218f 0c3f a1ec ad3e 6c55 d843 2448 0043
00000210: ac13 1b45 fafb 8e43 aaeb bb45 83a4 7241
00000220: 8d75 f53b b825 6143 0fb9 5244 47ba fe42
00000230: 3a84 0d44 7994 8d45 6c4e 0743 3889 e53f
00000240: 53e6 1645 18e4 5c44 9a86 9644 76d7 6345
00000250: a219 773f f250 5945 00ec 8345 4c93 8740
00000260: caba a943 9a4f 8d42 4b4f 133f d621 0b44
00000270: 1f69 0c43 2b5c 0644 e1d4 1243 b737 e33a
00000280: ae88 1350 614f 173f 6087 9c50 b92c 8550
00000290: 76d2 9b50 6b9a 5050 7f41 c850 6419 3c50
000002a0: aa7d 3b50 ffc0 6c50 27c8 6350 d5dc 4f50
000002b0: 0588 9050 e08f bc50 a737 7d50 a164 4150
000002c0: 0fbf a850 6e3d 9b50 d3b1 9150 384a bc50
000002d0: 9b92 0c50 4fc6 9950 03c3 ae50 4bee 5a50
000002e0: 8b7f 4c50 a043 8250 3334 0550 6044 6a50
000002f0: 1236 7950 a747 8650 37ce 8150 bbd4 a14f
00000300: 91e2 0150 0738 e93e 898a 8950 8431 6a50
00000310: 42bb 8850 3166 3750 90a8 af50 f76f 2550
00000320: ee77 2550 b4fd 4f50 061e 4850 edbd 3650
00000330: 0cba 7d50 ac64 a550 fd58 5e50 c140 2a50
00000340: b125 9450 a25a 8850 c101 8050 4334 a550
00000350: 40c9 f74f 2dfb 8650 c25e 9950 e5b4 4050
00000360: 6dc1 3350 67ec 6450 f17f ea4f 7adb 4d50
00000370: 12ee 5a50 b8ec 6b50 9b10 6450 6b54 8f4f
00000380: 0000 0000 329c fa3a 8bee 3a41 4231 1040
00000390: 84d4 b43f 2ee7 753c abf3 8d41 ba8e da3e
000003a0: 0000 0000 876a d63d f14f ca3a 48b3 a13f
000003b0: be20 b53f dad3 9441 1aec a53b 7f4f e73d
000003c0: 8d87 5b41 fa25 2341 6534 2d40 ace8 a141
000003d0: 3978 273a 2c1f 7240 f5d8 a640 55c0 993e
000003e0: 35de da3b ecf6 4d40 0000 0000 2b1b 3e3f
000003f0: f1aa aa3e 2421 7540 4983 c03f 0000 0000

exp_avg f4 [32]
19497.832 19645.482 18594.533 0.0 0.0 19956.396 18903.547 0.0
18663.834 19576.04 18479.76 0.0 19232.205 0.0 0.0 19800.064
19057.676 20265.37 20693.777 20440.336 0.0 19180.465 0.0 0.0
19695.72 19069.586 19364.355 19741.88 0.0 19399.031 18730.418 0.0
00000000: aa53 9846 f77a 9946 1145 9146 0000 0000
00000010: 0000 0000 cbe8 9b46 18af 9346 0000 0000
00000020: abcf 9146 14f0 9846 855f 9046 0000 0000
00000030: 6940 9646 0000 0000 0000 0000 21b0 9a46
00000040: 5ae3 9446 bd52 9e46 8eab a146 acb0 9f46
00000050: 0000 0000 eed8 9546 0000 0000 0000 0000
00000060: 71df 9946 2cfb 9446 b648 9746 c33b 9a46
00000070: 0000 0000 108e 9746 d654 9246 0000 0000

exp_avg_sq f4 [32]
1.5940479e+09 1.6475468e+09 1.4449537e+09 0.0 7640.3145 1.7223241e+09 1.5010807e+09 26.553558
1.4544055e+09 1.6081175e+09 1.4134587e+09 20.34501 1.5383108e+09 1747.399 1032.4335 1.6665037e+09
1.5177649e+09 1.7932346e+09 1.8642355e+09 1.8127462e+09 106.26643 1.5502236e+09 0.018388823 681.13293
1.6647067e+09 1.5163446e+09 1.5906556e+09 1.6566099e+09 108.94372 1.5772374e+09 1.420258e+09 330.74216
00000000: 7b06 be4e 2367 c44e 7d40 ac4e 0000 0000
00000010: 84c2 ee45 2951 cd4e 59f1 b24e b06d d441
00000020: ef60 ad4e dab3 bf4e 567f a84e 95c2 a241
00000030: 8561 b74e c56c da44 df0d 8144 a8a9 c64e
00000040: 82ee b44e 2dc5 d54e f43b de4e a018 d84e
00000050: 6a88 d442 12cd b84e 28a4 963c 8248 2a44
00000060: d172 c64e 2ac3 b44e f59e bd4e b97b c54e
00000070: 2fe3 d942 7705 bc4e d64e a94e ff5e a543

exp_avg f4 [32, 32]
-95046.695 -98463.36 -96627.28 0.0 0.0 -97487.61 -101172.914 0.0
-95356.63 -93835.234 -96361.75 0.0 -98130.58 0.0 0.0 -96471.37
-99410.74 -91314.766 -97100.11 -93385.805 0.0 -94868.47 0.0 0.0
-96305.84 -96905.414 -97217.44 -95728.91 0.0 -96051.91 -89914.914 0.0
0.0 0.0 0.0 0.0 0.0 0.0 0.0 0.0
0.0 0.0 0.0 0.0 0.0 0.0 0.0 0.0
0.0 0.0 0.0 0.0 0.0 0.0 0.0 0.0
0.0 0.0 0.0 0.0 0.0 0.0 0.0 0.0
0.0 0.0 0.0 0.0 0.0 0.0 0.0 0.0
0.0 0.0 0.0 0.0 0.0 0.0 0.0 0.0
0.0 0.0 0.0 0.0 0.0 0.0 0.0 0.0
0.0 0.0 0.0 0.0 0.0 0.0 0.0 0.0
-108981.37 -112899.27 -110794.48 0.0 0.0 -111780.49 -116006.32 0.0
-109337.31 -107592.484 -110489.96 0.0 -112517.18 0.0 0.0 -110614.87
-113985.41 -104703.06 -111335.84 -107077.2 0.0 -108777.47 0.0 0.0
-110425.54 -111112.77 -111470.92 -109763.61 0.0 -110134.07 -103097.336 0.0
0.0 0.0 0.0 0.0 0.0 0.0 0.0 0.0
0.0 0.0 0.0 0.0 0.0 0.0 0.0 0.0
0.0 0.0 0.0 0.0 0.0 0.0 0.0 0.0
0.0 0.0 0.0 0.0 0.0 0.0 0.0 0.0
-92578.7 -95906.61 -94118.08 0.0 0.0 -94956.14 -98545.72 0.0
-92880.47 -91398.71 -93859.46 0.0 -95582.59 0.0 0.0 -93966.414
-96829.42 -88943.54 -94578.83 -90960.92 0.0 -92404.99 0.0 0.0
-93805.06 -94389.15 -94692.99 -93243.195 0.0 -93557.82 -87580.17 0.0
0.0 0.0 0.0 0.0 0.0 0.0 0.0 0.0
0.0 0.0 0.0 0.0 0.0 0.0 0.0 0.0
0.0 0.0 0.0 0.0 0.0 0.0 0.0 0.0
0.0 0.0 0.0 0.0 0.0 0.0 0.0 0.0
-102883.6 -106582.13 -104594.89 0.0 0.0 -105525.98 -109515.22 0.0
-103219.375 -101572.336 -104307.46 0.0 -106221.664 0.0 0.0 -104425.695
-107607.56 -98844.33 -105106.336 -101085.88 0.0 -102690.93 0.0 0.0
-104246.78 -104895.67 -105233.6 -103622.055 0.0 -103971.75 -97328.734 0.0
00000000: 59a3 b9c7 ae4f c0c7 a4b9 bcc7 0000 0000
00000010: 0000 0000 ce67 bec7 759a c5c7 0000 0000
00000020: 513e bac7 9e45 b7c7 e034 bcc7 0000 0000
00000030: 4aa9 bfc7 0000 0000 0000 0000 af6b bcc7
00000040: 5f29 c2c7 6259 b2c7 0ea6 bdc7 e764 b6c7
00000050: 0000 0000 3c4a b9c7 0000 0000 0000 0000
00000060: ec18 bcc7 b544 bdc7 b8e0 bdc7 74f8 bac7
00000070: 0000 0000 f499 bbc7 759d afc7 0000 0000
00000080: 0000 0000 0000 0000 0000 0000 0000 0000
00000090: 0000 0000 0000 0000 0000 0000 0000 0000
000000a0: 0000 0000 0000 0000 0000 0000 0000 0000
000000b0: 0000 0000 0000 0000 0000 0000 0000 0000
000000c0: 0000 0000 0000 0000 0000 0000 0000 0000
000000d0: 0000 0000 0000 0000 0000 0000 0000 0000
000000e0: 0000 0000 0000 0000 0000 0000 0000 0000
000000f0: 0000 0000 0000 0000 0000 0000 0000 0000
00000100: 0000 0000 0000 0000 0000 0000 0000 0000
00000110: 0000 0000 0000 0000 0000 0000 0000 0000
00000120: 0000 0000 0000 0000 0000 0000 0000 0000
00000130: 0000 0000 0000 0000 0000 0000 0000 0000
00000140: 0000 0000 0000 0000 0000 0000 0000 0000
00000150: 0000 0000 0000 0000 0000 0000 0000 0000
00000160: 0000 0000 0000 0000 0000 0000 0000 0000
00000170: 0000 0000 0000 0000 0000 0000 0000 0000
00000180: afda d4c7 a381 dcc7 3d65 d8c7 0000 0000
00000190: 0000 0000 3f52 dac7 2993 e2c7 0000 0000
000001a0: a88c d5c7 3e24 d2c7 fbcc d7c7 0000 0000
000001b0: 97c2 dbc7 0000 0000 0000 0000 6f0b d8c7
000001c0: b4a0 dec7 887f ccc7 ec73 d9c7 9a22 d1c7
000001d0: 0000 0000 bc74 d4c7 0000 0000 0000 0000
000001e0: c5ac d7c7 6304 d9c7 76b7 d9c7 ce61 d6c7
000001f0: 0000 0000 091b d7c7 ab5c c9c7 0000 0000
00000200: 0000 0000 0000 0000 0000 0000 0000 0000
00000210: 0000 0000 0000 0000 0000 0000 0000 0000
00000220: 0000 0000 0000 0000 0000 0000 0000 0000
00000230: 0000 0000 0000 0000 0000 0000 0000 0000
00000240: 0000 0000 0000 0000 0000 0000 0000 0000
00000250: 0000 0000 0000 0000 0000 0000 0000 0000
00000260: 0000 0000 0000 0000 0000 0000 0000 0000
00000270: 0000 0000 0000 0000 0000 0000 0000 0000
00000280: 5ad1 b4c7 4e51 bbc7 0ad3 b7c7 0000 0000
00000290: 0000 0000 1276 b9c7 dc78 c0c7 0000 0000
000002a0: 3c68 b5c7 5b83 b2c7 bb51 b7c7 0000 0000
000002b0: 4caf bac7 0000 0000 0000 0000 3587 b7c7
000002c0: b61e bdc7 c5b7 adc7 6ab9 b8c7 76a8 b1c7
000002d0: 0000 0000 7f7a b4c7 0000 0000 0000 0000
000002e0: 8836 b7c7 935a b8c7 7ff2 b8c7 991d b6c7
000002f0: 0000 0000 e9ba b6c7 160e abc7 0000 0000
00000300: 0000 0000 0000 0000 0000 0000 0000 0000
00000310: 0000 0000 0000 0000 0000 0000 0000 0000
00000320: 0000 0000 0000 0000 0000 0000 0000 0000
00000330: 0000 0000 0000 0000 0000 0000 0000 0000
00000340: 0000 0000 0000 0000 0000 0000 0000 0000
00000350: 0000 0000 0000 0000 0000 0000 0000 0000
00000360: 0000 0000 0000 0000 0000 0000 0000 0000
00000370: 0000 0000 0000 0000 0000 0000 0000 0000
00000380: cdf1 c8c7 112b d0c7 7249 ccc7 0000 0000
00000390: 0000 0000 fd1a cec7 9ce5 d5c7 0000 0000
000003a0: b099 c9c7 2b62 c6c7 bbb9 cbc7 0000 0000
000003b0: d576 cfc7 0000 0000 0000 0000 d9f4 cbc7
000003c0: c82b d2c7 2a0e c1c7 2b49 cdc7 f16e c5c7
000003d0: 0000 0000 7791 c8c7 0000 0000 0000 0000
000003e0: 649b cbc7 d6df ccc7 cd88 cdc7 0763 cac7
000003f0: 0000 0000 e011 cbc7 5e18 bec7 0000 0000
